…
I0602 10:01:04.327280 24007 net.cpp:296] The NetState phase (1) differed from the phase (0) specified by a rule in layer data
I0602 10:01:04.327350 24007 net.cpp:296] The NetState phase (1) differed from the phase (0) specified by a rule in layer indicator
I0602 10:01:04.327615 24007 net.cpp:53] Initializing net from parameters: 
name: "resnet_bilstm_ctc_net"
state {
  phase: TEST
  level: 0
  stage: ""
}
layer {
  name: "data"
  type: "HDF5Data"
  top: "data"
  top: "label"
  include {
    phase: TEST
  }
  hdf5_data_param {
    source: "/home/hjzhan/caffe/examples/hds/cara/testing.list"
    batch_size: 1
  }
}
layer {
  name: "data_bn"
  type: "BatchNorm"
  bottom: "data"
  top: "data_bn"
}
layer {
  name: "data_scale"
  type: "Scale"
  bottom: "data_bn"
  top: "data_bn"
  param {
    lr_mult: 1
    decay_mult: 1
  }
  param {
    lr_mult: 2
    decay_mult: 1
  }
  scale_param {
    bias_term: true
  }
}
layer {
  name: "conv1"
  type: "Convolution"
  bottom: "data_bn"
  top: "conv1"
  param {
    lr_mult: 1
    decay_mult: 1
  }
  param {
    lr_mult: 2
    decay_mult: 1
  }
  convolution_param {
    num_output: 64
    pad: 1
    kernel_size: 5
    stride: 1
    weight_filler {
      type: "msra"
      variance_norm: FAN_OUT
    }
    bias_filler {
      type: "constant"
      value: 0
    }
  }
}
layer {
  name: "conv1_bn"
  type: "BatchNorm"
  bottom: "conv1"
  top: "conv1"
}
layer {
  name: "conv1_scale"
  type: "Scale"
  bottom: "conv1"
  top: "conv1"
  param {
    lr_mult: 1
    decay_mult: 1
  }
  param {
    lr_mult: 2
    decay_mult: 1
  }
  scale_param {
    bias_term: true
  }
}
layer {
  name: "conv1_relu"
  type: "ReLU"
  bottom: "conv1"
  top: "conv1"
}
layer {
  name: "conv1_pool"
  type: "Pooling"
  bottom: "conv1"
  top: "conv1_pool"
  pooling_param {
    kernel_size: 3
    stride: 1
  }
}
layer {
  name: "layer_64_1_conv1"
  type: "Convolution"
  bottom: "conv1_pool"
  top: "layer_64_1_conv1"
  param {
    lr_mult: 1
    decay_mult: 1
  }
  convolution_param {
    num_output: 64
    bias_term: false
    pad: 1
    kernel_size: 3
    stride: 1
    weight_filler {
      type: "msra"
    }
    bias_filler {
      type: "constant"
      value: 0
    }
  }
}
layer {
  name: "layer_64_1_bn2"
  type: "BatchNorm"
  bottom: "layer_64_1_conv1"
  top: "layer_64_1_conv1"
}
layer {
  name: "layer_64_1_scale2"
  type: "Scale"
  bottom: "layer_64_1_conv1"
  top: "layer_64_1_conv1"
  param {
    lr_mult: 1
    decay_mult: 1
  }
  param {
    lr_mult: 2
    decay_mult: 1
  }
  scale_param {
    bias_term: true
  }
}
layer {
  name: "layer_64_1_relu2"
  type: "ReLU"
  bottom: "layer_64_1_conv1"
  top: "layer_64_1_conv1"
}
layer {
  name: "layer_64_1_conv2"
  type: "Convolution"
  bottom: "layer_64_1_conv1"
  top: "layer_64_1_conv2"
  param {
    lr_mult: 1
    decay_mult: 1
  }
  convolution_param {
    num_output: 64
    bias_term: false
    pad: 1
    kernel_size: 3
    stride: 1
    weight_filler {
      type: "msra"
    }
    bias_filler {
      type: "constant"
      value: 0
    }
  }
}
layer {
  name: "layer_64_1_sum"
  type: "Eltwise"
  bottom: "layer_64_1_conv2"
  bottom: "conv1_pool"
  top: "layer_64_1_sum"
}
layer {
  name: "layer_128_1_bn1"
  type: "BatchNorm"
  bottom: "layer_64_1_sum"
  top: "layer_128_1_bn1"
}
layer {
  name: "layer_128_1_scale1"
  type: "Scale"
  bottom: "layer_128_1_bn1"
  top: "layer_128_1_bn1"
  param {
    lr_mult: 1
    decay_mult: 1
  }
  param {
    lr_mult: 2
    decay_mult: 1
  }
  scale_param {
    bias_term: true
  }
}
layer {
  name: "layer_128_1_relu1"
  type: "ReLU"
  bottom: "layer_128_1_bn1"
  top: "layer_128_1_bn1"
}
layer {
  name: "layer_128_1_conv1"
  type: "Convolution"
  bottom: "layer_128_1_bn1"
  top: "layer_128_1_conv1"
  param {
    lr_mult: 1
    decay_mult: 1
  }
  convolution_param {
    num_output: 128
    bias_term: false
    pad: 1
    kernel_size: 3
    stride: 2
    weight_filler {
      type: "msra"
    }
    bias_filler {
      type: "constant"
      value: 0
    }
  }
}
layer {
  name: "layer_128_1_bn2"
  type: "BatchNorm"
  bottom: "layer_128_1_conv1"
  top: "layer_128_1_conv1"
}
layer {
  name: "layer_128_1_scale2"
  type: "Scale"
  bottom: "layer_128_1_conv1"
  top: "layer_128_1_conv1"
  param {
    lr_mult: 1
    decay_mult: 1
  }
  param {
    lr_mult: 2
    decay_mult: 1
  }
  scale_param {
    bias_term: true
  }
}
layer {
  name: "layer_128_1_relu2"
  type: "ReLU"
  bottom: "layer_128_1_conv1"
  top: "layer_128_1_conv1"
}
layer {
  name: "layer_128_1_conv2"
  type: "Convolution"
  bottom: "layer_128_1_conv1"
  top: "layer_128_1_conv2"
  param {
    lr_mult: 1
    decay_mult: 1
  }
  convolution_param {
    num_output: 128
    bias_term: false
    pad: 1
    kernel_size: 3
    stride: 1
    weight_filler {
      type: "msra"
    }
    bias_filler {
      type: "constant"
      value: 0
    }
  }
}
layer {
  name: "layer_128_1_conv_expand"
  type: "Convolution"
  bottom: "layer_128_1_bn1"
  top: "layer_128_1_conv_expand"
  param {
    lr_mult: 1
    decay_mult: 1
  }
  convolution_param {
    num_output: 128
    bias_term: false
    pad: 0
    kernel_size: 1
    stride: 2
    weight_filler {
      type: "msra"
    }
    bias_filler {
      type: "constant"
      value: 0
    }
  }
}
layer {
  name: "layer_128_1_sum"
  type: "Eltwise"
  bottom: "layer_128_1_conv2"
  bottom: "layer_128_1_conv_expand"
  top: "layer_128_1_sum"
}
layer {
  name: "layer_256_1_bn1"
  type: "BatchNorm"
  bottom: "layer_128_1_sum"
  top: "layer_256_1_bn1"
}
layer {
  name: "layer_256_1_scale1"
  type: "Scale"
  bottom: "layer_256_1_bn1"
  top: "layer_256_1_bn1"
  param {
    lr_mult: 1
    decay_mult: 1
  }
  param {
    lr_mult: 2
    decay_mult: 1
  }
  scale_param {
    bias_term: true
  }
}
layer {
  name: "layer_256_1_relu1"
  type: "ReLU"
  bottom: "layer_256_1_bn1"
  top: "layer_256_1_bn1"
}
layer {
  name: "layer_256_1_conv1"
  type: "Convolution"
  bottom: "layer_256_1_bn1"
  top: "layer_256_1_conv1"
  param {
    lr_mult: 1
    decay_mult: 1
  }
  convolution_param {
    num_output: 256
    bias_term: false
    pad: 1
    kernel_size: 3
    stride: 2
    weight_filler {
      type: "msra"
    }
    bias_filler {
      type: "constant"
      value: 0
    }
  }
}
layer {
  name: "layer_256_1_bn2"
  type: "BatchNorm"
  bottom: "layer_256_1_conv1"
  top: "layer_256_1_conv1"
}
layer {
  name: "layer_256_1_scale2"
  type: "Scale"
  bottom: "layer_256_1_conv1"
  top: "layer_256_1_conv1"
  param {
    lr_mult: 1
    decay_mult: 1
  }
  param {
    lr_mult: 2
    decay_mult: 1
  }
  scale_param {
    bias_term: true
  }
}
layer {
  name: "layer_256_1_relu2"
  type: "ReLU"
  bottom: "layer_256_1_conv1"
  top: "layer_256_1_conv1"
}
layer {
  name: "layer_256_1_conv2"
  type: "Convolution"
  bottom: "layer_256_1_conv1"
  top: "layer_256_1_conv2"
  param {
    lr_mult: 1
    decay_mult: 1
  }
  convolution_param {
    num_output: 256
    bias_term: false
    pad: 1
    kernel_size: 3
    stride: 1
    weight_filler {
      type: "msra"
    }
    bias_filler {
      type: "constant"
      value: 0
    }
  }
}
layer {
  name: "layer_256_1_conv_expand"
  type: "Convolution"
  bottom: "layer_256_1_bn1"
  top: "layer_256_1_conv_expand"
  param {
    lr_mult: 1
    decay_mult: 1
  }
  convolution_param {
    num_output: 256
    bias_term: false
    pad: 0
    kernel_size: 1
    stride: 2
    weight_filler {
      type: "msra"
    }
    bias_filler {
      type: "constant"
      value: 0
    }
  }
}
layer {
  name: "layer_256_1_sum"
  type: "Eltwise"
  bottom: "layer_256_1_conv2"
  bottom: "layer_256_1_conv_expand"
  top: "layer_256_1_sum"
}
layer {
  name: "layer_512_1_bn1"
  type: "BatchNorm"
  bottom: "layer_256_1_sum"
  top: "layer_512_1_bn1"
}
layer {
  name: "layer_512_1_scale1"
  type: "Scale"
  bottom: "layer_512_1_bn1"
  top: "layer_512_1_bn1"
  param {
    lr_mult: 1
    decay_mult: 1
  }
  param {
    lr_mult: 2
    decay_mult: 1
  }
  scale_param {
    bias_term: true
  }
}
layer {
  name: "layer_512_1_relu1"
  type: "ReLU"
  bottom: "layer_512_1_bn1"
  top: "layer_512_1_bn1"
}
layer {
  name: "layer_512_1_conv1"
  type: "Convolution"
  bottom: "layer_512_1_bn1"
  top: "layer_512_1_conv1"
  param {
    lr_mult: 1
    decay_mult: 1
  }
  convolution_param {
    num_output: 512
    bias_term: false
    pad: 1
    kernel_size: 3
    stride: 2
    weight_filler {
      type: "msra"
    }
    bias_filler {
      type: "constant"
      value: 0
    }
  }
}
layer {
  name: "layer_512_1_bn2"
  type: "BatchNorm"
  bottom: "layer_512_1_conv1"
  top: "layer_512_1_conv1"
}
layer {
  name: "layer_512_1_scale2"
  type: "Scale"
  bottom: "layer_512_1_conv1"
  top: "layer_512_1_conv1"
  param {
    lr_mult: 1
    decay_mult: 1
  }
  param {
    lr_mult: 2
    decay_mult: 1
  }
  scale_param {
    bias_term: true
  }
}
layer {
  name: "layer_512_1_relu2"
  type: "ReLU"
  bottom: "layer_512_1_conv1"
  top: "layer_512_1_conv1"
}
layer {
  name: "layer_512_1_conv2"
  type: "Convolution"
  bottom: "layer_512_1_conv1"
  top: "layer_512_1_conv2"
  param {
    lr_mult: 1
    decay_mult: 1
  }
  convolution_param {
    num_output: 512
    bias_term: false
    pad: 1
    kernel_size: 3
    stride: 1
    weight_filler {
      type: "msra"
    }
    bias_filler {
      type: "constant"
      value: 0
    }
  }
}
layer {
  name: "layer_512_1_conv_expand"
  type: "Convolution"
  bottom: "layer_512_1_bn1"
  top: "layer_512_1_conv_expand"
  param {
    lr_mult: 1
    decay_mult: 1
  }
  convolution_param {
    num_output: 512
    bias_term: false
    pad: 0
    kernel_size: 1
    stride: 2
    weight_filler {
      type: "msra"
    }
    bias_filler {
      type: "constant"
      value: 0
    }
  }
}
layer {
  name: "layer_512_1_sum"
  type: "Eltwise"
  bottom: "layer_512_1_conv2"
  bottom: "layer_512_1_conv_expand"
  top: "layer_512_1_sum"
}
layer {
  name: "last_bn"
  type: "BatchNorm"
  bottom: "layer_512_1_sum"
  top: "layer_512_1_sum"
}
layer {
  name: "last_scale"
  type: "Scale"
  bottom: "layer_512_1_sum"
  top: "layer_512_1_sum"
  param {
    lr_mult: 1
    decay_mult: 1
  }
  param {
    lr_mult: 2
    decay_mult: 1
  }
  scale_param {
    bias_term: true
  }
}
layer {
  name: "last_relu"
  type: "ReLU"
  bottom: "layer_512_1_sum"
  top: "layer_512_1_sum"
}
layer {
  name: "indicator"
  type: "ContinuationIndicator"
  top: "indicator"
  include {
    phase: TEST
  }
  continuation_indicator_param {
    time_step: 15
    batch_size: 1
  }
}
layer {
  name: "permuted_data"
  type: "Permute"
  bottom: "layer_512_1_sum"
  top: "permuted_data"
  permute_param {
    order: 3
    order: 0
    order: 1
    order: 2
  }
}
layer {
  name: "lstm1"
  type: "LSTM"
  bottom: "permuted_data"
  bottom: "indicator"
  top: "lstm1"
  recurrent_param {
    num_output: 100
    weight_filler {
      type: "xavier"
    }
    bias_filler {
      type: "constant"
      value: 0
    }
  }
}
layer {
  name: "lstm2"
  type: "LSTM"
  bottom: "lstm1"
  bottom: "indicator"
  top: "lstm2"
  recurrent_param {
    num_output: 100
    weight_filler {
      type: "xavier"
    }
    bias_filler {
      type: "constant"
      value: 0
    }
  }
}
layer {
  name: "fc1"
  type: "InnerProduct"
  bottom: "lstm2"
  top: "fc1"
  param {
    lr_mult: 1
    decay_mult: 1
  }
  param {
    lr_mult: 2
    decay_mult: 0
  }
  inner_product_param {
    num_output: 100
    weight_filler {
      type: "xavier"
    }
    bias_filler {
      type: "constant"
      value: 0
    }
    axis: 2
  }
}
layer {
  name: "fc2"
  type: "InnerProduct"
  bottom: "fc1"
  top: "fc2"
  param {
    lr_mult: 1
    decay_mult: 1
  }
  param {
    lr_mult: 2
    decay_mult: 0
  }
  inner_product_param {
    num_output: 11
    weight_filler {
      type: "xavier"
    }
    bias_filler {
      type: "constant"
      value: 0
    }
    axis: 2
  }
}
layer {
  name: "rev1"
  type: "Reverse"
  bottom: "permuted_data"
  top: "rev_data"
}
layer {
  name: "lstm3"
  type: "LSTM"
  bottom: "rev_data"
  bottom: "indicator"
  top: "lstm3"
  recurrent_param {
    num_output: 100
    weight_filler {
      type: "xavier"
    }
    bias_filler {
      type: "constant"
      value: 0
    }
  }
}
layer {
  name: "lstm4"
  type: "LSTM"
  bottom: "lstm3"
  bottom: "indicator"
  top: "lstm4"
  recurrent_param {
    num_output: 100
    weight_filler {
      type: "xavier"
    }
    bias_filler {
      type: "constant"
      value: 0
    }
  }
}
layer {
  name: "fc3"
  type: "InnerProduct"
  bottom: "lstm4"
  top: "fc3"
  param {
    lr_mult: 1
    decay_mult: 1
  }
  param {
    lr_mult: 2
    decay_mult: 0
  }
  inner_product_param {
    num_output: 100
    weight_filler {
      type: "xavier"
    }
    bias_filler {
      type: "constant"
      value: 0
    }
    axis: 2
  }
}
layer {
  name: "fc4"
  type: "InnerProduct"
  bottom: "fc3"
  top: "fc4"
  param {
    lr_mult: 1
    decay_mult: 1
  }
  param {
    lr_mult: 2
    decay_mult: 0
  }
  inner_product_param {
    num_output: 11
    weight_filler {
      type: "xavier"
    }
    bias_filler {
      type: "constant"
      value: 0
    }
    axis: 2
  }
}
layer {
  name: "rev2"
  type: "Reverse"
  bottom: "fc4"
  top: "rev2"
}
layer {
  name: "eltwise-sum"
  type: "Eltwise"
  bottom: "fc2"
  bottom: "rev2"
  top: "sum"
  eltwise_param {
    operation: SUM
  }
}
layer {
  name: "ctc_loss"
  type: "CtcLoss"
  bottom: "sum"
  bottom: "label"
  top: "ctc_loss"
  loss_weight: 1
  ctc_loss_param {
    alphabet_size: 11
    time_step: 15
    blank_label: 10
  }
}
layer {
  name: "permute_fc"
  type: "Permute"
  bottom: "sum"
  top: "premuted_fc"
  include {
    phase: TEST
  }
  permute_param {
    order: 1
    order: 0
    order: 2
  }
}
layer {
  name: "accuracy"
  type: "LabelsequenceAccuracy"
  bottom: "premuted_fc"
  bottom: "label"
  top: "accuracy"
  include {
    phase: TEST
  }
  labelsequence_accuracy_param {
    blank_label: 10
    is_print_labels: 1
  }
}
I0602 10:01:04.327899 24007 layer_factory.hpp:77] Creating layer data
I0602 10:01:04.327919 24007 net.cpp:86] Creating Layer data
I0602 10:01:04.327930 24007 net.cpp:382] data -> data
I0602 10:01:04.327955 24007 net.cpp:382] data -> label
I0602 10:01:04.327966 24007 hdf5_data_layer.cpp:79] Loading list of HDF5 filenames from: /home/hjzhan/Music/warpctc-caffe/examples/hds/cara/testing.list
I0602 10:01:04.328011 24007 hdf5_data_layer.cpp:93] Number of HDF5 files: 1
I0602 10:01:04.371582 24007 hdf5.cpp:32] Datatype class: H5T_FLOAT
I0602 10:01:18.481313 24007 net.cpp:124] Setting up data
I0602 10:01:18.481389 24007 net.cpp:131] Top shape: 1 3 50 120 (18000)
I0602 10:01:18.481410 24007 net.cpp:131] Top shape: 1 10 (10)
I0602 10:01:18.481422 24007 net.cpp:139] Memory required for data: 72040
I0602 10:01:18.481441 24007 layer_factory.hpp:77] Creating layer label_data_1_split
I0602 10:01:18.481474 24007 net.cpp:86] Creating Layer label_data_1_split
I0602 10:01:18.481492 24007 net.cpp:408] label_data_1_split <- label
I0602 10:01:18.481518 24007 net.cpp:382] label_data_1_split -> label_data_1_split_0
I0602 10:01:18.481544 24007 net.cpp:382] label_data_1_split -> label_data_1_split_1
I0602 10:01:18.481573 24007 net.cpp:124] Setting up label_data_1_split
I0602 10:01:18.481590 24007 net.cpp:131] Top shape: 1 10 (10)
I0602 10:01:18.481606 24007 net.cpp:131] Top shape: 1 10 (10)
I0602 10:01:18.481618 24007 net.cpp:139] Memory required for data: 72120
I0602 10:01:18.481631 24007 layer_factory.hpp:77] Creating layer data_bn
I0602 10:01:18.481650 24007 net.cpp:86] Creating Layer data_bn
I0602 10:01:18.481663 24007 net.cpp:408] data_bn <- data
I0602 10:01:18.481679 24007 net.cpp:382] data_bn -> data_bn
I0602 10:01:18.481731 24007 net.cpp:124] Setting up data_bn
I0602 10:01:18.481751 24007 net.cpp:131] Top shape: 1 3 50 120 (18000)
I0602 10:01:18.481765 24007 net.cpp:139] Memory required for data: 144120
I0602 10:01:18.481809 24007 layer_factory.hpp:77] Creating layer data_scale
I0602 10:01:18.481838 24007 net.cpp:86] Creating Layer data_scale
I0602 10:01:18.481851 24007 net.cpp:408] data_scale <- data_bn
I0602 10:01:18.481868 24007 net.cpp:369] data_scale -> data_bn (in-place)
I0602 10:01:18.481932 24007 layer_factory.hpp:77] Creating layer data_scale
I0602 10:01:18.482005 24007 net.cpp:124] Setting up data_scale
I0602 10:01:18.482023 24007 net.cpp:131] Top shape: 1 3 50 120 (18000)
I0602 10:01:18.482048 24007 net.cpp:139] Memory required for data: 216120
I0602 10:01:18.482092 24007 layer_factory.hpp:77] Creating layer conv1
I0602 10:01:18.482137 24007 net.cpp:86] Creating Layer conv1
I0602 10:01:18.482152 24007 net.cpp:408] conv1 <- data_bn
I0602 10:01:18.482167 24007 net.cpp:382] conv1 -> conv1
I0602 10:01:20.127125 24007 net.cpp:124] Setting up conv1
I0602 10:01:20.127163 24007 net.cpp:131] Top shape: 1 64 48 118 (362496)
I0602 10:01:20.127171 24007 net.cpp:139] Memory required for data: 1666104
I0602 10:01:20.127184 24007 layer_factory.hpp:77] Creating layer conv1_bn
I0602 10:01:20.127198 24007 net.cpp:86] Creating Layer conv1_bn
I0602 10:01:20.127209 24007 net.cpp:408] conv1_bn <- conv1
I0602 10:01:20.127219 24007 net.cpp:369] conv1_bn -> conv1 (in-place)
I0602 10:01:20.127243 24007 net.cpp:124] Setting up conv1_bn
I0602 10:01:20.127251 24007 net.cpp:131] Top shape: 1 64 48 118 (362496)
I0602 10:01:20.127259 24007 net.cpp:139] Memory required for data: 3116088
I0602 10:01:20.127270 24007 layer_factory.hpp:77] Creating layer conv1_scale
I0602 10:01:20.127281 24007 net.cpp:86] Creating Layer conv1_scale
I0602 10:01:20.127288 24007 net.cpp:408] conv1_scale <- conv1
I0602 10:01:20.127295 24007 net.cpp:369] conv1_scale -> conv1 (in-place)
I0602 10:01:20.127310 24007 layer_factory.hpp:77] Creating layer conv1_scale
I0602 10:01:20.127334 24007 net.cpp:124] Setting up conv1_scale
I0602 10:01:20.127341 24007 net.cpp:131] Top shape: 1 64 48 118 (362496)
I0602 10:01:20.127346 24007 net.cpp:139] Memory required for data: 4566072
I0602 10:01:20.127355 24007 layer_factory.hpp:77] Creating layer conv1_relu
I0602 10:01:20.127365 24007 net.cpp:86] Creating Layer conv1_relu
I0602 10:01:20.127370 24007 net.cpp:408] conv1_relu <- conv1
I0602 10:01:20.127378 24007 net.cpp:369] conv1_relu -> conv1 (in-place)
I0602 10:01:20.132081 24007 net.cpp:124] Setting up conv1_relu
I0602 10:01:20.132098 24007 net.cpp:131] Top shape: 1 64 48 118 (362496)
I0602 10:01:20.132104 24007 net.cpp:139] Memory required for data: 6016056
I0602 10:01:20.132110 24007 layer_factory.hpp:77] Creating layer conv1_pool
I0602 10:01:20.132125 24007 net.cpp:86] Creating Layer conv1_pool
I0602 10:01:20.132133 24007 net.cpp:408] conv1_pool <- conv1
I0602 10:01:20.132138 24007 net.cpp:382] conv1_pool -> conv1_pool
I0602 10:01:20.132160 24007 net.cpp:124] Setting up conv1_pool
I0602 10:01:20.132169 24007 net.cpp:131] Top shape: 1 64 46 116 (341504)
I0602 10:01:20.132174 24007 net.cpp:139] Memory required for data: 7382072
I0602 10:01:20.132179 24007 layer_factory.hpp:77] Creating layer conv1_pool_conv1_pool_0_split
I0602 10:01:20.132185 24007 net.cpp:86] Creating Layer conv1_pool_conv1_pool_0_split
I0602 10:01:20.132190 24007 net.cpp:408] conv1_pool_conv1_pool_0_split <- conv1_pool
I0602 10:01:20.132196 24007 net.cpp:382] conv1_pool_conv1_pool_0_split -> conv1_pool_conv1_pool_0_split_0
I0602 10:01:20.132205 24007 net.cpp:382] conv1_pool_conv1_pool_0_split -> conv1_pool_conv1_pool_0_split_1
I0602 10:01:20.132213 24007 net.cpp:124] Setting up conv1_pool_conv1_pool_0_split
I0602 10:01:20.132220 24007 net.cpp:131] Top shape: 1 64 46 116 (341504)
I0602 10:01:20.132226 24007 net.cpp:131] Top shape: 1 64 46 116 (341504)
I0602 10:01:20.132231 24007 net.cpp:139] Memory required for data: 10114104
I0602 10:01:20.132238 24007 layer_factory.hpp:77] Creating layer layer_64_1_conv1
I0602 10:01:20.132251 24007 net.cpp:86] Creating Layer layer_64_1_conv1
I0602 10:01:20.132259 24007 net.cpp:408] layer_64_1_conv1 <- conv1_pool_conv1_pool_0_split_0
I0602 10:01:20.132267 24007 net.cpp:382] layer_64_1_conv1 -> layer_64_1_conv1
I0602 10:01:20.140839 24007 net.cpp:124] Setting up layer_64_1_conv1
I0602 10:01:20.140857 24007 net.cpp:131] Top shape: 1 64 46 116 (341504)
I0602 10:01:20.140863 24007 net.cpp:139] Memory required for data: 11480120
I0602 10:01:20.140871 24007 layer_factory.hpp:77] Creating layer layer_64_1_bn2
I0602 10:01:20.140882 24007 net.cpp:86] Creating Layer layer_64_1_bn2
I0602 10:01:20.140888 24007 net.cpp:408] layer_64_1_bn2 <- layer_64_1_conv1
I0602 10:01:20.140904 24007 net.cpp:369] layer_64_1_bn2 -> layer_64_1_conv1 (in-place)
I0602 10:01:20.140934 24007 net.cpp:124] Setting up layer_64_1_bn2
I0602 10:01:20.140944 24007 net.cpp:131] Top shape: 1 64 46 116 (341504)
I0602 10:01:20.140950 24007 net.cpp:139] Memory required for data: 12846136
I0602 10:01:20.140961 24007 layer_factory.hpp:77] Creating layer layer_64_1_scale2
I0602 10:01:20.140969 24007 net.cpp:86] Creating Layer layer_64_1_scale2
I0602 10:01:20.140976 24007 net.cpp:408] layer_64_1_scale2 <- layer_64_1_conv1
I0602 10:01:20.140982 24007 net.cpp:369] layer_64_1_scale2 -> layer_64_1_conv1 (in-place)
I0602 10:01:20.140995 24007 layer_factory.hpp:77] Creating layer layer_64_1_scale2
I0602 10:01:20.141016 24007 net.cpp:124] Setting up layer_64_1_scale2
I0602 10:01:20.141026 24007 net.cpp:131] Top shape: 1 64 46 116 (341504)
I0602 10:01:20.141032 24007 net.cpp:139] Memory required for data: 14212152
I0602 10:01:20.141042 24007 layer_factory.hpp:77] Creating layer layer_64_1_relu2
I0602 10:01:20.141052 24007 net.cpp:86] Creating Layer layer_64_1_relu2
I0602 10:01:20.141059 24007 net.cpp:408] layer_64_1_relu2 <- layer_64_1_conv1
I0602 10:01:20.141067 24007 net.cpp:369] layer_64_1_relu2 -> layer_64_1_conv1 (in-place)
I0602 10:01:20.143141 24007 net.cpp:124] Setting up layer_64_1_relu2
I0602 10:01:20.143157 24007 net.cpp:131] Top shape: 1 64 46 116 (341504)
I0602 10:01:20.143163 24007 net.cpp:139] Memory required for data: 15578168
I0602 10:01:20.143170 24007 layer_factory.hpp:77] Creating layer layer_64_1_conv2
I0602 10:01:20.143182 24007 net.cpp:86] Creating Layer layer_64_1_conv2
I0602 10:01:20.143190 24007 net.cpp:408] layer_64_1_conv2 <- layer_64_1_conv1
I0602 10:01:20.143199 24007 net.cpp:382] layer_64_1_conv2 -> layer_64_1_conv2
I0602 10:01:20.150280 24007 net.cpp:124] Setting up layer_64_1_conv2
I0602 10:01:20.150295 24007 net.cpp:131] Top shape: 1 64 46 116 (341504)
I0602 10:01:20.150300 24007 net.cpp:139] Memory required for data: 16944184
I0602 10:01:20.150307 24007 layer_factory.hpp:77] Creating layer layer_64_1_sum
I0602 10:01:20.150315 24007 net.cpp:86] Creating Layer layer_64_1_sum
I0602 10:01:20.150321 24007 net.cpp:408] layer_64_1_sum <- layer_64_1_conv2
I0602 10:01:20.150329 24007 net.cpp:408] layer_64_1_sum <- conv1_pool_conv1_pool_0_split_1
I0602 10:01:20.150337 24007 net.cpp:382] layer_64_1_sum -> layer_64_1_sum
I0602 10:01:20.150349 24007 net.cpp:124] Setting up layer_64_1_sum
I0602 10:01:20.150357 24007 net.cpp:131] Top shape: 1 64 46 116 (341504)
I0602 10:01:20.150362 24007 net.cpp:139] Memory required for data: 18310200
I0602 10:01:20.150368 24007 layer_factory.hpp:77] Creating layer layer_128_1_bn1
I0602 10:01:20.150380 24007 net.cpp:86] Creating Layer layer_128_1_bn1
I0602 10:01:20.150388 24007 net.cpp:408] layer_128_1_bn1 <- layer_64_1_sum
I0602 10:01:20.150396 24007 net.cpp:382] layer_128_1_bn1 -> layer_128_1_bn1
I0602 10:01:20.150419 24007 net.cpp:124] Setting up layer_128_1_bn1
I0602 10:01:20.150427 24007 net.cpp:131] Top shape: 1 64 46 116 (341504)
I0602 10:01:20.150434 24007 net.cpp:139] Memory required for data: 19676216
I0602 10:01:20.150442 24007 layer_factory.hpp:77] Creating layer layer_128_1_scale1
I0602 10:01:20.150450 24007 net.cpp:86] Creating Layer layer_128_1_scale1
I0602 10:01:20.150456 24007 net.cpp:408] layer_128_1_scale1 <- layer_128_1_bn1
I0602 10:01:20.150465 24007 net.cpp:369] layer_128_1_scale1 -> layer_128_1_bn1 (in-place)
I0602 10:01:20.150477 24007 layer_factory.hpp:77] Creating layer layer_128_1_scale1
I0602 10:01:20.150511 24007 net.cpp:124] Setting up layer_128_1_scale1
I0602 10:01:20.150519 24007 net.cpp:131] Top shape: 1 64 46 116 (341504)
I0602 10:01:20.150526 24007 net.cpp:139] Memory required for data: 21042232
I0602 10:01:20.150532 24007 layer_factory.hpp:77] Creating layer layer_128_1_relu1
I0602 10:01:20.150542 24007 net.cpp:86] Creating Layer layer_128_1_relu1
I0602 10:01:20.150548 24007 net.cpp:408] layer_128_1_relu1 <- layer_128_1_bn1
I0602 10:01:20.150557 24007 net.cpp:369] layer_128_1_relu1 -> layer_128_1_bn1 (in-place)
I0602 10:01:20.153594 24007 net.cpp:124] Setting up layer_128_1_relu1
I0602 10:01:20.153620 24007 net.cpp:131] Top shape: 1 64 46 116 (341504)
I0602 10:01:20.153628 24007 net.cpp:139] Memory required for data: 22408248
I0602 10:01:20.153635 24007 layer_factory.hpp:77] Creating layer layer_128_1_bn1_layer_128_1_relu1_0_split
I0602 10:01:20.153643 24007 net.cpp:86] Creating Layer layer_128_1_bn1_layer_128_1_relu1_0_split
I0602 10:01:20.153648 24007 net.cpp:408] layer_128_1_bn1_layer_128_1_relu1_0_split <- layer_128_1_bn1
I0602 10:01:20.153658 24007 net.cpp:382] layer_128_1_bn1_layer_128_1_relu1_0_split -> layer_128_1_bn1_layer_128_1_relu1_0_split_0
I0602 10:01:20.153666 24007 net.cpp:382] layer_128_1_bn1_layer_128_1_relu1_0_split -> layer_128_1_bn1_layer_128_1_relu1_0_split_1
I0602 10:01:20.153677 24007 net.cpp:124] Setting up layer_128_1_bn1_layer_128_1_relu1_0_split
I0602 10:01:20.153684 24007 net.cpp:131] Top shape: 1 64 46 116 (341504)
I0602 10:01:20.153690 24007 net.cpp:131] Top shape: 1 64 46 116 (341504)
I0602 10:01:20.153695 24007 net.cpp:139] Memory required for data: 25140280
I0602 10:01:20.153702 24007 layer_factory.hpp:77] Creating layer layer_128_1_conv1
I0602 10:01:20.153714 24007 net.cpp:86] Creating Layer layer_128_1_conv1
I0602 10:01:20.153719 24007 net.cpp:408] layer_128_1_conv1 <- layer_128_1_bn1_layer_128_1_relu1_0_split_0
I0602 10:01:20.153728 24007 net.cpp:382] layer_128_1_conv1 -> layer_128_1_conv1
I0602 10:01:20.161857 24007 net.cpp:124] Setting up layer_128_1_conv1
I0602 10:01:20.161875 24007 net.cpp:131] Top shape: 1 128 23 58 (170752)
I0602 10:01:20.161882 24007 net.cpp:139] Memory required for data: 25823288
I0602 10:01:20.161890 24007 layer_factory.hpp:77] Creating layer layer_128_1_bn2
I0602 10:01:20.161900 24007 net.cpp:86] Creating Layer layer_128_1_bn2
I0602 10:01:20.161907 24007 net.cpp:408] layer_128_1_bn2 <- layer_128_1_conv1
I0602 10:01:20.161917 24007 net.cpp:369] layer_128_1_bn2 -> layer_128_1_conv1 (in-place)
I0602 10:01:20.161941 24007 net.cpp:124] Setting up layer_128_1_bn2
I0602 10:01:20.161947 24007 net.cpp:131] Top shape: 1 128 23 58 (170752)
I0602 10:01:20.161954 24007 net.cpp:139] Memory required for data: 26506296
I0602 10:01:20.161963 24007 layer_factory.hpp:77] Creating layer layer_128_1_scale2
I0602 10:01:20.161974 24007 net.cpp:86] Creating Layer layer_128_1_scale2
I0602 10:01:20.161983 24007 net.cpp:408] layer_128_1_scale2 <- layer_128_1_conv1
I0602 10:01:20.161993 24007 net.cpp:369] layer_128_1_scale2 -> layer_128_1_conv1 (in-place)
I0602 10:01:20.162005 24007 layer_factory.hpp:77] Creating layer layer_128_1_scale2
I0602 10:01:20.162025 24007 net.cpp:124] Setting up layer_128_1_scale2
I0602 10:01:20.162034 24007 net.cpp:131] Top shape: 1 128 23 58 (170752)
I0602 10:01:20.162040 24007 net.cpp:139] Memory required for data: 27189304
I0602 10:01:20.162048 24007 layer_factory.hpp:77] Creating layer layer_128_1_relu2
I0602 10:01:20.162057 24007 net.cpp:86] Creating Layer layer_128_1_relu2
I0602 10:01:20.162062 24007 net.cpp:408] layer_128_1_relu2 <- layer_128_1_conv1
I0602 10:01:20.162070 24007 net.cpp:369] layer_128_1_relu2 -> layer_128_1_conv1 (in-place)
I0602 10:01:20.164085 24007 net.cpp:124] Setting up layer_128_1_relu2
I0602 10:01:20.164103 24007 net.cpp:131] Top shape: 1 128 23 58 (170752)
I0602 10:01:20.164108 24007 net.cpp:139] Memory required for data: 27872312
I0602 10:01:20.164114 24007 layer_factory.hpp:77] Creating layer layer_128_1_conv2
I0602 10:01:20.164126 24007 net.cpp:86] Creating Layer layer_128_1_conv2
I0602 10:01:20.164134 24007 net.cpp:408] layer_128_1_conv2 <- layer_128_1_conv1
I0602 10:01:20.164142 24007 net.cpp:382] layer_128_1_conv2 -> layer_128_1_conv2
I0602 10:01:20.172019 24007 net.cpp:124] Setting up layer_128_1_conv2
I0602 10:01:20.172037 24007 net.cpp:131] Top shape: 1 128 23 58 (170752)
I0602 10:01:20.172045 24007 net.cpp:139] Memory required for data: 28555320
I0602 10:01:20.172055 24007 layer_factory.hpp:77] Creating layer layer_128_1_conv_expand
I0602 10:01:20.172070 24007 net.cpp:86] Creating Layer layer_128_1_conv_expand
I0602 10:01:20.172078 24007 net.cpp:408] layer_128_1_conv_expand <- layer_128_1_bn1_layer_128_1_relu1_0_split_1
I0602 10:01:20.172097 24007 net.cpp:382] layer_128_1_conv_expand -> layer_128_1_conv_expand
I0602 10:01:20.183416 24007 net.cpp:124] Setting up layer_128_1_conv_expand
I0602 10:01:20.183431 24007 net.cpp:131] Top shape: 1 128 23 58 (170752)
I0602 10:01:20.183437 24007 net.cpp:139] Memory required for data: 29238328
I0602 10:01:20.183444 24007 layer_factory.hpp:77] Creating layer layer_128_1_sum
I0602 10:01:20.183452 24007 net.cpp:86] Creating Layer layer_128_1_sum
I0602 10:01:20.183459 24007 net.cpp:408] layer_128_1_sum <- layer_128_1_conv2
I0602 10:01:20.183465 24007 net.cpp:408] layer_128_1_sum <- layer_128_1_conv_expand
I0602 10:01:20.183472 24007 net.cpp:382] layer_128_1_sum -> layer_128_1_sum
I0602 10:01:20.183481 24007 net.cpp:124] Setting up layer_128_1_sum
I0602 10:01:20.183490 24007 net.cpp:131] Top shape: 1 128 23 58 (170752)
I0602 10:01:20.183495 24007 net.cpp:139] Memory required for data: 29921336
I0602 10:01:20.183499 24007 layer_factory.hpp:77] Creating layer layer_256_1_bn1
I0602 10:01:20.183506 24007 net.cpp:86] Creating Layer layer_256_1_bn1
I0602 10:01:20.183512 24007 net.cpp:408] layer_256_1_bn1 <- layer_128_1_sum
I0602 10:01:20.183517 24007 net.cpp:382] layer_256_1_bn1 -> layer_256_1_bn1
I0602 10:01:20.183537 24007 net.cpp:124] Setting up layer_256_1_bn1
I0602 10:01:20.183543 24007 net.cpp:131] Top shape: 1 128 23 58 (170752)
I0602 10:01:20.183548 24007 net.cpp:139] Memory required for data: 30604344
I0602 10:01:20.183559 24007 layer_factory.hpp:77] Creating layer layer_256_1_scale1
I0602 10:01:20.183568 24007 net.cpp:86] Creating Layer layer_256_1_scale1
I0602 10:01:20.183574 24007 net.cpp:408] layer_256_1_scale1 <- layer_256_1_bn1
I0602 10:01:20.183580 24007 net.cpp:369] layer_256_1_scale1 -> layer_256_1_bn1 (in-place)
I0602 10:01:20.183593 24007 layer_factory.hpp:77] Creating layer layer_256_1_scale1
I0602 10:01:20.183610 24007 net.cpp:124] Setting up layer_256_1_scale1
I0602 10:01:20.183619 24007 net.cpp:131] Top shape: 1 128 23 58 (170752)
I0602 10:01:20.183624 24007 net.cpp:139] Memory required for data: 31287352
I0602 10:01:20.183631 24007 layer_factory.hpp:77] Creating layer layer_256_1_relu1
I0602 10:01:20.183637 24007 net.cpp:86] Creating Layer layer_256_1_relu1
I0602 10:01:20.183642 24007 net.cpp:408] layer_256_1_relu1 <- layer_256_1_bn1
I0602 10:01:20.183650 24007 net.cpp:369] layer_256_1_relu1 -> layer_256_1_bn1 (in-place)
I0602 10:01:20.185834 24007 net.cpp:124] Setting up layer_256_1_relu1
I0602 10:01:20.185852 24007 net.cpp:131] Top shape: 1 128 23 58 (170752)
I0602 10:01:20.185858 24007 net.cpp:139] Memory required for data: 31970360
I0602 10:01:20.185864 24007 layer_factory.hpp:77] Creating layer layer_256_1_bn1_layer_256_1_relu1_0_split
I0602 10:01:20.185874 24007 net.cpp:86] Creating Layer layer_256_1_bn1_layer_256_1_relu1_0_split
I0602 10:01:20.185883 24007 net.cpp:408] layer_256_1_bn1_layer_256_1_relu1_0_split <- layer_256_1_bn1
I0602 10:01:20.185892 24007 net.cpp:382] layer_256_1_bn1_layer_256_1_relu1_0_split -> layer_256_1_bn1_layer_256_1_relu1_0_split_0
I0602 10:01:20.185902 24007 net.cpp:382] layer_256_1_bn1_layer_256_1_relu1_0_split -> layer_256_1_bn1_layer_256_1_relu1_0_split_1
I0602 10:01:20.185911 24007 net.cpp:124] Setting up layer_256_1_bn1_layer_256_1_relu1_0_split
I0602 10:01:20.185920 24007 net.cpp:131] Top shape: 1 128 23 58 (170752)
I0602 10:01:20.185927 24007 net.cpp:131] Top shape: 1 128 23 58 (170752)
I0602 10:01:20.185932 24007 net.cpp:139] Memory required for data: 33336376
I0602 10:01:20.185938 24007 layer_factory.hpp:77] Creating layer layer_256_1_conv1
I0602 10:01:20.185951 24007 net.cpp:86] Creating Layer layer_256_1_conv1
I0602 10:01:20.185959 24007 net.cpp:408] layer_256_1_conv1 <- layer_256_1_bn1_layer_256_1_relu1_0_split_0
I0602 10:01:20.185969 24007 net.cpp:382] layer_256_1_conv1 -> layer_256_1_conv1
I0602 10:01:20.195144 24007 net.cpp:124] Setting up layer_256_1_conv1
I0602 10:01:20.195163 24007 net.cpp:131] Top shape: 1 256 12 29 (89088)
I0602 10:01:20.195171 24007 net.cpp:139] Memory required for data: 33692728
I0602 10:01:20.195181 24007 layer_factory.hpp:77] Creating layer layer_256_1_bn2
I0602 10:01:20.195199 24007 net.cpp:86] Creating Layer layer_256_1_bn2
I0602 10:01:20.195205 24007 net.cpp:408] layer_256_1_bn2 <- layer_256_1_conv1
I0602 10:01:20.195215 24007 net.cpp:369] layer_256_1_bn2 -> layer_256_1_conv1 (in-place)
I0602 10:01:20.195233 24007 net.cpp:124] Setting up layer_256_1_bn2
I0602 10:01:20.195240 24007 net.cpp:131] Top shape: 1 256 12 29 (89088)
I0602 10:01:20.195245 24007 net.cpp:139] Memory required for data: 34049080
I0602 10:01:20.195253 24007 layer_factory.hpp:77] Creating layer layer_256_1_scale2
I0602 10:01:20.195261 24007 net.cpp:86] Creating Layer layer_256_1_scale2
I0602 10:01:20.195266 24007 net.cpp:408] layer_256_1_scale2 <- layer_256_1_conv1
I0602 10:01:20.195273 24007 net.cpp:369] layer_256_1_scale2 -> layer_256_1_conv1 (in-place)
I0602 10:01:20.195286 24007 layer_factory.hpp:77] Creating layer layer_256_1_scale2
I0602 10:01:20.195305 24007 net.cpp:124] Setting up layer_256_1_scale2
I0602 10:01:20.195312 24007 net.cpp:131] Top shape: 1 256 12 29 (89088)
I0602 10:01:20.195317 24007 net.cpp:139] Memory required for data: 34405432
I0602 10:01:20.195323 24007 layer_factory.hpp:77] Creating layer layer_256_1_relu2
I0602 10:01:20.195332 24007 net.cpp:86] Creating Layer layer_256_1_relu2
I0602 10:01:20.195338 24007 net.cpp:408] layer_256_1_relu2 <- layer_256_1_conv1
I0602 10:01:20.195343 24007 net.cpp:369] layer_256_1_relu2 -> layer_256_1_conv1 (in-place)
I0602 10:01:20.197389 24007 net.cpp:124] Setting up layer_256_1_relu2
I0602 10:01:20.197402 24007 net.cpp:131] Top shape: 1 256 12 29 (89088)
I0602 10:01:20.197408 24007 net.cpp:139] Memory required for data: 34761784
I0602 10:01:20.197417 24007 layer_factory.hpp:77] Creating layer layer_256_1_conv2
I0602 10:01:20.197428 24007 net.cpp:86] Creating Layer layer_256_1_conv2
I0602 10:01:20.197434 24007 net.cpp:408] layer_256_1_conv2 <- layer_256_1_conv1
I0602 10:01:20.197444 24007 net.cpp:382] layer_256_1_conv2 -> layer_256_1_conv2
I0602 10:01:20.216431 24007 net.cpp:124] Setting up layer_256_1_conv2
I0602 10:01:20.216450 24007 net.cpp:131] Top shape: 1 256 12 29 (89088)
I0602 10:01:20.216456 24007 net.cpp:139] Memory required for data: 35118136
I0602 10:01:20.216464 24007 layer_factory.hpp:77] Creating layer layer_256_1_conv_expand
I0602 10:01:20.216476 24007 net.cpp:86] Creating Layer layer_256_1_conv_expand
I0602 10:01:20.216482 24007 net.cpp:408] layer_256_1_conv_expand <- layer_256_1_bn1_layer_256_1_relu1_0_split_1
I0602 10:01:20.216495 24007 net.cpp:382] layer_256_1_conv_expand -> layer_256_1_conv_expand
I0602 10:01:20.224161 24007 net.cpp:124] Setting up layer_256_1_conv_expand
I0602 10:01:20.224176 24007 net.cpp:131] Top shape: 1 256 12 29 (89088)
I0602 10:01:20.224182 24007 net.cpp:139] Memory required for data: 35474488
I0602 10:01:20.224189 24007 layer_factory.hpp:77] Creating layer layer_256_1_sum
I0602 10:01:20.224198 24007 net.cpp:86] Creating Layer layer_256_1_sum
I0602 10:01:20.224205 24007 net.cpp:408] layer_256_1_sum <- layer_256_1_conv2
I0602 10:01:20.224211 24007 net.cpp:408] layer_256_1_sum <- layer_256_1_conv_expand
I0602 10:01:20.224217 24007 net.cpp:382] layer_256_1_sum -> layer_256_1_sum
I0602 10:01:20.224227 24007 net.cpp:124] Setting up layer_256_1_sum
I0602 10:01:20.224234 24007 net.cpp:131] Top shape: 1 256 12 29 (89088)
I0602 10:01:20.224239 24007 net.cpp:139] Memory required for data: 35830840
I0602 10:01:20.224244 24007 layer_factory.hpp:77] Creating layer layer_512_1_bn1
I0602 10:01:20.224252 24007 net.cpp:86] Creating Layer layer_512_1_bn1
I0602 10:01:20.224258 24007 net.cpp:408] layer_512_1_bn1 <- layer_256_1_sum
I0602 10:01:20.224264 24007 net.cpp:382] layer_512_1_bn1 -> layer_512_1_bn1
I0602 10:01:20.224285 24007 net.cpp:124] Setting up layer_512_1_bn1
I0602 10:01:20.224292 24007 net.cpp:131] Top shape: 1 256 12 29 (89088)
I0602 10:01:20.224298 24007 net.cpp:139] Memory required for data: 36187192
I0602 10:01:20.224306 24007 layer_factory.hpp:77] Creating layer layer_512_1_scale1
I0602 10:01:20.224318 24007 net.cpp:86] Creating Layer layer_512_1_scale1
I0602 10:01:20.224329 24007 net.cpp:408] layer_512_1_scale1 <- layer_512_1_bn1
I0602 10:01:20.224337 24007 net.cpp:369] layer_512_1_scale1 -> layer_512_1_bn1 (in-place)
I0602 10:01:20.224351 24007 layer_factory.hpp:77] Creating layer layer_512_1_scale1
I0602 10:01:20.224369 24007 net.cpp:124] Setting up layer_512_1_scale1
I0602 10:01:20.224375 24007 net.cpp:131] Top shape: 1 256 12 29 (89088)
I0602 10:01:20.224380 24007 net.cpp:139] Memory required for data: 36543544
I0602 10:01:20.224386 24007 layer_factory.hpp:77] Creating layer layer_512_1_relu1
I0602 10:01:20.224395 24007 net.cpp:86] Creating Layer layer_512_1_relu1
I0602 10:01:20.224400 24007 net.cpp:408] layer_512_1_relu1 <- layer_512_1_bn1
I0602 10:01:20.224406 24007 net.cpp:369] layer_512_1_relu1 -> layer_512_1_bn1 (in-place)
I0602 10:01:20.226447 24007 net.cpp:124] Setting up layer_512_1_relu1
I0602 10:01:20.226457 24007 net.cpp:131] Top shape: 1 256 12 29 (89088)
I0602 10:01:20.226464 24007 net.cpp:139] Memory required for data: 36899896
I0602 10:01:20.226469 24007 layer_factory.hpp:77] Creating layer layer_512_1_bn1_layer_512_1_relu1_0_split
I0602 10:01:20.226476 24007 net.cpp:86] Creating Layer layer_512_1_bn1_layer_512_1_relu1_0_split
I0602 10:01:20.226482 24007 net.cpp:408] layer_512_1_bn1_layer_512_1_relu1_0_split <- layer_512_1_bn1
I0602 10:01:20.226490 24007 net.cpp:382] layer_512_1_bn1_layer_512_1_relu1_0_split -> layer_512_1_bn1_layer_512_1_relu1_0_split_0
I0602 10:01:20.226497 24007 net.cpp:382] layer_512_1_bn1_layer_512_1_relu1_0_split -> layer_512_1_bn1_layer_512_1_relu1_0_split_1
I0602 10:01:20.226506 24007 net.cpp:124] Setting up layer_512_1_bn1_layer_512_1_relu1_0_split
I0602 10:01:20.226513 24007 net.cpp:131] Top shape: 1 256 12 29 (89088)
I0602 10:01:20.226518 24007 net.cpp:131] Top shape: 1 256 12 29 (89088)
I0602 10:01:20.226524 24007 net.cpp:139] Memory required for data: 37612600
I0602 10:01:20.226529 24007 layer_factory.hpp:77] Creating layer layer_512_1_conv1
I0602 10:01:20.226539 24007 net.cpp:86] Creating Layer layer_512_1_conv1
I0602 10:01:20.226546 24007 net.cpp:408] layer_512_1_conv1 <- layer_512_1_bn1_layer_512_1_relu1_0_split_0
I0602 10:01:20.226552 24007 net.cpp:382] layer_512_1_conv1 -> layer_512_1_conv1
I0602 10:01:20.306335 24007 net.cpp:124] Setting up layer_512_1_conv1
I0602 10:01:20.306375 24007 net.cpp:131] Top shape: 1 512 6 15 (46080)
I0602 10:01:20.306382 24007 net.cpp:139] Memory required for data: 37796920
I0602 10:01:20.306393 24007 layer_factory.hpp:77] Creating layer layer_512_1_bn2
I0602 10:01:20.306406 24007 net.cpp:86] Creating Layer layer_512_1_bn2
I0602 10:01:20.306417 24007 net.cpp:408] layer_512_1_bn2 <- layer_512_1_conv1
I0602 10:01:20.306428 24007 net.cpp:369] layer_512_1_bn2 -> layer_512_1_conv1 (in-place)
I0602 10:01:20.306454 24007 net.cpp:124] Setting up layer_512_1_bn2
I0602 10:01:20.306462 24007 net.cpp:131] Top shape: 1 512 6 15 (46080)
I0602 10:01:20.306468 24007 net.cpp:139] Memory required for data: 37981240
I0602 10:01:20.306478 24007 layer_factory.hpp:77] Creating layer layer_512_1_scale2
I0602 10:01:20.306488 24007 net.cpp:86] Creating Layer layer_512_1_scale2
I0602 10:01:20.306494 24007 net.cpp:408] layer_512_1_scale2 <- layer_512_1_conv1
I0602 10:01:20.306501 24007 net.cpp:369] layer_512_1_scale2 -> layer_512_1_conv1 (in-place)
I0602 10:01:20.306519 24007 layer_factory.hpp:77] Creating layer layer_512_1_scale2
I0602 10:01:20.306540 24007 net.cpp:124] Setting up layer_512_1_scale2
I0602 10:01:20.306548 24007 net.cpp:131] Top shape: 1 512 6 15 (46080)
I0602 10:01:20.306555 24007 net.cpp:139] Memory required for data: 38165560
I0602 10:01:20.306561 24007 layer_factory.hpp:77] Creating layer layer_512_1_relu2
I0602 10:01:20.306571 24007 net.cpp:86] Creating Layer layer_512_1_relu2
I0602 10:01:20.306578 24007 net.cpp:408] layer_512_1_relu2 <- layer_512_1_conv1
I0602 10:01:20.306587 24007 net.cpp:369] layer_512_1_relu2 -> layer_512_1_conv1 (in-place)
I0602 10:01:20.310740 24007 net.cpp:124] Setting up layer_512_1_relu2
I0602 10:01:20.310763 24007 net.cpp:131] Top shape: 1 512 6 15 (46080)
I0602 10:01:20.310781 24007 net.cpp:139] Memory required for data: 38349880
I0602 10:01:20.310786 24007 layer_factory.hpp:77] Creating layer layer_512_1_conv2
I0602 10:01:20.310799 24007 net.cpp:86] Creating Layer layer_512_1_conv2
I0602 10:01:20.310806 24007 net.cpp:408] layer_512_1_conv2 <- layer_512_1_conv1
I0602 10:01:20.310817 24007 net.cpp:382] layer_512_1_conv2 -> layer_512_1_conv2
I0602 10:01:20.552590 24007 net.cpp:124] Setting up layer_512_1_conv2
I0602 10:01:20.552629 24007 net.cpp:131] Top shape: 1 512 6 15 (46080)
I0602 10:01:20.552636 24007 net.cpp:139] Memory required for data: 38534200
I0602 10:01:20.552649 24007 layer_factory.hpp:77] Creating layer layer_512_1_conv_expand
I0602 10:01:20.552670 24007 net.cpp:86] Creating Layer layer_512_1_conv_expand
I0602 10:01:20.552680 24007 net.cpp:408] layer_512_1_conv_expand <- layer_512_1_bn1_layer_512_1_relu1_0_split_1
I0602 10:01:20.552690 24007 net.cpp:382] layer_512_1_conv_expand -> layer_512_1_conv_expand
I0602 10:01:20.560740 24007 net.cpp:124] Setting up layer_512_1_conv_expand
I0602 10:01:20.560756 24007 net.cpp:131] Top shape: 1 512 6 15 (46080)
I0602 10:01:20.560763 24007 net.cpp:139] Memory required for data: 38718520
I0602 10:01:20.560771 24007 layer_factory.hpp:77] Creating layer layer_512_1_sum
I0602 10:01:20.560781 24007 net.cpp:86] Creating Layer layer_512_1_sum
I0602 10:01:20.560788 24007 net.cpp:408] layer_512_1_sum <- layer_512_1_conv2
I0602 10:01:20.560796 24007 net.cpp:408] layer_512_1_sum <- layer_512_1_conv_expand
I0602 10:01:20.560806 24007 net.cpp:382] layer_512_1_sum -> layer_512_1_sum
I0602 10:01:20.560820 24007 net.cpp:124] Setting up layer_512_1_sum
I0602 10:01:20.560828 24007 net.cpp:131] Top shape: 1 512 6 15 (46080)
I0602 10:01:20.560833 24007 net.cpp:139] Memory required for data: 38902840
I0602 10:01:20.560839 24007 layer_factory.hpp:77] Creating layer last_bn
I0602 10:01:20.560848 24007 net.cpp:86] Creating Layer last_bn
I0602 10:01:20.560854 24007 net.cpp:408] last_bn <- layer_512_1_sum
I0602 10:01:20.560863 24007 net.cpp:369] last_bn -> layer_512_1_sum (in-place)
I0602 10:01:20.560879 24007 net.cpp:124] Setting up last_bn
I0602 10:01:20.560887 24007 net.cpp:131] Top shape: 1 512 6 15 (46080)
I0602 10:01:20.560894 24007 net.cpp:139] Memory required for data: 39087160
I0602 10:01:20.560904 24007 layer_factory.hpp:77] Creating layer last_scale
I0602 10:01:20.560915 24007 net.cpp:86] Creating Layer last_scale
I0602 10:01:20.560922 24007 net.cpp:408] last_scale <- layer_512_1_sum
I0602 10:01:20.560930 24007 net.cpp:369] last_scale -> layer_512_1_sum (in-place)
I0602 10:01:20.560947 24007 layer_factory.hpp:77] Creating layer last_scale
I0602 10:01:20.560966 24007 net.cpp:124] Setting up last_scale
I0602 10:01:20.560973 24007 net.cpp:131] Top shape: 1 512 6 15 (46080)
I0602 10:01:20.560979 24007 net.cpp:139] Memory required for data: 39271480
I0602 10:01:20.560988 24007 layer_factory.hpp:77] Creating layer last_relu
I0602 10:01:20.560997 24007 net.cpp:86] Creating Layer last_relu
I0602 10:01:20.561004 24007 net.cpp:408] last_relu <- layer_512_1_sum
I0602 10:01:20.561012 24007 net.cpp:369] last_relu -> layer_512_1_sum (in-place)
I0602 10:01:20.565610 24007 net.cpp:124] Setting up last_relu
I0602 10:01:20.565629 24007 net.cpp:131] Top shape: 1 512 6 15 (46080)
I0602 10:01:20.565636 24007 net.cpp:139] Memory required for data: 39455800
I0602 10:01:20.565644 24007 layer_factory.hpp:77] Creating layer indicator
I0602 10:01:20.565662 24007 net.cpp:86] Creating Layer indicator
I0602 10:01:20.565671 24007 net.cpp:382] indicator -> indicator
I0602 10:01:20.565690 24007 net.cpp:124] Setting up indicator
I0602 10:01:20.565701 24007 net.cpp:131] Top shape: 15 1 (15)
I0602 10:01:20.565707 24007 net.cpp:139] Memory required for data: 39455860
I0602 10:01:20.565713 24007 layer_factory.hpp:77] Creating layer indicator_indicator_0_split
I0602 10:01:20.565721 24007 net.cpp:86] Creating Layer indicator_indicator_0_split
I0602 10:01:20.565727 24007 net.cpp:408] indicator_indicator_0_split <- indicator
I0602 10:01:20.565743 24007 net.cpp:382] indicator_indicator_0_split -> indicator_indicator_0_split_0
I0602 10:01:20.565762 24007 net.cpp:382] indicator_indicator_0_split -> indicator_indicator_0_split_1
I0602 10:01:20.565770 24007 net.cpp:382] indicator_indicator_0_split -> indicator_indicator_0_split_2
I0602 10:01:20.565783 24007 net.cpp:382] indicator_indicator_0_split -> indicator_indicator_0_split_3
I0602 10:01:20.565796 24007 net.cpp:124] Setting up indicator_indicator_0_split
I0602 10:01:20.565805 24007 net.cpp:131] Top shape: 15 1 (15)
I0602 10:01:20.565812 24007 net.cpp:131] Top shape: 15 1 (15)
I0602 10:01:20.565819 24007 net.cpp:131] Top shape: 15 1 (15)
I0602 10:01:20.565827 24007 net.cpp:131] Top shape: 15 1 (15)
I0602 10:01:20.565834 24007 net.cpp:139] Memory required for data: 39456100
I0602 10:01:20.565840 24007 layer_factory.hpp:77] Creating layer permuted_data
I0602 10:01:20.565850 24007 net.cpp:86] Creating Layer permuted_data
I0602 10:01:20.565855 24007 net.cpp:408] permuted_data <- layer_512_1_sum
I0602 10:01:20.565861 24007 net.cpp:382] permuted_data -> permuted_data
I0602 10:01:20.565879 24007 net.cpp:124] Setting up permuted_data
I0602 10:01:20.565886 24007 net.cpp:131] Top shape: 15 1 512 6 (46080)
I0602 10:01:20.565893 24007 net.cpp:139] Memory required for data: 39640420
I0602 10:01:20.565899 24007 layer_factory.hpp:77] Creating layer permuted_data_permuted_data_0_split
I0602 10:01:20.565907 24007 net.cpp:86] Creating Layer permuted_data_permuted_data_0_split
I0602 10:01:20.565913 24007 net.cpp:408] permuted_data_permuted_data_0_split <- permuted_data
I0602 10:01:20.565922 24007 net.cpp:382] permuted_data_permuted_data_0_split -> permuted_data_permuted_data_0_split_0
I0602 10:01:20.565932 24007 net.cpp:382] permuted_data_permuted_data_0_split -> permuted_data_permuted_data_0_split_1
I0602 10:01:20.565940 24007 net.cpp:124] Setting up permuted_data_permuted_data_0_split
I0602 10:01:20.565948 24007 net.cpp:131] Top shape: 15 1 512 6 (46080)
I0602 10:01:20.565956 24007 net.cpp:131] Top shape: 15 1 512 6 (46080)
I0602 10:01:20.565963 24007 net.cpp:139] Memory required for data: 40009060
I0602 10:01:20.565970 24007 layer_factory.hpp:77] Creating layer lstm1
I0602 10:01:20.565980 24007 net.cpp:86] Creating Layer lstm1
I0602 10:01:20.565986 24007 net.cpp:408] lstm1 <- permuted_data_permuted_data_0_split_0
I0602 10:01:20.565995 24007 net.cpp:408] lstm1 <- indicator_indicator_0_split_0
I0602 10:01:20.566002 24007 net.cpp:382] lstm1 -> lstm1
I0602 10:01:20.566011 24007 recurrent_layer.cpp:20] Initializing recurrent layer: assuming input batch contains 15 timesteps of 1 independent streams.
I0602 10:01:20.566452 24007 net.cpp:53] Initializing net from parameters: 
layer {
  name: "lstm1_"
  type: "Input"
  top: "x"
  top: "cont"
  input_param {
    shape {
      dim: 15
      dim: 1
      dim: 512
      dim: 6
    }
    shape {
      dim: 15
      dim: 1
    }
  }
}
layer {
  name: "lstm1_"
  type: "Input"
  top: "c_0"
  top: "h_0"
  input_param {
    shape {
      dim: 1
      dim: 1
      dim: 100
    }
    shape {
      dim: 1
      dim: 1
      dim: 100
    }
  }
}
layer {
  name: "lstm1_cont_slice"
  type: "Slice"
  bottom: "cont"
  top: "cont_1"
  top: "cont_2"
  top: "cont_3"
  top: "cont_4"
  top: "cont_5"
  top: "cont_6"
  top: "cont_7"
  top: "cont_8"
  top: "cont_9"
  top: "cont_10"
  top: "cont_11"
  top: "cont_12"
  top: "cont_13"
  top: "cont_14"
  top: "cont_15"
  slice_param {
    axis: 0
  }
}
layer {
  name: "lstm1_x_transform"
  type: "InnerProduct"
  bottom: "x"
  top: "W_xc_x"
  param {
    name: "W_xc"
  }
  param {
    name: "b_c"
  }
  propagate_down: true
  inner_product_param {
    num_output: 400
    bias_term: true
    weight_filler {
      type: "xavier"
    }
    bias_filler {
      type: "constant"
      value: 0
    }
    axis: 2
  }
}
layer {
  name: "lstm1_W_xc_x_slice"
  type: "Slice"
  bottom: "W_xc_x"
  top: "W_xc_x_1"
  top: "W_xc_x_2"
  top: "W_xc_x_3"
  top: "W_xc_x_4"
  top: "W_xc_x_5"
  top: "W_xc_x_6"
  top: "W_xc_x_7"
  top: "W_xc_x_8"
  top: "W_xc_x_9"
  top: "W_xc_x_10"
  top: "W_xc_x_11"
  top: "W_xc_x_12"
  top: "W_xc_x_13"
  top: "W_xc_x_14"
  top: "W_xc_x_15"
  slice_param {
    axis: 0
  }
}
layer {
  name: "lstm1_h_conted_0"
  type: "Scale"
  bottom: "h_0"
  bottom: "cont_1"
  top: "h_conted_0"
  scale_param {
    axis: 0
  }
}
layer {
  name: "lstm1_transform_1"
  type: "InnerProduct"
  bottom: "h_conted_0"
  top: "W_hc_h_0"
  param {
    name: "W_hc"
  }
  inner_product_param {
    num_output: 400
    bias_term: false
    weight_filler {
      type: "xavier"
    }
    axis: 2
  }
}
layer {
  name: "lstm1_gate_input_1"
  type: "Eltwise"
  bottom: "W_hc_h_0"
  bottom: "W_xc_x_1"
  top: "gate_input_1"
  eltwise_param {
    operation: SUM
  }
}
layer {
  name: "lstm1_unit_1"
  type: "LSTMUnit"
  bottom: "c_0"
  bottom: "gate_input_1"
  bottom: "cont_1"
  top: "c_1"
  top: "h_1"
}
layer {
  name: "lstm1_h_conted_1"
  type: "Scale"
  bottom: "h_1"
  bottom: "cont_2"
  top: "h_conted_1"
  scale_param {
    axis: 0
  }
}
layer {
  name: "lstm1_transform_2"
  type: "InnerProduct"
  bottom: "h_conted_1"
  top: "W_hc_h_1"
  param {
    name: "W_hc"
  }
  inner_product_param {
    num_output: 400
    bias_term: false
    weight_filler {
      type: "xavier"
    }
    axis: 2
  }
}
layer {
  name: "lstm1_gate_input_2"
  type: "Eltwise"
  bottom: "W_hc_h_1"
  bottom: "W_xc_x_2"
  top: "gate_input_2"
  eltwise_param {
    operation: SUM
  }
}
layer {
  name: "lstm1_unit_2"
  type: "LSTMUnit"
  bottom: "c_1"
  bottom: "gate_input_2"
  bottom: "cont_2"
  top: "c_2"
  top: "h_2"
}
layer {
  name: "lstm1_h_conted_2"
  type: "Scale"
  bottom: "h_2"
  bottom: "cont_3"
  top: "h_conted_2"
  scale_param {
    axis: 0
  }
}
layer {
  name: "lstm1_transform_3"
  type: "InnerProduct"
  bottom: "h_conted_2"
  top: "W_hc_h_2"
  param {
    name: "W_hc"
  }
  inner_product_param {
    num_output: 400
    bias_term: false
    weight_filler {
      type: "xavier"
    }
    axis: 2
  }
}
layer {
  name: "lstm1_gate_input_3"
  type: "Eltwise"
  bottom: "W_hc_h_2"
  bottom: "W_xc_x_3"
  top: "gate_input_3"
  eltwise_param {
    operation: SUM
  }
}
layer {
  name: "lstm1_unit_3"
  type: "LSTMUnit"
  bottom: "c_2"
  bottom: "gate_input_3"
  bottom: "cont_3"
  top: "c_3"
  top: "h_3"
}
layer {
  name: "lstm1_h_conted_3"
  type: "Scale"
  bottom: "h_3"
  bottom: "cont_4"
  top: "h_conted_3"
  scale_param {
    axis: 0
  }
}
layer {
  name: "lstm1_transform_4"
  type: "InnerProduct"
  bottom: "h_conted_3"
  top: "W_hc_h_3"
  param {
    name: "W_hc"
  }
  inner_product_param {
    num_output: 400
    bias_term: false
    weight_filler {
      type: "xavier"
    }
    axis: 2
  }
}
layer {
  name: "lstm1_gate_input_4"
  type: "Eltwise"
  bottom: "W_hc_h_3"
  bottom: "W_xc_x_4"
  top: "gate_input_4"
  eltwise_param {
    operation: SUM
  }
}
layer {
  name: "lstm1_unit_4"
  type: "LSTMUnit"
  bottom: "c_3"
  bottom: "gate_input_4"
  bottom: "cont_4"
  top: "c_4"
  top: "h_4"
}
layer {
  name: "lstm1_h_conted_4"
  type: "Scale"
  bottom: "h_4"
  bottom: "cont_5"
  top: "h_conted_4"
  scale_param {
    axis: 0
  }
}
layer {
  name: "lstm1_transform_5"
  type: "InnerProduct"
  bottom: "h_conted_4"
  top: "W_hc_h_4"
  param {
    name: "W_hc"
  }
  inner_product_param {
    num_output: 400
    bias_term: false
    weight_filler {
      type: "xavier"
    }
    axis: 2
  }
}
layer {
  name: "lstm1_gate_input_5"
  type: "Eltwise"
  bottom: "W_hc_h_4"
  bottom: "W_xc_x_5"
  top: "gate_input_5"
  eltwise_param {
    operation: SUM
  }
}
layer {
  name: "lstm1_unit_5"
  type: "LSTMUnit"
  bottom: "c_4"
  bottom: "gate_input_5"
  bottom: "cont_5"
  top: "c_5"
  top: "h_5"
}
layer {
  name: "lstm1_h_conted_5"
  type: "Scale"
  bottom: "h_5"
  bottom: "cont_6"
  top: "h_conted_5"
  scale_param {
    axis: 0
  }
}
layer {
  name: "lstm1_transform_6"
  type: "InnerProduct"
  bottom: "h_conted_5"
  top: "W_hc_h_5"
  param {
    name: "W_hc"
  }
  inner_product_param {
    num_output: 400
    bias_term: false
    weight_filler {
      type: "xavier"
    }
    axis: 2
  }
}
layer {
  name: "lstm1_gate_input_6"
  type: "Eltwise"
  bottom: "W_hc_h_5"
  bottom: "W_xc_x_6"
  top: "gate_input_6"
  eltwise_param {
    operation: SUM
  }
}
layer {
  name: "lstm1_unit_6"
  type: "LSTMUnit"
  bottom: "c_5"
  bottom: "gate_input_6"
  bottom: "cont_6"
  top: "c_6"
  top: "h_6"
}
layer {
  name: "lstm1_h_conted_6"
  type: "Scale"
  bottom: "h_6"
  bottom: "cont_7"
  top: "h_conted_6"
  scale_param {
    axis: 0
  }
}
layer {
  name: "lstm1_transform_7"
  type: "InnerProduct"
  bottom: "h_conted_6"
  top: "W_hc_h_6"
  param {
    name: "W_hc"
  }
  inner_product_param {
    num_output: 400
    bias_term: false
    weight_filler {
      type: "xavier"
    }
    axis: 2
  }
}
layer {
  name: "lstm1_gate_input_7"
  type: "Eltwise"
  bottom: "W_hc_h_6"
  bottom: "W_xc_x_7"
  top: "gate_input_7"
  eltwise_param {
    operation: SUM
  }
}
layer {
  name: "lstm1_unit_7"
  type: "LSTMUnit"
  bottom: "c_6"
  bottom: "gate_input_7"
  bottom: "cont_7"
  top: "c_7"
  top: "h_7"
}
layer {
  name: "lstm1_h_conted_7"
  type: "Scale"
  bottom: "h_7"
  bottom: "cont_8"
  top: "h_conted_7"
  scale_param {
    axis: 0
  }
}
layer {
  name: "lstm1_transform_8"
  type: "InnerProduct"
  bottom: "h_conted_7"
  top: "W_hc_h_7"
  param {
    name: "W_hc"
  }
  inner_product_param {
    num_output: 400
    bias_term: false
    weight_filler {
      type: "xavier"
    }
    axis: 2
  }
}
layer {
  name: "lstm1_gate_input_8"
  type: "Eltwise"
  bottom: "W_hc_h_7"
  bottom: "W_xc_x_8"
  top: "gate_input_8"
  eltwise_param {
    operation: SUM
  }
}
layer {
  name: "lstm1_unit_8"
  type: "LSTMUnit"
  bottom: "c_7"
  bottom: "gate_input_8"
  bottom: "cont_8"
  top: "c_8"
  top: "h_8"
}
layer {
  name: "lstm1_h_conted_8"
  type: "Scale"
  bottom: "h_8"
  bottom: "cont_9"
  top: "h_conted_8"
  scale_param {
    axis: 0
  }
}
layer {
  name: "lstm1_transform_9"
  type: "InnerProduct"
  bottom: "h_conted_8"
  top: "W_hc_h_8"
  param {
    name: "W_hc"
  }
  inner_product_param {
    num_output: 400
    bias_term: false
    weight_filler {
      type: "xavier"
    }
    axis: 2
  }
}
layer {
  name: "lstm1_gate_input_9"
  type: "Eltwise"
  bottom: "W_hc_h_8"
  bottom: "W_xc_x_9"
  top: "gate_input_9"
  eltwise_param {
    operation: SUM
  }
}
layer {
  name: "lstm1_unit_9"
  type: "LSTMUnit"
  bottom: "c_8"
  bottom: "gate_input_9"
  bottom: "cont_9"
  top: "c_9"
  top: "h_9"
}
layer {
  name: "lstm1_h_conted_9"
  type: "Scale"
  bottom: "h_9"
  bottom: "cont_10"
  top: "h_conted_9"
  scale_param {
    axis: 0
  }
}
layer {
  name: "lstm1_transform_10"
  type: "InnerProduct"
  bottom: "h_conted_9"
  top: "W_hc_h_9"
  param {
    name: "W_hc"
  }
  inner_product_param {
    num_output: 400
    bias_term: false
    weight_filler {
      type: "xavier"
    }
    axis: 2
  }
}
layer {
  name: "lstm1_gate_input_10"
  type: "Eltwise"
  bottom: "W_hc_h_9"
  bottom: "W_xc_x_10"
  top: "gate_input_10"
  eltwise_param {
    operation: SUM
  }
}
layer {
  name: "lstm1_unit_10"
  type: "LSTMUnit"
  bottom: "c_9"
  bottom: "gate_input_10"
  bottom: "cont_10"
  top: "c_10"
  top: "h_10"
}
layer {
  name: "lstm1_h_conted_10"
  type: "Scale"
  bottom: "h_10"
  bottom: "cont_11"
  top: "h_conted_10"
  scale_param {
    axis: 0
  }
}
layer {
  name: "lstm1_transform_11"
  type: "InnerProduct"
  bottom: "h_conted_10"
  top: "W_hc_h_10"
  param {
    name: "W_hc"
  }
  inner_product_param {
    num_output: 400
    bias_term: false
    weight_filler {
      type: "xavier"
    }
    axis: 2
  }
}
layer {
  name: "lstm1_gate_input_11"
  type: "Eltwise"
  bottom: "W_hc_h_10"
  bottom: "W_xc_x_11"
  top: "gate_input_11"
  eltwise_param {
    operation: SUM
  }
}
layer {
  name: "lstm1_unit_11"
  type: "LSTMUnit"
  bottom: "c_10"
  bottom: "gate_input_11"
  bottom: "cont_11"
  top: "c_11"
  top: "h_11"
}
layer {
  name: "lstm1_h_conted_11"
  type: "Scale"
  bottom: "h_11"
  bottom: "cont_12"
  top: "h_conted_11"
  scale_param {
    axis: 0
  }
}
layer {
  name: "lstm1_transform_12"
  type: "InnerProduct"
  bottom: "h_conted_11"
  top: "W_hc_h_11"
  param {
    name: "W_hc"
  }
  inner_product_param {
    num_output: 400
    bias_term: false
    weight_filler {
      type: "xavier"
    }
    axis: 2
  }
}
layer {
  name: "lstm1_gate_input_12"
  type: "Eltwise"
  bottom: "W_hc_h_11"
  bottom: "W_xc_x_12"
  top: "gate_input_12"
  eltwise_param {
    operation: SUM
  }
}
layer {
  name: "lstm1_unit_12"
  type: "LSTMUnit"
  bottom: "c_11"
  bottom: "gate_input_12"
  bottom: "cont_12"
  top: "c_12"
  top: "h_12"
}
layer {
  name: "lstm1_h_conted_12"
  type: "Scale"
  bottom: "h_12"
  bottom: "cont_13"
  top: "h_conted_12"
  scale_param {
    axis: 0
  }
}
layer {
  name: "lstm1_transform_13"
  type: "InnerProduct"
  bottom: "h_conted_12"
  top: "W_hc_h_12"
  param {
    name: "W_hc"
  }
  inner_product_param {
    num_output: 400
    bias_term: false
    weight_filler {
      type: "xavier"
    }
    axis: 2
  }
}
layer {
  name: "lstm1_gate_input_13"
  type: "Eltwise"
  bottom: "W_hc_h_12"
  bottom: "W_xc_x_13"
  top: "gate_input_13"
  eltwise_param {
    operation: SUM
  }
}
layer {
  name: "lstm1_unit_13"
  type: "LSTMUnit"
  bottom: "c_12"
  bottom: "gate_input_13"
  bottom: "cont_13"
  top: "c_13"
  top: "h_13"
}
layer {
  name: "lstm1_h_conted_13"
  type: "Scale"
  bottom: "h_13"
  bottom: "cont_14"
  top: "h_conted_13"
  scale_param {
    axis: 0
  }
}
layer {
  name: "lstm1_transform_14"
  type: "InnerProduct"
  bottom: "h_conted_13"
  top: "W_hc_h_13"
  param {
    name: "W_hc"
  }
  inner_product_param {
    num_output: 400
    bias_term: false
    weight_filler {
      type: "xavier"
    }
    axis: 2
  }
}
layer {
  name: "lstm1_gate_input_14"
  type: "Eltwise"
  bottom: "W_hc_h_13"
  bottom: "W_xc_x_14"
  top: "gate_input_14"
  eltwise_param {
    operation: SUM
  }
}
layer {
  name: "lstm1_unit_14"
  type: "LSTMUnit"
  bottom: "c_13"
  bottom: "gate_input_14"
  bottom: "cont_14"
  top: "c_14"
  top: "h_14"
}
layer {
  name: "lstm1_h_conted_14"
  type: "Scale"
  bottom: "h_14"
  bottom: "cont_15"
  top: "h_conted_14"
  scale_param {
    axis: 0
  }
}
layer {
  name: "lstm1_transform_15"
  type: "InnerProduct"
  bottom: "h_conted_14"
  top: "W_hc_h_14"
  param {
    name: "W_hc"
  }
  inner_product_param {
    num_output: 400
    bias_term: false
    weight_filler {
      type: "xavier"
    }
    axis: 2
  }
}
layer {
  name: "lstm1_gate_input_15"
  type: "Eltwise"
  bottom: "W_hc_h_14"
  bottom: "W_xc_x_15"
  top: "gate_input_15"
  eltwise_param {
    operation: SUM
  }
}
layer {
  name: "lstm1_unit_15"
  type: "LSTMUnit"
  bottom: "c_14"
  bottom: "gate_input_15"
  bottom: "cont_15"
  top: "c_15"
  top: "h_15"
}
layer {
  name: "lstm1_"
  type: "Split"
  bottom: "c_15"
  top: "c_T"
}
layer {
  name: "lstm1_h_concat"
  type: "Concat"
  bottom: "h_1"
  bottom: "h_2"
  bottom: "h_3"
  bottom: "h_4"
  bottom: "h_5"
  bottom: "h_6"
  bottom: "h_7"
  bottom: "h_8"
  bottom: "h_9"
  bottom: "h_10"
  bottom: "h_11"
  bottom: "h_12"
  bottom: "h_13"
  bottom: "h_14"
  bottom: "h_15"
  top: "h"
  concat_param {
    axis: 0
  }
}
layer {
  name: "h_pseudoloss"
  type: "Reduction"
  bottom: "h"
  top: "h_pseudoloss"
  loss_weight: 1
}
I0602 10:01:20.566824 24007 layer_factory.hpp:77] Creating layer lstm1_
I0602 10:01:20.566838 24007 net.cpp:86] Creating Layer lstm1_
I0602 10:01:20.566845 24007 net.cpp:382] lstm1_ -> x
I0602 10:01:20.566857 24007 net.cpp:382] lstm1_ -> cont
I0602 10:01:20.566869 24007 net.cpp:124] Setting up lstm1_
I0602 10:01:20.566879 24007 net.cpp:131] Top shape: 15 1 512 6 (46080)
I0602 10:01:20.566885 24007 net.cpp:131] Top shape: 15 1 (15)
I0602 10:01:20.566890 24007 net.cpp:139] Memory required for data: 184380
I0602 10:01:20.566898 24007 layer_factory.hpp:77] Creating layer lstm1_
I0602 10:01:20.566905 24007 net.cpp:86] Creating Layer lstm1_
I0602 10:01:20.566913 24007 net.cpp:382] lstm1_ -> c_0
I0602 10:01:20.566922 24007 net.cpp:382] lstm1_ -> h_0
I0602 10:01:20.566932 24007 net.cpp:124] Setting up lstm1_
I0602 10:01:20.566941 24007 net.cpp:131] Top shape: 1 1 100 (100)
I0602 10:01:20.566946 24007 net.cpp:131] Top shape: 1 1 100 (100)
I0602 10:01:20.566956 24007 net.cpp:139] Memory required for data: 185180
I0602 10:01:20.566963 24007 layer_factory.hpp:77] Creating layer lstm1_cont_slice
I0602 10:01:20.566975 24007 net.cpp:86] Creating Layer lstm1_cont_slice
I0602 10:01:20.566982 24007 net.cpp:408] lstm1_cont_slice <- cont
I0602 10:01:20.566990 24007 net.cpp:382] lstm1_cont_slice -> cont_1
I0602 10:01:20.567000 24007 net.cpp:382] lstm1_cont_slice -> cont_2
I0602 10:01:20.567010 24007 net.cpp:382] lstm1_cont_slice -> cont_3
I0602 10:01:20.567020 24007 net.cpp:382] lstm1_cont_slice -> cont_4
I0602 10:01:20.567028 24007 net.cpp:382] lstm1_cont_slice -> cont_5
I0602 10:01:20.567036 24007 net.cpp:382] lstm1_cont_slice -> cont_6
I0602 10:01:20.567044 24007 net.cpp:382] lstm1_cont_slice -> cont_7
I0602 10:01:20.567051 24007 net.cpp:382] lstm1_cont_slice -> cont_8
I0602 10:01:20.567061 24007 net.cpp:382] lstm1_cont_slice -> cont_9
I0602 10:01:20.567070 24007 net.cpp:382] lstm1_cont_slice -> cont_10
I0602 10:01:20.567080 24007 net.cpp:382] lstm1_cont_slice -> cont_11
I0602 10:01:20.567088 24007 net.cpp:382] lstm1_cont_slice -> cont_12
I0602 10:01:20.567096 24007 net.cpp:382] lstm1_cont_slice -> cont_13
I0602 10:01:20.567106 24007 net.cpp:382] lstm1_cont_slice -> cont_14
I0602 10:01:20.567116 24007 net.cpp:382] lstm1_cont_slice -> cont_15
I0602 10:01:20.567132 24007 net.cpp:124] Setting up lstm1_cont_slice
I0602 10:01:20.567139 24007 net.cpp:131] Top shape: 1 1 (1)
I0602 10:01:20.567147 24007 net.cpp:131] Top shape: 1 1 (1)
I0602 10:01:20.567154 24007 net.cpp:131] Top shape: 1 1 (1)
I0602 10:01:20.567160 24007 net.cpp:131] Top shape: 1 1 (1)
I0602 10:01:20.567167 24007 net.cpp:131] Top shape: 1 1 (1)
I0602 10:01:20.567173 24007 net.cpp:131] Top shape: 1 1 (1)
I0602 10:01:20.567178 24007 net.cpp:131] Top shape: 1 1 (1)
I0602 10:01:20.567186 24007 net.cpp:131] Top shape: 1 1 (1)
I0602 10:01:20.567193 24007 net.cpp:131] Top shape: 1 1 (1)
I0602 10:01:20.567198 24007 net.cpp:131] Top shape: 1 1 (1)
I0602 10:01:20.567204 24007 net.cpp:131] Top shape: 1 1 (1)
I0602 10:01:20.567211 24007 net.cpp:131] Top shape: 1 1 (1)
I0602 10:01:20.567219 24007 net.cpp:131] Top shape: 1 1 (1)
I0602 10:01:20.567224 24007 net.cpp:131] Top shape: 1 1 (1)
I0602 10:01:20.567230 24007 net.cpp:131] Top shape: 1 1 (1)
I0602 10:01:20.567239 24007 net.cpp:139] Memory required for data: 185240
I0602 10:01:20.567243 24007 layer_factory.hpp:77] Creating layer cont_1_lstm1_cont_slice_0_split
I0602 10:01:20.567250 24007 net.cpp:86] Creating Layer cont_1_lstm1_cont_slice_0_split
I0602 10:01:20.567258 24007 net.cpp:408] cont_1_lstm1_cont_slice_0_split <- cont_1
I0602 10:01:20.567266 24007 net.cpp:382] cont_1_lstm1_cont_slice_0_split -> cont_1_lstm1_cont_slice_0_split_0
I0602 10:01:20.567275 24007 net.cpp:382] cont_1_lstm1_cont_slice_0_split -> cont_1_lstm1_cont_slice_0_split_1
I0602 10:01:20.567284 24007 net.cpp:124] Setting up cont_1_lstm1_cont_slice_0_split
I0602 10:01:20.567291 24007 net.cpp:131] Top shape: 1 1 (1)
I0602 10:01:20.567297 24007 net.cpp:131] Top shape: 1 1 (1)
I0602 10:01:20.567304 24007 net.cpp:139] Memory required for data: 185248
I0602 10:01:20.567311 24007 layer_factory.hpp:77] Creating layer cont_2_lstm1_cont_slice_1_split
I0602 10:01:20.567317 24007 net.cpp:86] Creating Layer cont_2_lstm1_cont_slice_1_split
I0602 10:01:20.567324 24007 net.cpp:408] cont_2_lstm1_cont_slice_1_split <- cont_2
I0602 10:01:20.567332 24007 net.cpp:382] cont_2_lstm1_cont_slice_1_split -> cont_2_lstm1_cont_slice_1_split_0
I0602 10:01:20.567342 24007 net.cpp:382] cont_2_lstm1_cont_slice_1_split -> cont_2_lstm1_cont_slice_1_split_1
I0602 10:01:20.567348 24007 net.cpp:124] Setting up cont_2_lstm1_cont_slice_1_split
I0602 10:01:20.567355 24007 net.cpp:131] Top shape: 1 1 (1)
I0602 10:01:20.567363 24007 net.cpp:131] Top shape: 1 1 (1)
I0602 10:01:20.567369 24007 net.cpp:139] Memory required for data: 185256
I0602 10:01:20.567375 24007 layer_factory.hpp:77] Creating layer cont_3_lstm1_cont_slice_2_split
I0602 10:01:20.567383 24007 net.cpp:86] Creating Layer cont_3_lstm1_cont_slice_2_split
I0602 10:01:20.567389 24007 net.cpp:408] cont_3_lstm1_cont_slice_2_split <- cont_3
I0602 10:01:20.567399 24007 net.cpp:382] cont_3_lstm1_cont_slice_2_split -> cont_3_lstm1_cont_slice_2_split_0
I0602 10:01:20.567414 24007 net.cpp:382] cont_3_lstm1_cont_slice_2_split -> cont_3_lstm1_cont_slice_2_split_1
I0602 10:01:20.567423 24007 net.cpp:124] Setting up cont_3_lstm1_cont_slice_2_split
I0602 10:01:20.567430 24007 net.cpp:131] Top shape: 1 1 (1)
I0602 10:01:20.567435 24007 net.cpp:131] Top shape: 1 1 (1)
I0602 10:01:20.567442 24007 net.cpp:139] Memory required for data: 185264
I0602 10:01:20.567448 24007 layer_factory.hpp:77] Creating layer cont_4_lstm1_cont_slice_3_split
I0602 10:01:20.567456 24007 net.cpp:86] Creating Layer cont_4_lstm1_cont_slice_3_split
I0602 10:01:20.567461 24007 net.cpp:408] cont_4_lstm1_cont_slice_3_split <- cont_4
I0602 10:01:20.567467 24007 net.cpp:382] cont_4_lstm1_cont_slice_3_split -> cont_4_lstm1_cont_slice_3_split_0
I0602 10:01:20.567476 24007 net.cpp:382] cont_4_lstm1_cont_slice_3_split -> cont_4_lstm1_cont_slice_3_split_1
I0602 10:01:20.567484 24007 net.cpp:124] Setting up cont_4_lstm1_cont_slice_3_split
I0602 10:01:20.567490 24007 net.cpp:131] Top shape: 1 1 (1)
I0602 10:01:20.567497 24007 net.cpp:131] Top shape: 1 1 (1)
I0602 10:01:20.567503 24007 net.cpp:139] Memory required for data: 185272
I0602 10:01:20.567509 24007 layer_factory.hpp:77] Creating layer cont_5_lstm1_cont_slice_4_split
I0602 10:01:20.567517 24007 net.cpp:86] Creating Layer cont_5_lstm1_cont_slice_4_split
I0602 10:01:20.567522 24007 net.cpp:408] cont_5_lstm1_cont_slice_4_split <- cont_5
I0602 10:01:20.567528 24007 net.cpp:382] cont_5_lstm1_cont_slice_4_split -> cont_5_lstm1_cont_slice_4_split_0
I0602 10:01:20.567534 24007 net.cpp:382] cont_5_lstm1_cont_slice_4_split -> cont_5_lstm1_cont_slice_4_split_1
I0602 10:01:20.567545 24007 net.cpp:124] Setting up cont_5_lstm1_cont_slice_4_split
I0602 10:01:20.567551 24007 net.cpp:131] Top shape: 1 1 (1)
I0602 10:01:20.567558 24007 net.cpp:131] Top shape: 1 1 (1)
I0602 10:01:20.567564 24007 net.cpp:139] Memory required for data: 185280
I0602 10:01:20.567569 24007 layer_factory.hpp:77] Creating layer cont_6_lstm1_cont_slice_5_split
I0602 10:01:20.567576 24007 net.cpp:86] Creating Layer cont_6_lstm1_cont_slice_5_split
I0602 10:01:20.567582 24007 net.cpp:408] cont_6_lstm1_cont_slice_5_split <- cont_6
I0602 10:01:20.567589 24007 net.cpp:382] cont_6_lstm1_cont_slice_5_split -> cont_6_lstm1_cont_slice_5_split_0
I0602 10:01:20.567598 24007 net.cpp:382] cont_6_lstm1_cont_slice_5_split -> cont_6_lstm1_cont_slice_5_split_1
I0602 10:01:20.567605 24007 net.cpp:124] Setting up cont_6_lstm1_cont_slice_5_split
I0602 10:01:20.567611 24007 net.cpp:131] Top shape: 1 1 (1)
I0602 10:01:20.567618 24007 net.cpp:131] Top shape: 1 1 (1)
I0602 10:01:20.567623 24007 net.cpp:139] Memory required for data: 185288
I0602 10:01:20.567628 24007 layer_factory.hpp:77] Creating layer cont_7_lstm1_cont_slice_6_split
I0602 10:01:20.567636 24007 net.cpp:86] Creating Layer cont_7_lstm1_cont_slice_6_split
I0602 10:01:20.567642 24007 net.cpp:408] cont_7_lstm1_cont_slice_6_split <- cont_7
I0602 10:01:20.567651 24007 net.cpp:382] cont_7_lstm1_cont_slice_6_split -> cont_7_lstm1_cont_slice_6_split_0
I0602 10:01:20.567659 24007 net.cpp:382] cont_7_lstm1_cont_slice_6_split -> cont_7_lstm1_cont_slice_6_split_1
I0602 10:01:20.567669 24007 net.cpp:124] Setting up cont_7_lstm1_cont_slice_6_split
I0602 10:01:20.567675 24007 net.cpp:131] Top shape: 1 1 (1)
I0602 10:01:20.567682 24007 net.cpp:131] Top shape: 1 1 (1)
I0602 10:01:20.567687 24007 net.cpp:139] Memory required for data: 185296
I0602 10:01:20.567692 24007 layer_factory.hpp:77] Creating layer cont_8_lstm1_cont_slice_7_split
I0602 10:01:20.567699 24007 net.cpp:86] Creating Layer cont_8_lstm1_cont_slice_7_split
I0602 10:01:20.567705 24007 net.cpp:408] cont_8_lstm1_cont_slice_7_split <- cont_8
I0602 10:01:20.567713 24007 net.cpp:382] cont_8_lstm1_cont_slice_7_split -> cont_8_lstm1_cont_slice_7_split_0
I0602 10:01:20.567721 24007 net.cpp:382] cont_8_lstm1_cont_slice_7_split -> cont_8_lstm1_cont_slice_7_split_1
I0602 10:01:20.567731 24007 net.cpp:124] Setting up cont_8_lstm1_cont_slice_7_split
I0602 10:01:20.567741 24007 net.cpp:131] Top shape: 1 1 (1)
I0602 10:01:20.567752 24007 net.cpp:131] Top shape: 1 1 (1)
I0602 10:01:20.567759 24007 net.cpp:139] Memory required for data: 185304
I0602 10:01:20.567765 24007 layer_factory.hpp:77] Creating layer cont_9_lstm1_cont_slice_8_split
I0602 10:01:20.567772 24007 net.cpp:86] Creating Layer cont_9_lstm1_cont_slice_8_split
I0602 10:01:20.567777 24007 net.cpp:408] cont_9_lstm1_cont_slice_8_split <- cont_9
I0602 10:01:20.567806 24007 net.cpp:382] cont_9_lstm1_cont_slice_8_split -> cont_9_lstm1_cont_slice_8_split_0
I0602 10:01:20.567812 24007 net.cpp:382] cont_9_lstm1_cont_slice_8_split -> cont_9_lstm1_cont_slice_8_split_1
I0602 10:01:20.567822 24007 net.cpp:124] Setting up cont_9_lstm1_cont_slice_8_split
I0602 10:01:20.567828 24007 net.cpp:131] Top shape: 1 1 (1)
I0602 10:01:20.567836 24007 net.cpp:131] Top shape: 1 1 (1)
I0602 10:01:20.567842 24007 net.cpp:139] Memory required for data: 185312
I0602 10:01:20.567847 24007 layer_factory.hpp:77] Creating layer cont_10_lstm1_cont_slice_9_split
I0602 10:01:20.567854 24007 net.cpp:86] Creating Layer cont_10_lstm1_cont_slice_9_split
I0602 10:01:20.567860 24007 net.cpp:408] cont_10_lstm1_cont_slice_9_split <- cont_10
I0602 10:01:20.567867 24007 net.cpp:382] cont_10_lstm1_cont_slice_9_split -> cont_10_lstm1_cont_slice_9_split_0
I0602 10:01:20.567875 24007 net.cpp:382] cont_10_lstm1_cont_slice_9_split -> cont_10_lstm1_cont_slice_9_split_1
I0602 10:01:20.567884 24007 net.cpp:124] Setting up cont_10_lstm1_cont_slice_9_split
I0602 10:01:20.567891 24007 net.cpp:131] Top shape: 1 1 (1)
I0602 10:01:20.567898 24007 net.cpp:131] Top shape: 1 1 (1)
I0602 10:01:20.567903 24007 net.cpp:139] Memory required for data: 185320
I0602 10:01:20.567909 24007 layer_factory.hpp:77] Creating layer cont_11_lstm1_cont_slice_10_split
I0602 10:01:20.567914 24007 net.cpp:86] Creating Layer cont_11_lstm1_cont_slice_10_split
I0602 10:01:20.567921 24007 net.cpp:408] cont_11_lstm1_cont_slice_10_split <- cont_11
I0602 10:01:20.567927 24007 net.cpp:382] cont_11_lstm1_cont_slice_10_split -> cont_11_lstm1_cont_slice_10_split_0
I0602 10:01:20.567934 24007 net.cpp:382] cont_11_lstm1_cont_slice_10_split -> cont_11_lstm1_cont_slice_10_split_1
I0602 10:01:20.567942 24007 net.cpp:124] Setting up cont_11_lstm1_cont_slice_10_split
I0602 10:01:20.567950 24007 net.cpp:131] Top shape: 1 1 (1)
I0602 10:01:20.567956 24007 net.cpp:131] Top shape: 1 1 (1)
I0602 10:01:20.567962 24007 net.cpp:139] Memory required for data: 185328
I0602 10:01:20.567968 24007 layer_factory.hpp:77] Creating layer cont_12_lstm1_cont_slice_11_split
I0602 10:01:20.567975 24007 net.cpp:86] Creating Layer cont_12_lstm1_cont_slice_11_split
I0602 10:01:20.567981 24007 net.cpp:408] cont_12_lstm1_cont_slice_11_split <- cont_12
I0602 10:01:20.567991 24007 net.cpp:382] cont_12_lstm1_cont_slice_11_split -> cont_12_lstm1_cont_slice_11_split_0
I0602 10:01:20.567999 24007 net.cpp:382] cont_12_lstm1_cont_slice_11_split -> cont_12_lstm1_cont_slice_11_split_1
I0602 10:01:20.568007 24007 net.cpp:124] Setting up cont_12_lstm1_cont_slice_11_split
I0602 10:01:20.568013 24007 net.cpp:131] Top shape: 1 1 (1)
I0602 10:01:20.568020 24007 net.cpp:131] Top shape: 1 1 (1)
I0602 10:01:20.568025 24007 net.cpp:139] Memory required for data: 185336
I0602 10:01:20.568032 24007 layer_factory.hpp:77] Creating layer cont_13_lstm1_cont_slice_12_split
I0602 10:01:20.568040 24007 net.cpp:86] Creating Layer cont_13_lstm1_cont_slice_12_split
I0602 10:01:20.568048 24007 net.cpp:408] cont_13_lstm1_cont_slice_12_split <- cont_13
I0602 10:01:20.568054 24007 net.cpp:382] cont_13_lstm1_cont_slice_12_split -> cont_13_lstm1_cont_slice_12_split_0
I0602 10:01:20.568063 24007 net.cpp:382] cont_13_lstm1_cont_slice_12_split -> cont_13_lstm1_cont_slice_12_split_1
I0602 10:01:20.568070 24007 net.cpp:124] Setting up cont_13_lstm1_cont_slice_12_split
I0602 10:01:20.568078 24007 net.cpp:131] Top shape: 1 1 (1)
I0602 10:01:20.568084 24007 net.cpp:131] Top shape: 1 1 (1)
I0602 10:01:20.568089 24007 net.cpp:139] Memory required for data: 185344
I0602 10:01:20.568099 24007 layer_factory.hpp:77] Creating layer cont_14_lstm1_cont_slice_13_split
I0602 10:01:20.568114 24007 net.cpp:86] Creating Layer cont_14_lstm1_cont_slice_13_split
I0602 10:01:20.568120 24007 net.cpp:408] cont_14_lstm1_cont_slice_13_split <- cont_14
I0602 10:01:20.568128 24007 net.cpp:382] cont_14_lstm1_cont_slice_13_split -> cont_14_lstm1_cont_slice_13_split_0
I0602 10:01:20.568137 24007 net.cpp:382] cont_14_lstm1_cont_slice_13_split -> cont_14_lstm1_cont_slice_13_split_1
I0602 10:01:20.568145 24007 net.cpp:124] Setting up cont_14_lstm1_cont_slice_13_split
I0602 10:01:20.568155 24007 net.cpp:131] Top shape: 1 1 (1)
I0602 10:01:20.568161 24007 net.cpp:131] Top shape: 1 1 (1)
I0602 10:01:20.568168 24007 net.cpp:139] Memory required for data: 185352
I0602 10:01:20.568174 24007 layer_factory.hpp:77] Creating layer cont_15_lstm1_cont_slice_14_split
I0602 10:01:20.568181 24007 net.cpp:86] Creating Layer cont_15_lstm1_cont_slice_14_split
I0602 10:01:20.568186 24007 net.cpp:408] cont_15_lstm1_cont_slice_14_split <- cont_15
I0602 10:01:20.568193 24007 net.cpp:382] cont_15_lstm1_cont_slice_14_split -> cont_15_lstm1_cont_slice_14_split_0
I0602 10:01:20.568202 24007 net.cpp:382] cont_15_lstm1_cont_slice_14_split -> cont_15_lstm1_cont_slice_14_split_1
I0602 10:01:20.568212 24007 net.cpp:124] Setting up cont_15_lstm1_cont_slice_14_split
I0602 10:01:20.568217 24007 net.cpp:131] Top shape: 1 1 (1)
I0602 10:01:20.568223 24007 net.cpp:131] Top shape: 1 1 (1)
I0602 10:01:20.568229 24007 net.cpp:139] Memory required for data: 185360
I0602 10:01:20.568236 24007 layer_factory.hpp:77] Creating layer lstm1_x_transform
I0602 10:01:20.568246 24007 net.cpp:86] Creating Layer lstm1_x_transform
I0602 10:01:20.568253 24007 net.cpp:408] lstm1_x_transform <- x
I0602 10:01:20.568261 24007 net.cpp:382] lstm1_x_transform -> W_xc_x
I0602 10:01:20.704717 24007 net.cpp:124] Setting up lstm1_x_transform
I0602 10:01:20.704754 24007 net.cpp:131] Top shape: 15 1 400 (6000)
I0602 10:01:20.704759 24007 net.cpp:139] Memory required for data: 209360
I0602 10:01:20.704774 24007 layer_factory.hpp:77] Creating layer lstm1_W_xc_x_slice
I0602 10:01:20.704790 24007 net.cpp:86] Creating Layer lstm1_W_xc_x_slice
I0602 10:01:20.704798 24007 net.cpp:408] lstm1_W_xc_x_slice <- W_xc_x
I0602 10:01:20.704809 24007 net.cpp:382] lstm1_W_xc_x_slice -> W_xc_x_1
I0602 10:01:20.704820 24007 net.cpp:382] lstm1_W_xc_x_slice -> W_xc_x_2
…
I0602 10:01:20.704875 24007 net.cpp:382] lstm1_W_xc_x_slice -> W_xc_x_9
I0602 10:01:20.704882 24007 net.cpp:382] lstm1_W_xc_x_slice -> W_xc_x_10
I0602 10:01:20.704890 24007 net.cpp:382] lstm1_W_xc_x_slice -> W_xc_x_11
I0602 10:01:20.704896 24007 net.cpp:382] lstm1_W_xc_x_slice -> W_xc_x_12
I0602 10:01:20.704903 24007 net.cpp:382] lstm1_W_xc_x_slice -> W_xc_x_13
I0602 10:01:20.704912 24007 net.cpp:382] lstm1_W_xc_x_slice -> W_xc_x_14
I0602 10:01:20.704921 24007 net.cpp:382] lstm1_W_xc_x_slice -> W_xc_x_15
I0602 10:01:20.704938 24007 net.cpp:124] Setting up lstm1_W_xc_x_slice
I0602 10:01:20.704944 24007 net.cpp:131] Top shape: 1 1 400 (400)
I0602 10:01:20.704949 24007 net.cpp:131] Top shape: 1 1 400 (400)
I0602 10:01:20.704954 24007 net.cpp:131] Top shape: 1 1 400 (400)
I0602 10:01:20.704960 24007 net.cpp:131] Top shape: 1 1 400 (400)
I0602 10:01:20.704965 24007 net.cpp:131] Top shape: 1 1 400 (400)
I0602 10:01:20.704972 24007 net.cpp:131] Top shape: 1 1 400 (400)
I0602 10:01:20.704977 24007 net.cpp:131] Top shape: 1 1 400 (400)
I0602 10:01:20.704982 24007 net.cpp:131] Top shape: 1 1 400 (400)
I0602 10:01:20.704987 24007 net.cpp:131] Top shape: 1 1 400 (400)
I0602 10:01:20.704993 24007 net.cpp:131] Top shape: 1 1 400 (400)
I0602 10:01:20.705004 24007 net.cpp:131] Top shape: 1 1 400 (400)
I0602 10:01:20.705019 24007 net.cpp:131] Top shape: 1 1 400 (400)
I0602 10:01:20.705025 24007 net.cpp:131] Top shape: 1 1 400 (400)
I0602 10:01:20.705030 24007 net.cpp:131] Top shape: 1 1 400 (400)
I0602 10:01:20.705036 24007 net.cpp:131] Top shape: 1 1 400 (400)
I0602 10:01:20.705042 24007 net.cpp:139] Memory required for data: 233360
I0602 10:01:20.705046 24007 layer_factory.hpp:77] Creating layer lstm1_h_conted_0
I0602 10:01:20.705055 24007 net.cpp:86] Creating Layer lstm1_h_conted_0
I0602 10:01:20.705062 24007 net.cpp:408] lstm1_h_conted_0 <- h_0
I0602 10:01:20.705070 24007 net.cpp:408] lstm1_h_conted_0 <- cont_1_lstm1_cont_slice_0_split_0
I0602 10:01:20.705077 24007 net.cpp:382] lstm1_h_conted_0 -> h_conted_0
I0602 10:01:20.705087 24007 net.cpp:124] Setting up lstm1_h_conted_0
I0602 10:01:20.705093 24007 net.cpp:131] Top shape: 1 1 100 (100)
I0602 10:01:20.705098 24007 net.cpp:139] Memory required for data: 233760
I0602 10:01:20.705104 24007 layer_factory.hpp:77] Creating layer lstm1_transform_1
I0602 10:01:20.705113 24007 net.cpp:86] Creating Layer lstm1_transform_1
I0602 10:01:20.705118 24007 net.cpp:408] lstm1_transform_1 <- h_conted_0
I0602 10:01:20.705127 24007 net.cpp:382] lstm1_transform_1 -> W_hc_h_0
I0602 10:01:20.705449 24007 net.cpp:124] Setting up lstm1_transform_1
I0602 10:01:20.705457 24007 net.cpp:131] Top shape: 1 1 400 (400)
I0602 10:01:20.705462 24007 net.cpp:139] Memory required for data: 235360
I0602 10:01:20.705469 24007 layer_factory.hpp:77] Creating layer lstm1_gate_input_1
I0602 10:01:20.705477 24007 net.cpp:86] Creating Layer lstm1_gate_input_1
I0602 10:01:20.705483 24007 net.cpp:408] lstm1_gate_input_1 <- W_hc_h_0
I0602 10:01:20.705490 24007 net.cpp:408] lstm1_gate_input_1 <- W_xc_x_1
I0602 10:01:20.705497 24007 net.cpp:382] lstm1_gate_input_1 -> gate_input_1
I0602 10:01:20.705505 24007 net.cpp:124] Setting up lstm1_gate_input_1
I0602 10:01:20.705512 24007 net.cpp:131] Top shape: 1 1 400 (400)
I0602 10:01:20.705516 24007 net.cpp:139] Memory required for data: 236960
I0602 10:01:20.705520 24007 layer_factory.hpp:77] Creating layer lstm1_unit_1
I0602 10:01:20.705528 24007 net.cpp:86] Creating Layer lstm1_unit_1
I0602 10:01:20.705533 24007 net.cpp:408] lstm1_unit_1 <- c_0
I0602 10:01:20.705539 24007 net.cpp:408] lstm1_unit_1 <- gate_input_1
I0602 10:01:20.705545 24007 net.cpp:408] lstm1_unit_1 <- cont_1_lstm1_cont_slice_0_split_1
I0602 10:01:20.705554 24007 net.cpp:382] lstm1_unit_1 -> c_1
I0602 10:01:20.705560 24007 net.cpp:382] lstm1_unit_1 -> h_1
I0602 10:01:20.705569 24007 net.cpp:124] Setting up lstm1_unit_1
I0602 10:01:20.705575 24007 net.cpp:131] Top shape: 1 1 100 (100)
I0602 10:01:20.705581 24007 net.cpp:131] Top shape: 1 1 100 (100)
I0602 10:01:20.705585 24007 net.cpp:139] Memory required for data: 237760
I0602 10:01:20.705590 24007 layer_factory.hpp:77] Creating layer h_1_lstm1_unit_1_1_split
I0602 10:01:20.705598 24007 net.cpp:86] Creating Layer h_1_lstm1_unit_1_1_split
I0602 10:01:20.705602 24007 net.cpp:408] h_1_lstm1_unit_1_1_split <- h_1
I0602 10:01:20.705608 24007 net.cpp:382] h_1_lstm1_unit_1_1_split -> h_1_lstm1_unit_1_1_split_0
I0602 10:01:20.705617 24007 net.cpp:382] h_1_lstm1_unit_1_1_split -> h_1_lstm1_unit_1_1_split_1
I0602 10:01:20.705626 24007 net.cpp:124] Setting up h_1_lstm1_unit_1_1_split
I0602 10:01:20.705631 24007 net.cpp:131] Top shape: 1 1 100 (100)
I0602 10:01:20.705636 24007 net.cpp:131] Top shape: 1 1 100 (100)
I0602 10:01:20.705641 24007 net.cpp:139] Memory required for data: 238560
I0602 10:01:20.705646 24007 layer_factory.hpp:77] Creating layer lstm1_h_conted_1
I0602 10:01:20.705653 24007 net.cpp:86] Creating Layer lstm1_h_conted_1
I0602 10:01:20.705658 24007 net.cpp:408] lstm1_h_conted_1 <- h_1_lstm1_unit_1_1_split_0
I0602 10:01:20.705665 24007 net.cpp:408] lstm1_h_conted_1 <- cont_2_lstm1_cont_slice_1_split_0
I0602 10:01:20.705672 24007 net.cpp:382] lstm1_h_conted_1 -> h_conted_1
I0602 10:01:20.705682 24007 net.cpp:124] Setting up lstm1_h_conted_1
I0602 10:01:20.705690 24007 net.cpp:131] Top shape: 1 1 100 (100)
I0602 10:01:20.705703 24007 net.cpp:139] Memory required for data: 238960
I0602 10:01:20.705708 24007 layer_factory.hpp:77] Creating layer lstm1_transform_2
I0602 10:01:20.705715 24007 net.cpp:86] Creating Layer lstm1_transform_2
I0602 10:01:20.705721 24007 net.cpp:408] lstm1_transform_2 <- h_conted_1
I0602 10:01:20.705727 24007 net.cpp:382] lstm1_transform_2 -> W_hc_h_1
I0602 10:01:20.706043 24007 net.cpp:124] Setting up lstm1_transform_2
I0602 10:01:20.706050 24007 net.cpp:131] Top shape: 1 1 400 (400)
I0602 10:01:20.706055 24007 net.cpp:139] Memory required for data: 240560
I0602 10:01:20.706061 24007 net.cpp:467] Sharing parameters 'W_hc' owned by layer 'lstm1_transform_1', param index 0
I0602 10:01:20.706068 24007 layer_factory.hpp:77] Creating layer lstm1_gate_input_2
I0602 10:01:20.706074 24007 net.cpp:86] Creating Layer lstm1_gate_input_2
I0602 10:01:20.706079 24007 net.cpp:408] lstm1_gate_input_2 <- W_hc_h_1
I0602 10:01:20.706085 24007 net.cpp:408] lstm1_gate_input_2 <- W_xc_x_2
I0602 10:01:20.706094 24007 net.cpp:382] lstm1_gate_input_2 -> gate_input_2
I0602 10:01:20.706101 24007 net.cpp:124] Setting up lstm1_gate_input_2
I0602 10:01:20.706107 24007 net.cpp:131] Top shape: 1 1 400 (400)
I0602 10:01:20.706112 24007 net.cpp:139] Memory required for data: 242160
I0602 10:01:20.706117 24007 layer_factory.hpp:77] Creating layer lstm1_unit_2
I0602 10:01:20.706123 24007 net.cpp:86] Creating Layer lstm1_unit_2
I0602 10:01:20.706128 24007 net.cpp:408] lstm1_unit_2 <- c_1
I0602 10:01:20.706135 24007 net.cpp:408] lstm1_unit_2 <- gate_input_2
I0602 10:01:20.706141 24007 net.cpp:408] lstm1_unit_2 <- cont_2_lstm1_cont_slice_1_split_1
I0602 10:01:20.706151 24007 net.cpp:382] lstm1_unit_2 -> c_2
I0602 10:01:20.706158 24007 net.cpp:382] lstm1_unit_2 -> h_2
I0602 10:01:20.706166 24007 net.cpp:124] Setting up lstm1_unit_2
I0602 10:01:20.706172 24007 net.cpp:131] Top shape: 1 1 100 (100)
I0602 10:01:20.706177 24007 net.cpp:131] Top shape: 1 1 100 (100)
I0602 10:01:20.706182 24007 net.cpp:139] Memory required for data: 242960
I0602 10:01:20.706187 24007 layer_factory.hpp:77] Creating layer h_2_lstm1_unit_2_1_split
I0602 10:01:20.706193 24007 net.cpp:86] Creating Layer h_2_lstm1_unit_2_1_split
I0602 10:01:20.706198 24007 net.cpp:408] h_2_lstm1_unit_2_1_split <- h_2
I0602 10:01:20.706204 24007 net.cpp:382] h_2_lstm1_unit_2_1_split -> h_2_lstm1_unit_2_1_split_0
I0602 10:01:20.706212 24007 net.cpp:382] h_2_lstm1_unit_2_1_split -> h_2_lstm1_unit_2_1_split_1
I0602 10:01:20.706218 24007 net.cpp:124] Setting up h_2_lstm1_unit_2_1_split
I0602 10:01:20.706224 24007 net.cpp:131] Top shape: 1 1 100 (100)
I0602 10:01:20.706229 24007 net.cpp:131] Top shape: 1 1 100 (100)
I0602 10:01:20.706233 24007 net.cpp:139] Memory required for data: 243760
I0602 10:01:20.706238 24007 layer_factory.hpp:77] Creating layer lstm1_h_conted_2
I0602 10:01:20.706246 24007 net.cpp:86] Creating Layer lstm1_h_conted_2
I0602 10:01:20.706251 24007 net.cpp:408] lstm1_h_conted_2 <- h_2_lstm1_unit_2_1_split_0
I0602 10:01:20.706259 24007 net.cpp:408] lstm1_h_conted_2 <- cont_3_lstm1_cont_slice_2_split_0
I0602 10:01:20.706265 24007 net.cpp:382] lstm1_h_conted_2 -> h_conted_2
I0602 10:01:20.706274 24007 net.cpp:124] Setting up lstm1_h_conted_2
I0602 10:01:20.706279 24007 net.cpp:131] Top shape: 1 1 100 (100)
I0602 10:01:20.706285 24007 net.cpp:139] Memory required for data: 244160
I0602 10:01:20.706290 24007 layer_factory.hpp:77] Creating layer lstm1_transform_3
I0602 10:01:20.706298 24007 net.cpp:86] Creating Layer lstm1_transform_3
I0602 10:01:20.706303 24007 net.cpp:408] lstm1_transform_3 <- h_conted_2
I0602 10:01:20.706310 24007 net.cpp:382] lstm1_transform_3 -> W_hc_h_2
I0602 10:01:20.706622 24007 net.cpp:124] Setting up lstm1_transform_3
I0602 10:01:20.706630 24007 net.cpp:131] Top shape: 1 1 400 (400)
I0602 10:01:20.706635 24007 net.cpp:139] Memory required for data: 245760
I0602 10:01:20.706641 24007 net.cpp:467] Sharing parameters 'W_hc' owned by layer 'lstm1_transform_1', param index 0
I0602 10:01:20.706646 24007 layer_factory.hpp:77] Creating layer lstm1_gate_input_3
I0602 10:01:20.706663 24007 net.cpp:86] Creating Layer lstm1_gate_input_3
I0602 10:01:20.706670 24007 net.cpp:408] lstm1_gate_input_3 <- W_hc_h_2
I0602 10:01:20.706676 24007 net.cpp:408] lstm1_gate_input_3 <- W_xc_x_3
I0602 10:01:20.706681 24007 net.cpp:382] lstm1_gate_input_3 -> gate_input_3
I0602 10:01:20.706689 24007 net.cpp:124] Setting up lstm1_gate_input_3
I0602 10:01:20.706696 24007 net.cpp:131] Top shape: 1 1 400 (400)
I0602 10:01:20.706701 24007 net.cpp:139] Memory required for data: 247360
I0602 10:01:20.706704 24007 layer_factory.hpp:77] Creating layer lstm1_unit_3
I0602 10:01:20.706712 24007 net.cpp:86] Creating Layer lstm1_unit_3
I0602 10:01:20.706717 24007 net.cpp:408] lstm1_unit_3 <- c_2
I0602 10:01:20.706722 24007 net.cpp:408] lstm1_unit_3 <- gate_input_3
I0602 10:01:20.706728 24007 net.cpp:408] lstm1_unit_3 <- cont_3_lstm1_cont_slice_2_split_1
I0602 10:01:20.706734 24007 net.cpp:382] lstm1_unit_3 -> c_3
I0602 10:01:20.706740 24007 net.cpp:382] lstm1_unit_3 -> h_3
I0602 10:01:20.706748 24007 net.cpp:124] Setting up lstm1_unit_3
I0602 10:01:20.706754 24007 net.cpp:131] Top shape: 1 1 100 (100)
I0602 10:01:20.706759 24007 net.cpp:131] Top shape: 1 1 100 (100)
I0602 10:01:20.706763 24007 net.cpp:139] Memory required for data: 248160
I0602 10:01:20.706768 24007 layer_factory.hpp:77] Creating layer h_3_lstm1_unit_3_1_split
I0602 10:01:20.706775 24007 net.cpp:86] Creating Layer h_3_lstm1_unit_3_1_split
I0602 10:01:20.706781 24007 net.cpp:408] h_3_lstm1_unit_3_1_split <- h_3
I0602 10:01:20.706787 24007 net.cpp:382] h_3_lstm1_unit_3_1_split -> h_3_lstm1_unit_3_1_split_0
I0602 10:01:20.706797 24007 net.cpp:382] h_3_lstm1_unit_3_1_split -> h_3_lstm1_unit_3_1_split_1
I0602 10:01:20.706805 24007 net.cpp:124] Setting up h_3_lstm1_unit_3_1_split
I0602 10:01:20.706811 24007 net.cpp:131] Top shape: 1 1 100 (100)
I0602 10:01:20.706816 24007 net.cpp:131] Top shape: 1 1 100 (100)
I0602 10:01:20.706821 24007 net.cpp:139] Memory required for data: 248960
I0602 10:01:20.706827 24007 layer_factory.hpp:77] Creating layer lstm1_h_conted_3
I0602 10:01:20.706835 24007 net.cpp:86] Creating Layer lstm1_h_conted_3
I0602 10:01:20.706840 24007 net.cpp:408] lstm1_h_conted_3 <- h_3_lstm1_unit_3_1_split_0
I0602 10:01:20.706845 24007 net.cpp:408] lstm1_h_conted_3 <- cont_4_lstm1_cont_slice_3_split_0
I0602 10:01:20.706851 24007 net.cpp:382] lstm1_h_conted_3 -> h_conted_3
I0602 10:01:20.706861 24007 net.cpp:124] Setting up lstm1_h_conted_3
I0602 10:01:20.706868 24007 net.cpp:131] Top shape: 1 1 100 (100)
I0602 10:01:20.706872 24007 net.cpp:139] Memory required for data: 249360
I0602 10:01:20.706877 24007 layer_factory.hpp:77] Creating layer lstm1_transform_4
I0602 10:01:20.706884 24007 net.cpp:86] Creating Layer lstm1_transform_4
I0602 10:01:20.706889 24007 net.cpp:408] lstm1_transform_4 <- h_conted_3
I0602 10:01:20.706895 24007 net.cpp:382] lstm1_transform_4 -> W_hc_h_3
I0602 10:01:20.707206 24007 net.cpp:124] Setting up lstm1_transform_4
I0602 10:01:20.707214 24007 net.cpp:131] Top shape: 1 1 400 (400)
I0602 10:01:20.707219 24007 net.cpp:139] Memory required for data: 250960
I0602 10:01:20.707224 24007 net.cpp:467] Sharing parameters 'W_hc' owned by layer 'lstm1_transform_1', param index 0
I0602 10:01:20.707231 24007 layer_factory.hpp:77] Creating layer lstm1_gate_input_4
I0602 10:01:20.707237 24007 net.cpp:86] Creating Layer lstm1_gate_input_4
I0602 10:01:20.707242 24007 net.cpp:408] lstm1_gate_input_4 <- W_hc_h_3
I0602 10:01:20.707248 24007 net.cpp:408] lstm1_gate_input_4 <- W_xc_x_4
I0602 10:01:20.707257 24007 net.cpp:382] lstm1_gate_input_4 -> gate_input_4
I0602 10:01:20.707265 24007 net.cpp:124] Setting up lstm1_gate_input_4
I0602 10:01:20.707270 24007 net.cpp:131] Top shape: 1 1 400 (400)
I0602 10:01:20.707275 24007 net.cpp:139] Memory required for data: 252560
I0602 10:01:20.707280 24007 layer_factory.hpp:77] Creating layer lstm1_unit_4
I0602 10:01:20.707286 24007 net.cpp:86] Creating Layer lstm1_unit_4
I0602 10:01:20.707293 24007 net.cpp:408] lstm1_unit_4 <- c_3
I0602 10:01:20.707298 24007 net.cpp:408] lstm1_unit_4 <- gate_input_4
I0602 10:01:20.707312 24007 net.cpp:408] lstm1_unit_4 <- cont_4_lstm1_cont_slice_3_split_1
I0602 10:01:20.707321 24007 net.cpp:382] lstm1_unit_4 -> c_4
I0602 10:01:20.707329 24007 net.cpp:382] lstm1_unit_4 -> h_4
I0602 10:01:20.707337 24007 net.cpp:124] Setting up lstm1_unit_4
I0602 10:01:20.707343 24007 net.cpp:131] Top shape: 1 1 100 (100)
I0602 10:01:20.707348 24007 net.cpp:131] Top shape: 1 1 100 (100)
I0602 10:01:20.707353 24007 net.cpp:139] Memory required for data: 253360
I0602 10:01:20.707357 24007 layer_factory.hpp:77] Creating layer h_4_lstm1_unit_4_1_split
I0602 10:01:20.707365 24007 net.cpp:86] Creating Layer h_4_lstm1_unit_4_1_split
I0602 10:01:20.707370 24007 net.cpp:408] h_4_lstm1_unit_4_1_split <- h_4
I0602 10:01:20.707377 24007 net.cpp:382] h_4_lstm1_unit_4_1_split -> h_4_lstm1_unit_4_1_split_0
I0602 10:01:20.707383 24007 net.cpp:382] h_4_lstm1_unit_4_1_split -> h_4_lstm1_unit_4_1_split_1
I0602 10:01:20.707391 24007 net.cpp:124] Setting up h_4_lstm1_unit_4_1_split
I0602 10:01:20.707397 24007 net.cpp:131] Top shape: 1 1 100 (100)
I0602 10:01:20.707402 24007 net.cpp:131] Top shape: 1 1 100 (100)
I0602 10:01:20.707406 24007 net.cpp:139] Memory required for data: 254160
I0602 10:01:20.707413 24007 layer_factory.hpp:77] Creating layer lstm1_h_conted_4
I0602 10:01:20.707422 24007 net.cpp:86] Creating Layer lstm1_h_conted_4
I0602 10:01:20.707427 24007 net.cpp:408] lstm1_h_conted_4 <- h_4_lstm1_unit_4_1_split_0
I0602 10:01:20.707432 24007 net.cpp:408] lstm1_h_conted_4 <- cont_5_lstm1_cont_slice_4_split_0
I0602 10:01:20.707438 24007 net.cpp:382] lstm1_h_conted_4 -> h_conted_4
I0602 10:01:20.707448 24007 net.cpp:124] Setting up lstm1_h_conted_4
I0602 10:01:20.707453 24007 net.cpp:131] Top shape: 1 1 100 (100)
I0602 10:01:20.707458 24007 net.cpp:139] Memory required for data: 254560
I0602 10:01:20.707463 24007 layer_factory.hpp:77] Creating layer lstm1_transform_5
I0602 10:01:20.707471 24007 net.cpp:86] Creating Layer lstm1_transform_5
I0602 10:01:20.707475 24007 net.cpp:408] lstm1_transform_5 <- h_conted_4
I0602 10:01:20.707482 24007 net.cpp:382] lstm1_transform_5 -> W_hc_h_4
I0602 10:01:20.707803 24007 net.cpp:124] Setting up lstm1_transform_5
I0602 10:01:20.707813 24007 net.cpp:131] Top shape: 1 1 400 (400)
I0602 10:01:20.707818 24007 net.cpp:139] Memory required for data: 256160
I0602 10:01:20.707823 24007 net.cpp:467] Sharing parameters 'W_hc' owned by layer 'lstm1_transform_1', param index 0
I0602 10:01:20.707828 24007 layer_factory.hpp:77] Creating layer lstm1_gate_input_5
I0602 10:01:20.707835 24007 net.cpp:86] Creating Layer lstm1_gate_input_5
I0602 10:01:20.707841 24007 net.cpp:408] lstm1_gate_input_5 <- W_hc_h_4
I0602 10:01:20.707846 24007 net.cpp:408] lstm1_gate_input_5 <- W_xc_x_5
I0602 10:01:20.707854 24007 net.cpp:382] lstm1_gate_input_5 -> gate_input_5
I0602 10:01:20.707862 24007 net.cpp:124] Setting up lstm1_gate_input_5
I0602 10:01:20.707870 24007 net.cpp:131] Top shape: 1 1 400 (400)
I0602 10:01:20.707873 24007 net.cpp:139] Memory required for data: 257760
I0602 10:01:20.707880 24007 layer_factory.hpp:77] Creating layer lstm1_unit_5
I0602 10:01:20.707885 24007 net.cpp:86] Creating Layer lstm1_unit_5
I0602 10:01:20.707890 24007 net.cpp:408] lstm1_unit_5 <- c_4
I0602 10:01:20.707895 24007 net.cpp:408] lstm1_unit_5 <- gate_input_5
I0602 10:01:20.707901 24007 net.cpp:408] lstm1_unit_5 <- cont_5_lstm1_cont_slice_4_split_1
I0602 10:01:20.707907 24007 net.cpp:382] lstm1_unit_5 -> c_5
I0602 10:01:20.707914 24007 net.cpp:382] lstm1_unit_5 -> h_5
I0602 10:01:20.707923 24007 net.cpp:124] Setting up lstm1_unit_5
I0602 10:01:20.707929 24007 net.cpp:131] Top shape: 1 1 100 (100)
I0602 10:01:20.707936 24007 net.cpp:131] Top shape: 1 1 100 (100)
I0602 10:01:20.707940 24007 net.cpp:139] Memory required for data: 258560
I0602 10:01:20.707945 24007 layer_factory.hpp:77] Creating layer h_5_lstm1_unit_5_1_split
I0602 10:01:20.707950 24007 net.cpp:86] Creating Layer h_5_lstm1_unit_5_1_split
I0602 10:01:20.707957 24007 net.cpp:408] h_5_lstm1_unit_5_1_split <- h_5
I0602 10:01:20.707973 24007 net.cpp:382] h_5_lstm1_unit_5_1_split -> h_5_lstm1_unit_5_1_split_0
I0602 10:01:20.707984 24007 net.cpp:382] h_5_lstm1_unit_5_1_split -> h_5_lstm1_unit_5_1_split_1
I0602 10:01:20.707993 24007 net.cpp:124] Setting up h_5_lstm1_unit_5_1_split
I0602 10:01:20.707998 24007 net.cpp:131] Top shape: 1 1 100 (100)
I0602 10:01:20.708003 24007 net.cpp:131] Top shape: 1 1 100 (100)
I0602 10:01:20.708008 24007 net.cpp:139] Memory required for data: 259360
I0602 10:01:20.708011 24007 layer_factory.hpp:77] Creating layer lstm1_h_conted_5
I0602 10:01:20.708020 24007 net.cpp:86] Creating Layer lstm1_h_conted_5
I0602 10:01:20.708025 24007 net.cpp:408] lstm1_h_conted_5 <- h_5_lstm1_unit_5_1_split_0
I0602 10:01:20.708031 24007 net.cpp:408] lstm1_h_conted_5 <- cont_6_lstm1_cont_slice_5_split_0
I0602 10:01:20.708037 24007 net.cpp:382] lstm1_h_conted_5 -> h_conted_5
I0602 10:01:20.708047 24007 net.cpp:124] Setting up lstm1_h_conted_5
I0602 10:01:20.708053 24007 net.cpp:131] Top shape: 1 1 100 (100)
I0602 10:01:20.708060 24007 net.cpp:139] Memory required for data: 259760
I0602 10:01:20.708065 24007 layer_factory.hpp:77] Creating layer lstm1_transform_6
I0602 10:01:20.708072 24007 net.cpp:86] Creating Layer lstm1_transform_6
I0602 10:01:20.708076 24007 net.cpp:408] lstm1_transform_6 <- h_conted_5
I0602 10:01:20.708084 24007 net.cpp:382] lstm1_transform_6 -> W_hc_h_5
I0602 10:01:20.708400 24007 net.cpp:124] Setting up lstm1_transform_6
I0602 10:01:20.708408 24007 net.cpp:131] Top shape: 1 1 400 (400)
I0602 10:01:20.708412 24007 net.cpp:139] Memory required for data: 261360
I0602 10:01:20.708418 24007 net.cpp:467] Sharing parameters 'W_hc' owned by layer 'lstm1_transform_1', param index 0
I0602 10:01:20.708423 24007 layer_factory.hpp:77] Creating layer lstm1_gate_input_6
I0602 10:01:20.708431 24007 net.cpp:86] Creating Layer lstm1_gate_input_6
I0602 10:01:20.708437 24007 net.cpp:408] lstm1_gate_input_6 <- W_hc_h_5
I0602 10:01:20.708443 24007 net.cpp:408] lstm1_gate_input_6 <- W_xc_x_6
I0602 10:01:20.708449 24007 net.cpp:382] lstm1_gate_input_6 -> gate_input_6
I0602 10:01:20.708458 24007 net.cpp:124] Setting up lstm1_gate_input_6
I0602 10:01:20.708464 24007 net.cpp:131] Top shape: 1 1 400 (400)
I0602 10:01:20.708470 24007 net.cpp:139] Memory required for data: 262960
I0602 10:01:20.708475 24007 layer_factory.hpp:77] Creating layer lstm1_unit_6
I0602 10:01:20.708482 24007 net.cpp:86] Creating Layer lstm1_unit_6
I0602 10:01:20.708487 24007 net.cpp:408] lstm1_unit_6 <- c_5
I0602 10:01:20.708492 24007 net.cpp:408] lstm1_unit_6 <- gate_input_6
I0602 10:01:20.708498 24007 net.cpp:408] lstm1_unit_6 <- cont_6_lstm1_cont_slice_5_split_1
I0602 10:01:20.708503 24007 net.cpp:382] lstm1_unit_6 -> c_6
I0602 10:01:20.708509 24007 net.cpp:382] lstm1_unit_6 -> h_6
I0602 10:01:20.708518 24007 net.cpp:124] Setting up lstm1_unit_6
I0602 10:01:20.708523 24007 net.cpp:131] Top shape: 1 1 100 (100)
I0602 10:01:20.708528 24007 net.cpp:131] Top shape: 1 1 100 (100)
I0602 10:01:20.708534 24007 net.cpp:139] Memory required for data: 263760
I0602 10:01:20.708539 24007 layer_factory.hpp:77] Creating layer h_6_lstm1_unit_6_1_split
I0602 10:01:20.708544 24007 net.cpp:86] Creating Layer h_6_lstm1_unit_6_1_split
I0602 10:01:20.708549 24007 net.cpp:408] h_6_lstm1_unit_6_1_split <- h_6
I0602 10:01:20.708555 24007 net.cpp:382] h_6_lstm1_unit_6_1_split -> h_6_lstm1_unit_6_1_split_0
I0602 10:01:20.708562 24007 net.cpp:382] h_6_lstm1_unit_6_1_split -> h_6_lstm1_unit_6_1_split_1
I0602 10:01:20.708570 24007 net.cpp:124] Setting up h_6_lstm1_unit_6_1_split
I0602 10:01:20.708575 24007 net.cpp:131] Top shape: 1 1 100 (100)
I0602 10:01:20.708581 24007 net.cpp:131] Top shape: 1 1 100 (100)
I0602 10:01:20.708585 24007 net.cpp:139] Memory required for data: 264560
I0602 10:01:20.708590 24007 layer_factory.hpp:77] Creating layer lstm1_h_conted_6
I0602 10:01:20.708596 24007 net.cpp:86] Creating Layer lstm1_h_conted_6
I0602 10:01:20.708603 24007 net.cpp:408] lstm1_h_conted_6 <- h_6_lstm1_unit_6_1_split_0
I0602 10:01:20.708611 24007 net.cpp:408] lstm1_h_conted_6 <- cont_7_lstm1_cont_slice_6_split_0
I0602 10:01:20.708621 24007 net.cpp:382] lstm1_h_conted_6 -> h_conted_6
I0602 10:01:20.708634 24007 net.cpp:124] Setting up lstm1_h_conted_6
I0602 10:01:20.708640 24007 net.cpp:131] Top shape: 1 1 100 (100)
I0602 10:01:20.708645 24007 net.cpp:139] Memory required for data: 264960
I0602 10:01:20.708650 24007 layer_factory.hpp:77] Creating layer lstm1_transform_7
I0602 10:01:20.708657 24007 net.cpp:86] Creating Layer lstm1_transform_7
I0602 10:01:20.708662 24007 net.cpp:408] lstm1_transform_7 <- h_conted_6
I0602 10:01:20.708672 24007 net.cpp:382] lstm1_transform_7 -> W_hc_h_6
I0602 10:01:20.708982 24007 net.cpp:124] Setting up lstm1_transform_7
I0602 10:01:20.708989 24007 net.cpp:131] Top shape: 1 1 400 (400)
I0602 10:01:20.708995 24007 net.cpp:139] Memory required for data: 266560
I0602 10:01:20.709000 24007 net.cpp:467] Sharing parameters 'W_hc' owned by layer 'lstm1_transform_1', param index 0
I0602 10:01:20.709007 24007 layer_factory.hpp:77] Creating layer lstm1_gate_input_7
I0602 10:01:20.709015 24007 net.cpp:86] Creating Layer lstm1_gate_input_7
I0602 10:01:20.709022 24007 net.cpp:408] lstm1_gate_input_7 <- W_hc_h_6
I0602 10:01:20.709028 24007 net.cpp:408] lstm1_gate_input_7 <- W_xc_x_7
I0602 10:01:20.709033 24007 net.cpp:382] lstm1_gate_input_7 -> gate_input_7
I0602 10:01:20.709041 24007 net.cpp:124] Setting up lstm1_gate_input_7
I0602 10:01:20.709046 24007 net.cpp:131] Top shape: 1 1 400 (400)
I0602 10:01:20.709051 24007 net.cpp:139] Memory required for data: 268160
I0602 10:01:20.709058 24007 layer_factory.hpp:77] Creating layer lstm1_unit_7
I0602 10:01:20.709064 24007 net.cpp:86] Creating Layer lstm1_unit_7
I0602 10:01:20.709069 24007 net.cpp:408] lstm1_unit_7 <- c_6
I0602 10:01:20.709074 24007 net.cpp:408] lstm1_unit_7 <- gate_input_7
I0602 10:01:20.709080 24007 net.cpp:408] lstm1_unit_7 <- cont_7_lstm1_cont_slice_6_split_1
I0602 10:01:20.709086 24007 net.cpp:382] lstm1_unit_7 -> c_7
I0602 10:01:20.709094 24007 net.cpp:382] lstm1_unit_7 -> h_7
I0602 10:01:20.709101 24007 net.cpp:124] Setting up lstm1_unit_7
I0602 10:01:20.709107 24007 net.cpp:131] Top shape: 1 1 100 (100)
I0602 10:01:20.709113 24007 net.cpp:131] Top shape: 1 1 100 (100)
I0602 10:01:20.709117 24007 net.cpp:139] Memory required for data: 268960
I0602 10:01:20.709122 24007 layer_factory.hpp:77] Creating layer h_7_lstm1_unit_7_1_split
I0602 10:01:20.709128 24007 net.cpp:86] Creating Layer h_7_lstm1_unit_7_1_split
I0602 10:01:20.709132 24007 net.cpp:408] h_7_lstm1_unit_7_1_split <- h_7
I0602 10:01:20.709139 24007 net.cpp:382] h_7_lstm1_unit_7_1_split -> h_7_lstm1_unit_7_1_split_0
I0602 10:01:20.709146 24007 net.cpp:382] h_7_lstm1_unit_7_1_split -> h_7_lstm1_unit_7_1_split_1
I0602 10:01:20.709153 24007 net.cpp:124] Setting up h_7_lstm1_unit_7_1_split
I0602 10:01:20.709159 24007 net.cpp:131] Top shape: 1 1 100 (100)
I0602 10:01:20.709164 24007 net.cpp:131] Top shape: 1 1 100 (100)
I0602 10:01:20.709170 24007 net.cpp:139] Memory required for data: 269760
I0602 10:01:20.709174 24007 layer_factory.hpp:77] Creating layer lstm1_h_conted_7
I0602 10:01:20.709182 24007 net.cpp:86] Creating Layer lstm1_h_conted_7
I0602 10:01:20.709187 24007 net.cpp:408] lstm1_h_conted_7 <- h_7_lstm1_unit_7_1_split_0
I0602 10:01:20.709192 24007 net.cpp:408] lstm1_h_conted_7 <- cont_8_lstm1_cont_slice_7_split_0
I0602 10:01:20.709198 24007 net.cpp:382] lstm1_h_conted_7 -> h_conted_7
I0602 10:01:20.709208 24007 net.cpp:124] Setting up lstm1_h_conted_7
I0602 10:01:20.709213 24007 net.cpp:131] Top shape: 1 1 100 (100)
I0602 10:01:20.709218 24007 net.cpp:139] Memory required for data: 270160
I0602 10:01:20.709223 24007 layer_factory.hpp:77] Creating layer lstm1_transform_8
I0602 10:01:20.709230 24007 net.cpp:86] Creating Layer lstm1_transform_8
I0602 10:01:20.709235 24007 net.cpp:408] lstm1_transform_8 <- h_conted_7
I0602 10:01:20.709244 24007 net.cpp:382] lstm1_transform_8 -> W_hc_h_7
I0602 10:01:20.709555 24007 net.cpp:124] Setting up lstm1_transform_8
I0602 10:01:20.709563 24007 net.cpp:131] Top shape: 1 1 400 (400)
I0602 10:01:20.709568 24007 net.cpp:139] Memory required for data: 271760
I0602 10:01:20.709575 24007 net.cpp:467] Sharing parameters 'W_hc' owned by layer 'lstm1_transform_1', param index 0
I0602 10:01:20.709584 24007 layer_factory.hpp:77] Creating layer lstm1_gate_input_8
I0602 10:01:20.709595 24007 net.cpp:86] Creating Layer lstm1_gate_input_8
I0602 10:01:20.709600 24007 net.cpp:408] lstm1_gate_input_8 <- W_hc_h_7
I0602 10:01:20.709606 24007 net.cpp:408] lstm1_gate_input_8 <- W_xc_x_8
I0602 10:01:20.709612 24007 net.cpp:382] lstm1_gate_input_8 -> gate_input_8
I0602 10:01:20.709619 24007 net.cpp:124] Setting up lstm1_gate_input_8
I0602 10:01:20.709626 24007 net.cpp:131] Top shape: 1 1 400 (400)
I0602 10:01:20.709631 24007 net.cpp:139] Memory required for data: 273360
I0602 10:01:20.709636 24007 layer_factory.hpp:77] Creating layer lstm1_unit_8
I0602 10:01:20.709642 24007 net.cpp:86] Creating Layer lstm1_unit_8
I0602 10:01:20.709650 24007 net.cpp:408] lstm1_unit_8 <- c_7
I0602 10:01:20.709656 24007 net.cpp:408] lstm1_unit_8 <- gate_input_8
I0602 10:01:20.709661 24007 net.cpp:408] lstm1_unit_8 <- cont_8_lstm1_cont_slice_7_split_1
I0602 10:01:20.709667 24007 net.cpp:382] lstm1_unit_8 -> c_8
I0602 10:01:20.709673 24007 net.cpp:382] lstm1_unit_8 -> h_8
I0602 10:01:20.709681 24007 net.cpp:124] Setting up lstm1_unit_8
I0602 10:01:20.709687 24007 net.cpp:131] Top shape: 1 1 100 (100)
I0602 10:01:20.709692 24007 net.cpp:131] Top shape: 1 1 100 (100)
I0602 10:01:20.709697 24007 net.cpp:139] Memory required for data: 274160
I0602 10:01:20.709702 24007 layer_factory.hpp:77] Creating layer h_8_lstm1_unit_8_1_split
I0602 10:01:20.709708 24007 net.cpp:86] Creating Layer h_8_lstm1_unit_8_1_split
I0602 10:01:20.709714 24007 net.cpp:408] h_8_lstm1_unit_8_1_split <- h_8
I0602 10:01:20.709720 24007 net.cpp:382] h_8_lstm1_unit_8_1_split -> h_8_lstm1_unit_8_1_split_0
I0602 10:01:20.709728 24007 net.cpp:382] h_8_lstm1_unit_8_1_split -> h_8_lstm1_unit_8_1_split_1
I0602 10:01:20.709734 24007 net.cpp:124] Setting up h_8_lstm1_unit_8_1_split
I0602 10:01:20.709741 24007 net.cpp:131] Top shape: 1 1 100 (100)
I0602 10:01:20.709746 24007 net.cpp:131] Top shape: 1 1 100 (100)
I0602 10:01:20.709750 24007 net.cpp:139] Memory required for data: 274960
I0602 10:01:20.709755 24007 layer_factory.hpp:77] Creating layer lstm1_h_conted_8
I0602 10:01:20.709761 24007 net.cpp:86] Creating Layer lstm1_h_conted_8
I0602 10:01:20.709766 24007 net.cpp:408] lstm1_h_conted_8 <- h_8_lstm1_unit_8_1_split_0
I0602 10:01:20.709772 24007 net.cpp:408] lstm1_h_conted_8 <- cont_9_lstm1_cont_slice_8_split_0
I0602 10:01:20.709779 24007 net.cpp:382] lstm1_h_conted_8 -> h_conted_8
I0602 10:01:20.709789 24007 net.cpp:124] Setting up lstm1_h_conted_8
I0602 10:01:20.709795 24007 net.cpp:131] Top shape: 1 1 100 (100)
I0602 10:01:20.709800 24007 net.cpp:139] Memory required for data: 275360
I0602 10:01:20.709805 24007 layer_factory.hpp:77] Creating layer lstm1_transform_9
I0602 10:01:20.709810 24007 net.cpp:86] Creating Layer lstm1_transform_9
I0602 10:01:20.709815 24007 net.cpp:408] lstm1_transform_9 <- h_conted_8
I0602 10:01:20.709821 24007 net.cpp:382] lstm1_transform_9 -> W_hc_h_8
I0602 10:01:20.710132 24007 net.cpp:124] Setting up lstm1_transform_9
I0602 10:01:20.710141 24007 net.cpp:131] Top shape: 1 1 400 (400)
I0602 10:01:20.710145 24007 net.cpp:139] Memory required for data: 276960
I0602 10:01:20.710150 24007 net.cpp:467] Sharing parameters 'W_hc' owned by layer 'lstm1_transform_1', param index 0
I0602 10:01:20.710156 24007 layer_factory.hpp:77] Creating layer lstm1_gate_input_9
I0602 10:01:20.710162 24007 net.cpp:86] Creating Layer lstm1_gate_input_9
I0602 10:01:20.710170 24007 net.cpp:408] lstm1_gate_input_9 <- W_hc_h_8
I0602 10:01:20.710175 24007 net.cpp:408] lstm1_gate_input_9 <- W_xc_x_9
I0602 10:01:20.710180 24007 net.cpp:382] lstm1_gate_input_9 -> gate_input_9
I0602 10:01:20.710188 24007 net.cpp:124] Setting up lstm1_gate_input_9
I0602 10:01:20.710194 24007 net.cpp:131] Top shape: 1 1 400 (400)
I0602 10:01:20.710199 24007 net.cpp:139] Memory required for data: 278560
I0602 10:01:20.710203 24007 layer_factory.hpp:77] Creating layer lstm1_unit_9
I0602 10:01:20.710212 24007 net.cpp:86] Creating Layer lstm1_unit_9
I0602 10:01:20.710222 24007 net.cpp:408] lstm1_unit_9 <- c_8
I0602 10:01:20.710227 24007 net.cpp:408] lstm1_unit_9 <- gate_input_9
I0602 10:01:20.710232 24007 net.cpp:408] lstm1_unit_9 <- cont_9_lstm1_cont_slice_8_split_1
I0602 10:01:20.710239 24007 net.cpp:382] lstm1_unit_9 -> c_9
I0602 10:01:20.710247 24007 net.cpp:382] lstm1_unit_9 -> h_9
I0602 10:01:20.710254 24007 net.cpp:124] Setting up lstm1_unit_9
I0602 10:01:20.710260 24007 net.cpp:131] Top shape: 1 1 100 (100)
I0602 10:01:20.710264 24007 net.cpp:131] Top shape: 1 1 100 (100)
I0602 10:01:20.710270 24007 net.cpp:139] Memory required for data: 279360
I0602 10:01:20.710275 24007 layer_factory.hpp:77] Creating layer h_9_lstm1_unit_9_1_split
I0602 10:01:20.710283 24007 net.cpp:86] Creating Layer h_9_lstm1_unit_9_1_split
I0602 10:01:20.710289 24007 net.cpp:408] h_9_lstm1_unit_9_1_split <- h_9
I0602 10:01:20.710295 24007 net.cpp:382] h_9_lstm1_unit_9_1_split -> h_9_lstm1_unit_9_1_split_0
I0602 10:01:20.710302 24007 net.cpp:382] h_9_lstm1_unit_9_1_split -> h_9_lstm1_unit_9_1_split_1
I0602 10:01:20.710309 24007 net.cpp:124] Setting up h_9_lstm1_unit_9_1_split
I0602 10:01:20.710315 24007 net.cpp:131] Top shape: 1 1 100 (100)
I0602 10:01:20.710322 24007 net.cpp:131] Top shape: 1 1 100 (100)
I0602 10:01:20.710327 24007 net.cpp:139] Memory required for data: 280160
I0602 10:01:20.710332 24007 layer_factory.hpp:77] Creating layer lstm1_h_conted_9
I0602 10:01:20.710340 24007 net.cpp:86] Creating Layer lstm1_h_conted_9
I0602 10:01:20.710345 24007 net.cpp:408] lstm1_h_conted_9 <- h_9_lstm1_unit_9_1_split_0
I0602 10:01:20.710350 24007 net.cpp:408] lstm1_h_conted_9 <- cont_10_lstm1_cont_slice_9_split_0
I0602 10:01:20.710357 24007 net.cpp:382] lstm1_h_conted_9 -> h_conted_9
I0602 10:01:20.710369 24007 net.cpp:124] Setting up lstm1_h_conted_9
I0602 10:01:20.710377 24007 net.cpp:131] Top shape: 1 1 100 (100)
I0602 10:01:20.710383 24007 net.cpp:139] Memory required for data: 280560
I0602 10:01:20.710388 24007 layer_factory.hpp:77] Creating layer lstm1_transform_10
I0602 10:01:20.710397 24007 net.cpp:86] Creating Layer lstm1_transform_10
I0602 10:01:20.710400 24007 net.cpp:408] lstm1_transform_10 <- h_conted_9
I0602 10:01:20.710408 24007 net.cpp:382] lstm1_transform_10 -> W_hc_h_9
I0602 10:01:20.710721 24007 net.cpp:124] Setting up lstm1_transform_10
I0602 10:01:20.710727 24007 net.cpp:131] Top shape: 1 1 400 (400)
I0602 10:01:20.710732 24007 net.cpp:139] Memory required for data: 282160
I0602 10:01:20.710737 24007 net.cpp:467] Sharing parameters 'W_hc' owned by layer 'lstm1_transform_1', param index 0
I0602 10:01:20.710743 24007 layer_factory.hpp:77] Creating layer lstm1_gate_input_10
I0602 10:01:20.710752 24007 net.cpp:86] Creating Layer lstm1_gate_input_10
I0602 10:01:20.710757 24007 net.cpp:408] lstm1_gate_input_10 <- W_hc_h_9
I0602 10:01:20.710763 24007 net.cpp:408] lstm1_gate_input_10 <- W_xc_x_10
I0602 10:01:20.710769 24007 net.cpp:382] lstm1_gate_input_10 -> gate_input_10
I0602 10:01:20.710777 24007 net.cpp:124] Setting up lstm1_gate_input_10
I0602 10:01:20.710783 24007 net.cpp:131] Top shape: 1 1 400 (400)
I0602 10:01:20.710789 24007 net.cpp:139] Memory required for data: 283760
I0602 10:01:20.710793 24007 layer_factory.hpp:77] Creating layer lstm1_unit_10
I0602 10:01:20.710800 24007 net.cpp:86] Creating Layer lstm1_unit_10
I0602 10:01:20.710804 24007 net.cpp:408] lstm1_unit_10 <- c_9
I0602 10:01:20.710810 24007 net.cpp:408] lstm1_unit_10 <- gate_input_10
I0602 10:01:20.710816 24007 net.cpp:408] lstm1_unit_10 <- cont_10_lstm1_cont_slice_9_split_1
I0602 10:01:20.710822 24007 net.cpp:382] lstm1_unit_10 -> c_10
I0602 10:01:20.710829 24007 net.cpp:382] lstm1_unit_10 -> h_10
I0602 10:01:20.710836 24007 net.cpp:124] Setting up lstm1_unit_10
I0602 10:01:20.710842 24007 net.cpp:131] Top shape: 1 1 100 (100)
I0602 10:01:20.710847 24007 net.cpp:131] Top shape: 1 1 100 (100)
I0602 10:01:20.710853 24007 net.cpp:139] Memory required for data: 284560
I0602 10:01:20.710858 24007 layer_factory.hpp:77] Creating layer h_10_lstm1_unit_10_1_split
I0602 10:01:20.710871 24007 net.cpp:86] Creating Layer h_10_lstm1_unit_10_1_split
I0602 10:01:20.710877 24007 net.cpp:408] h_10_lstm1_unit_10_1_split <- h_10
I0602 10:01:20.710887 24007 net.cpp:382] h_10_lstm1_unit_10_1_split -> h_10_lstm1_unit_10_1_split_0
I0602 10:01:20.710894 24007 net.cpp:382] h_10_lstm1_unit_10_1_split -> h_10_lstm1_unit_10_1_split_1
I0602 10:01:20.710902 24007 net.cpp:124] Setting up h_10_lstm1_unit_10_1_split
I0602 10:01:20.710908 24007 net.cpp:131] Top shape: 1 1 100 (100)
I0602 10:01:20.710914 24007 net.cpp:131] Top shape: 1 1 100 (100)
I0602 10:01:20.710919 24007 net.cpp:139] Memory required for data: 285360
I0602 10:01:20.710923 24007 layer_factory.hpp:77] Creating layer lstm1_h_conted_10
I0602 10:01:20.710929 24007 net.cpp:86] Creating Layer lstm1_h_conted_10
I0602 10:01:20.710934 24007 net.cpp:408] lstm1_h_conted_10 <- h_10_lstm1_unit_10_1_split_0
I0602 10:01:20.710940 24007 net.cpp:408] lstm1_h_conted_10 <- cont_11_lstm1_cont_slice_10_split_0
I0602 10:01:20.710947 24007 net.cpp:382] lstm1_h_conted_10 -> h_conted_10
I0602 10:01:20.710957 24007 net.cpp:124] Setting up lstm1_h_conted_10
I0602 10:01:20.710963 24007 net.cpp:131] Top shape: 1 1 100 (100)
I0602 10:01:20.710968 24007 net.cpp:139] Memory required for data: 285760
I0602 10:01:20.710974 24007 layer_factory.hpp:77] Creating layer lstm1_transform_11
I0602 10:01:20.710981 24007 net.cpp:86] Creating Layer lstm1_transform_11
I0602 10:01:20.710988 24007 net.cpp:408] lstm1_transform_11 <- h_conted_10
I0602 10:01:20.710994 24007 net.cpp:382] lstm1_transform_11 -> W_hc_h_10
I0602 10:01:20.711304 24007 net.cpp:124] Setting up lstm1_transform_11
I0602 10:01:20.711313 24007 net.cpp:131] Top shape: 1 1 400 (400)
I0602 10:01:20.711318 24007 net.cpp:139] Memory required for data: 287360
I0602 10:01:20.711323 24007 net.cpp:467] Sharing parameters 'W_hc' owned by layer 'lstm1_transform_1', param index 0
I0602 10:01:20.711328 24007 layer_factory.hpp:77] Creating layer lstm1_gate_input_11
I0602 10:01:20.711336 24007 net.cpp:86] Creating Layer lstm1_gate_input_11
I0602 10:01:20.711341 24007 net.cpp:408] lstm1_gate_input_11 <- W_hc_h_10
I0602 10:01:20.711347 24007 net.cpp:408] lstm1_gate_input_11 <- W_xc_x_11
I0602 10:01:20.711354 24007 net.cpp:382] lstm1_gate_input_11 -> gate_input_11
I0602 10:01:20.711360 24007 net.cpp:124] Setting up lstm1_gate_input_11
I0602 10:01:20.711367 24007 net.cpp:131] Top shape: 1 1 400 (400)
I0602 10:01:20.711371 24007 net.cpp:139] Memory required for data: 288960
I0602 10:01:20.711376 24007 layer_factory.hpp:77] Creating layer lstm1_unit_11
I0602 10:01:20.711382 24007 net.cpp:86] Creating Layer lstm1_unit_11
I0602 10:01:20.711387 24007 net.cpp:408] lstm1_unit_11 <- c_10
I0602 10:01:20.711395 24007 net.cpp:408] lstm1_unit_11 <- gate_input_11
I0602 10:01:20.711400 24007 net.cpp:408] lstm1_unit_11 <- cont_11_lstm1_cont_slice_10_split_1
I0602 10:01:20.711406 24007 net.cpp:382] lstm1_unit_11 -> c_11
I0602 10:01:20.711413 24007 net.cpp:382] lstm1_unit_11 -> h_11
I0602 10:01:20.711421 24007 net.cpp:124] Setting up lstm1_unit_11
I0602 10:01:20.711427 24007 net.cpp:131] Top shape: 1 1 100 (100)
I0602 10:01:20.711434 24007 net.cpp:131] Top shape: 1 1 100 (100)
I0602 10:01:20.711438 24007 net.cpp:139] Memory required for data: 289760
I0602 10:01:20.711443 24007 layer_factory.hpp:77] Creating layer h_11_lstm1_unit_11_1_split
I0602 10:01:20.711449 24007 net.cpp:86] Creating Layer h_11_lstm1_unit_11_1_split
I0602 10:01:20.711454 24007 net.cpp:408] h_11_lstm1_unit_11_1_split <- h_11
I0602 10:01:20.711460 24007 net.cpp:382] h_11_lstm1_unit_11_1_split -> h_11_lstm1_unit_11_1_split_0
I0602 10:01:20.711467 24007 net.cpp:382] h_11_lstm1_unit_11_1_split -> h_11_lstm1_unit_11_1_split_1
I0602 10:01:20.711473 24007 net.cpp:124] Setting up h_11_lstm1_unit_11_1_split
I0602 10:01:20.711479 24007 net.cpp:131] Top shape: 1 1 100 (100)
I0602 10:01:20.711484 24007 net.cpp:131] Top shape: 1 1 100 (100)
I0602 10:01:20.711489 24007 net.cpp:139] Memory required for data: 290560
I0602 10:01:20.711494 24007 layer_factory.hpp:77] Creating layer lstm1_h_conted_11
I0602 10:01:20.711508 24007 net.cpp:86] Creating Layer lstm1_h_conted_11
I0602 10:01:20.711514 24007 net.cpp:408] lstm1_h_conted_11 <- h_11_lstm1_unit_11_1_split_0
I0602 10:01:20.711520 24007 net.cpp:408] lstm1_h_conted_11 <- cont_12_lstm1_cont_slice_11_split_0
I0602 10:01:20.711529 24007 net.cpp:382] lstm1_h_conted_11 -> h_conted_11
I0602 10:01:20.711537 24007 net.cpp:124] Setting up lstm1_h_conted_11
I0602 10:01:20.711544 24007 net.cpp:131] Top shape: 1 1 100 (100)
I0602 10:01:20.711547 24007 net.cpp:139] Memory required for data: 290960
I0602 10:01:20.711552 24007 layer_factory.hpp:77] Creating layer lstm1_transform_12
I0602 10:01:20.711560 24007 net.cpp:86] Creating Layer lstm1_transform_12
I0602 10:01:20.711565 24007 net.cpp:408] lstm1_transform_12 <- h_conted_11
I0602 10:01:20.711572 24007 net.cpp:382] lstm1_transform_12 -> W_hc_h_11
I0602 10:01:20.711902 24007 net.cpp:124] Setting up lstm1_transform_12
I0602 10:01:20.711912 24007 net.cpp:131] Top shape: 1 1 400 (400)
I0602 10:01:20.711917 24007 net.cpp:139] Memory required for data: 292560
I0602 10:01:20.711922 24007 net.cpp:467] Sharing parameters 'W_hc' owned by layer 'lstm1_transform_1', param index 0
I0602 10:01:20.711927 24007 layer_factory.hpp:77] Creating layer lstm1_gate_input_12
I0602 10:01:20.711935 24007 net.cpp:86] Creating Layer lstm1_gate_input_12
I0602 10:01:20.711941 24007 net.cpp:408] lstm1_gate_input_12 <- W_hc_h_11
I0602 10:01:20.711947 24007 net.cpp:408] lstm1_gate_input_12 <- W_xc_x_12
I0602 10:01:20.711956 24007 net.cpp:382] lstm1_gate_input_12 -> gate_input_12
I0602 10:01:20.711964 24007 net.cpp:124] Setting up lstm1_gate_input_12
I0602 10:01:20.711971 24007 net.cpp:131] Top shape: 1 1 400 (400)
I0602 10:01:20.711976 24007 net.cpp:139] Memory required for data: 294160
I0602 10:01:20.711980 24007 layer_factory.hpp:77] Creating layer lstm1_unit_12
I0602 10:01:20.711987 24007 net.cpp:86] Creating Layer lstm1_unit_12
I0602 10:01:20.711993 24007 net.cpp:408] lstm1_unit_12 <- c_11
I0602 10:01:20.711999 24007 net.cpp:408] lstm1_unit_12 <- gate_input_12
I0602 10:01:20.712005 24007 net.cpp:408] lstm1_unit_12 <- cont_12_lstm1_cont_slice_11_split_1
I0602 10:01:20.712011 24007 net.cpp:382] lstm1_unit_12 -> c_12
I0602 10:01:20.712018 24007 net.cpp:382] lstm1_unit_12 -> h_12
I0602 10:01:20.712028 24007 net.cpp:124] Setting up lstm1_unit_12
I0602 10:01:20.712033 24007 net.cpp:131] Top shape: 1 1 100 (100)
I0602 10:01:20.712038 24007 net.cpp:131] Top shape: 1 1 100 (100)
I0602 10:01:20.712043 24007 net.cpp:139] Memory required for data: 294960
I0602 10:01:20.712046 24007 layer_factory.hpp:77] Creating layer h_12_lstm1_unit_12_1_split
I0602 10:01:20.712052 24007 net.cpp:86] Creating Layer h_12_lstm1_unit_12_1_split
I0602 10:01:20.712057 24007 net.cpp:408] h_12_lstm1_unit_12_1_split <- h_12
I0602 10:01:20.712064 24007 net.cpp:382] h_12_lstm1_unit_12_1_split -> h_12_lstm1_unit_12_1_split_0
I0602 10:01:20.712071 24007 net.cpp:382] h_12_lstm1_unit_12_1_split -> h_12_lstm1_unit_12_1_split_1
I0602 10:01:20.712077 24007 net.cpp:124] Setting up h_12_lstm1_unit_12_1_split
I0602 10:01:20.712085 24007 net.cpp:131] Top shape: 1 1 100 (100)
I0602 10:01:20.712090 24007 net.cpp:131] Top shape: 1 1 100 (100)
I0602 10:01:20.712095 24007 net.cpp:139] Memory required for data: 295760
I0602 10:01:20.712098 24007 layer_factory.hpp:77] Creating layer lstm1_h_conted_12
I0602 10:01:20.712105 24007 net.cpp:86] Creating Layer lstm1_h_conted_12
I0602 10:01:20.712110 24007 net.cpp:408] lstm1_h_conted_12 <- h_12_lstm1_unit_12_1_split_0
I0602 10:01:20.712116 24007 net.cpp:408] lstm1_h_conted_12 <- cont_13_lstm1_cont_slice_12_split_0
I0602 10:01:20.712121 24007 net.cpp:382] lstm1_h_conted_12 -> h_conted_12
I0602 10:01:20.712131 24007 net.cpp:124] Setting up lstm1_h_conted_12
I0602 10:01:20.712137 24007 net.cpp:131] Top shape: 1 1 100 (100)
I0602 10:01:20.712141 24007 net.cpp:139] Memory required for data: 296160
I0602 10:01:20.712146 24007 layer_factory.hpp:77] Creating layer lstm1_transform_13
I0602 10:01:20.712154 24007 net.cpp:86] Creating Layer lstm1_transform_13
I0602 10:01:20.712162 24007 net.cpp:408] lstm1_transform_13 <- h_conted_12
I0602 10:01:20.712173 24007 net.cpp:382] lstm1_transform_13 -> W_hc_h_12
I0602 10:01:20.712488 24007 net.cpp:124] Setting up lstm1_transform_13
I0602 10:01:20.712496 24007 net.cpp:131] Top shape: 1 1 400 (400)
I0602 10:01:20.712502 24007 net.cpp:139] Memory required for data: 297760
I0602 10:01:20.712507 24007 net.cpp:467] Sharing parameters 'W_hc' owned by layer 'lstm1_transform_1', param index 0
I0602 10:01:20.712510 24007 layer_factory.hpp:77] Creating layer lstm1_gate_input_13
I0602 10:01:20.712517 24007 net.cpp:86] Creating Layer lstm1_gate_input_13
I0602 10:01:20.712524 24007 net.cpp:408] lstm1_gate_input_13 <- W_hc_h_12
I0602 10:01:20.712529 24007 net.cpp:408] lstm1_gate_input_13 <- W_xc_x_13
I0602 10:01:20.712538 24007 net.cpp:382] lstm1_gate_input_13 -> gate_input_13
I0602 10:01:20.712545 24007 net.cpp:124] Setting up lstm1_gate_input_13
I0602 10:01:20.712551 24007 net.cpp:131] Top shape: 1 1 400 (400)
I0602 10:01:20.712555 24007 net.cpp:139] Memory required for data: 299360
I0602 10:01:20.712559 24007 layer_factory.hpp:77] Creating layer lstm1_unit_13
I0602 10:01:20.712565 24007 net.cpp:86] Creating Layer lstm1_unit_13
I0602 10:01:20.712570 24007 net.cpp:408] lstm1_unit_13 <- c_12
I0602 10:01:20.712575 24007 net.cpp:408] lstm1_unit_13 <- gate_input_13
I0602 10:01:20.712581 24007 net.cpp:408] lstm1_unit_13 <- cont_13_lstm1_cont_slice_12_split_1
I0602 10:01:20.712586 24007 net.cpp:382] lstm1_unit_13 -> c_13
I0602 10:01:20.712594 24007 net.cpp:382] lstm1_unit_13 -> h_13
I0602 10:01:20.712602 24007 net.cpp:124] Setting up lstm1_unit_13
I0602 10:01:20.712608 24007 net.cpp:131] Top shape: 1 1 100 (100)
I0602 10:01:20.712613 24007 net.cpp:131] Top shape: 1 1 100 (100)
I0602 10:01:20.712617 24007 net.cpp:139] Memory required for data: 300160
I0602 10:01:20.712623 24007 layer_factory.hpp:77] Creating layer h_13_lstm1_unit_13_1_split
I0602 10:01:20.712630 24007 net.cpp:86] Creating Layer h_13_lstm1_unit_13_1_split
I0602 10:01:20.712635 24007 net.cpp:408] h_13_lstm1_unit_13_1_split <- h_13
I0602 10:01:20.712641 24007 net.cpp:382] h_13_lstm1_unit_13_1_split -> h_13_lstm1_unit_13_1_split_0
I0602 10:01:20.712648 24007 net.cpp:382] h_13_lstm1_unit_13_1_split -> h_13_lstm1_unit_13_1_split_1
I0602 10:01:20.712656 24007 net.cpp:124] Setting up h_13_lstm1_unit_13_1_split
I0602 10:01:20.712662 24007 net.cpp:131] Top shape: 1 1 100 (100)
I0602 10:01:20.712668 24007 net.cpp:131] Top shape: 1 1 100 (100)
I0602 10:01:20.712673 24007 net.cpp:139] Memory required for data: 300960
I0602 10:01:20.712678 24007 layer_factory.hpp:77] Creating layer lstm1_h_conted_13
I0602 10:01:20.712687 24007 net.cpp:86] Creating Layer lstm1_h_conted_13
I0602 10:01:20.712692 24007 net.cpp:408] lstm1_h_conted_13 <- h_13_lstm1_unit_13_1_split_0
I0602 10:01:20.712697 24007 net.cpp:408] lstm1_h_conted_13 <- cont_14_lstm1_cont_slice_13_split_0
I0602 10:01:20.712703 24007 net.cpp:382] lstm1_h_conted_13 -> h_conted_13
I0602 10:01:20.712713 24007 net.cpp:124] Setting up lstm1_h_conted_13
I0602 10:01:20.712720 24007 net.cpp:131] Top shape: 1 1 100 (100)
I0602 10:01:20.712724 24007 net.cpp:139] Memory required for data: 301360
I0602 10:01:20.712729 24007 layer_factory.hpp:77] Creating layer lstm1_transform_14
I0602 10:01:20.712736 24007 net.cpp:86] Creating Layer lstm1_transform_14
I0602 10:01:20.712741 24007 net.cpp:408] lstm1_transform_14 <- h_conted_13
I0602 10:01:20.712749 24007 net.cpp:382] lstm1_transform_14 -> W_hc_h_13
I0602 10:01:20.713059 24007 net.cpp:124] Setting up lstm1_transform_14
I0602 10:01:20.713069 24007 net.cpp:131] Top shape: 1 1 400 (400)
I0602 10:01:20.713074 24007 net.cpp:139] Memory required for data: 302960
I0602 10:01:20.713080 24007 net.cpp:467] Sharing parameters 'W_hc' owned by layer 'lstm1_transform_1', param index 0
I0602 10:01:20.713084 24007 layer_factory.hpp:77] Creating layer lstm1_gate_input_14
I0602 10:01:20.713090 24007 net.cpp:86] Creating Layer lstm1_gate_input_14
I0602 10:01:20.713095 24007 net.cpp:408] lstm1_gate_input_14 <- W_hc_h_13
I0602 10:01:20.713105 24007 net.cpp:408] lstm1_gate_input_14 <- W_xc_x_14
I0602 10:01:20.713116 24007 net.cpp:382] lstm1_gate_input_14 -> gate_input_14
I0602 10:01:20.713125 24007 net.cpp:124] Setting up lstm1_gate_input_14
I0602 10:01:20.713130 24007 net.cpp:131] Top shape: 1 1 400 (400)
I0602 10:01:20.713136 24007 net.cpp:139] Memory required for data: 304560
I0602 10:01:20.713141 24007 layer_factory.hpp:77] Creating layer lstm1_unit_14
I0602 10:01:20.713148 24007 net.cpp:86] Creating Layer lstm1_unit_14
I0602 10:01:20.713155 24007 net.cpp:408] lstm1_unit_14 <- c_13
I0602 10:01:20.713160 24007 net.cpp:408] lstm1_unit_14 <- gate_input_14
I0602 10:01:20.713165 24007 net.cpp:408] lstm1_unit_14 <- cont_14_lstm1_cont_slice_13_split_1
I0602 10:01:20.713171 24007 net.cpp:382] lstm1_unit_14 -> c_14
I0602 10:01:20.713178 24007 net.cpp:382] lstm1_unit_14 -> h_14
I0602 10:01:20.713186 24007 net.cpp:124] Setting up lstm1_unit_14
I0602 10:01:20.713192 24007 net.cpp:131] Top shape: 1 1 100 (100)
I0602 10:01:20.713197 24007 net.cpp:131] Top shape: 1 1 100 (100)
I0602 10:01:20.713202 24007 net.cpp:139] Memory required for data: 305360
I0602 10:01:20.713207 24007 layer_factory.hpp:77] Creating layer h_14_lstm1_unit_14_1_split
I0602 10:01:20.713213 24007 net.cpp:86] Creating Layer h_14_lstm1_unit_14_1_split
I0602 10:01:20.713218 24007 net.cpp:408] h_14_lstm1_unit_14_1_split <- h_14
I0602 10:01:20.713223 24007 net.cpp:382] h_14_lstm1_unit_14_1_split -> h_14_lstm1_unit_14_1_split_0
I0602 10:01:20.713232 24007 net.cpp:382] h_14_lstm1_unit_14_1_split -> h_14_lstm1_unit_14_1_split_1
I0602 10:01:20.713239 24007 net.cpp:124] Setting up h_14_lstm1_unit_14_1_split
I0602 10:01:20.713244 24007 net.cpp:131] Top shape: 1 1 100 (100)
I0602 10:01:20.713250 24007 net.cpp:131] Top shape: 1 1 100 (100)
I0602 10:01:20.713254 24007 net.cpp:139] Memory required for data: 306160
I0602 10:01:20.713259 24007 layer_factory.hpp:77] Creating layer lstm1_h_conted_14
I0602 10:01:20.713266 24007 net.cpp:86] Creating Layer lstm1_h_conted_14
I0602 10:01:20.713273 24007 net.cpp:408] lstm1_h_conted_14 <- h_14_lstm1_unit_14_1_split_0
I0602 10:01:20.713277 24007 net.cpp:408] lstm1_h_conted_14 <- cont_15_lstm1_cont_slice_14_split_0
I0602 10:01:20.713284 24007 net.cpp:382] lstm1_h_conted_14 -> h_conted_14
I0602 10:01:20.713292 24007 net.cpp:124] Setting up lstm1_h_conted_14
I0602 10:01:20.713299 24007 net.cpp:131] Top shape: 1 1 100 (100)
I0602 10:01:20.713302 24007 net.cpp:139] Memory required for data: 306560
I0602 10:01:20.713307 24007 layer_factory.hpp:77] Creating layer lstm1_transform_15
I0602 10:01:20.713315 24007 net.cpp:86] Creating Layer lstm1_transform_15
I0602 10:01:20.713320 24007 net.cpp:408] lstm1_transform_15 <- h_conted_14
I0602 10:01:20.713327 24007 net.cpp:382] lstm1_transform_15 -> W_hc_h_14
I0602 10:01:20.713639 24007 net.cpp:124] Setting up lstm1_transform_15
I0602 10:01:20.713647 24007 net.cpp:131] Top shape: 1 1 400 (400)
I0602 10:01:20.713652 24007 net.cpp:139] Memory required for data: 308160
I0602 10:01:20.713659 24007 net.cpp:467] Sharing parameters 'W_hc' owned by layer 'lstm1_transform_1', param index 0
I0602 10:01:20.713665 24007 layer_factory.hpp:77] Creating layer lstm1_gate_input_15
I0602 10:01:20.713673 24007 net.cpp:86] Creating Layer lstm1_gate_input_15
I0602 10:01:20.713678 24007 net.cpp:408] lstm1_gate_input_15 <- W_hc_h_14
I0602 10:01:20.713683 24007 net.cpp:408] lstm1_gate_input_15 <- W_xc_x_15
I0602 10:01:20.713690 24007 net.cpp:382] lstm1_gate_input_15 -> gate_input_15
I0602 10:01:20.713698 24007 net.cpp:124] Setting up lstm1_gate_input_15
I0602 10:01:20.713704 24007 net.cpp:131] Top shape: 1 1 400 (400)
I0602 10:01:20.713709 24007 net.cpp:139] Memory required for data: 309760
I0602 10:01:20.713714 24007 layer_factory.hpp:77] Creating layer lstm1_unit_15
I0602 10:01:20.713719 24007 net.cpp:86] Creating Layer lstm1_unit_15
I0602 10:01:20.713724 24007 net.cpp:408] lstm1_unit_15 <- c_14
I0602 10:01:20.713731 24007 net.cpp:408] lstm1_unit_15 <- gate_input_15
I0602 10:01:20.713737 24007 net.cpp:408] lstm1_unit_15 <- cont_15_lstm1_cont_slice_14_split_1
I0602 10:01:20.713748 24007 net.cpp:382] lstm1_unit_15 -> c_15
I0602 10:01:20.713760 24007 net.cpp:382] lstm1_unit_15 -> h_15
I0602 10:01:20.713769 24007 net.cpp:124] Setting up lstm1_unit_15
I0602 10:01:20.713775 24007 net.cpp:131] Top shape: 1 1 100 (100)
I0602 10:01:20.713780 24007 net.cpp:131] Top shape: 1 1 100 (100)
I0602 10:01:20.713785 24007 net.cpp:139] Memory required for data: 310560
I0602 10:01:20.713790 24007 layer_factory.hpp:77] Creating layer lstm1_
I0602 10:01:20.713796 24007 net.cpp:86] Creating Layer lstm1_
I0602 10:01:20.713801 24007 net.cpp:408] lstm1_ <- c_15
I0602 10:01:20.713809 24007 net.cpp:382] lstm1_ -> c_T
I0602 10:01:20.713815 24007 net.cpp:124] Setting up lstm1_
I0602 10:01:20.713821 24007 net.cpp:131] Top shape: 1 1 100 (100)
I0602 10:01:20.713826 24007 net.cpp:139] Memory required for data: 310960
I0602 10:01:20.713831 24007 layer_factory.hpp:77] Creating layer lstm1_h_concat
I0602 10:01:20.713840 24007 net.cpp:86] Creating Layer lstm1_h_concat
I0602 10:01:20.713845 24007 net.cpp:408] lstm1_h_concat <- h_1_lstm1_unit_1_1_split_1
I0602 10:01:20.713850 24007 net.cpp:408] lstm1_h_concat <- h_2_lstm1_unit_2_1_split_1
…
I0602 10:01:20.714717 24007 net.cpp:202] lstm1_ does not need backward computation.
I0602 10:01:20.714725 24007 net.cpp:244] This network produces output c_T
I0602 10:01:20.714732 24007 net.cpp:244] This network produces output h_pseudoloss
I0602 10:01:20.714830 24007 net.cpp:257] Network initialization done.
I0602 10:01:20.714974 24007 recurrent_layer.cpp:150] Adding parameter 0: W_xc
I0602 10:01:20.714983 24007 recurrent_layer.cpp:150] Adding parameter 1: b_c
I0602 10:01:20.714993 24007 recurrent_layer.cpp:150] Adding parameter 2: W_hc
I0602 10:01:20.715067 24007 net.cpp:124] Setting up lstm1
I0602 10:01:20.715080 24007 net.cpp:131] Top shape: 15 1 100 (1500)
I0602 10:01:20.715088 24007 net.cpp:139] Memory required for data: 40015060
I0602 10:01:20.715101 24007 layer_factory.hpp:77] Creating layer lstm2
I0602 10:01:20.715111 24007 net.cpp:86] Creating Layer lstm2
I0602 10:01:20.715118 24007 net.cpp:408] lstm2 <- lstm1
I0602 10:01:20.715127 24007 net.cpp:408] lstm2 <- indicator_indicator_0_split_1
I0602 10:01:20.715136 24007 net.cpp:382] lstm2 -> lstm2
I0602 10:01:20.715145 24007 recurrent_layer.cpp:20] Initializing recurrent layer: assuming input batch contains 15 timesteps of 1 independent streams.
I0602 10:01:20.715528 24007 net.cpp:53] Initializing net from parameters: 
layer {
  name: "lstm2_"
  type: "Input"
  top: "x"
  top: "cont"
  input_param {
    shape {
      dim: 15
      dim: 1
      dim: 100
    }
    shape {
      dim: 15
      dim: 1
    }
  }
}
layer {
  name: "lstm2_"
  type: "Input"
  top: "c_0"
  top: "h_0"
  input_param {
    shape {
      dim: 1
      dim: 1
      dim: 100
    }
    shape {
      dim: 1
      dim: 1
      dim: 100
    }
  }
}
layer {
  name: "lstm2_cont_slice"
  type: "Slice"
  bottom: "cont"
  top: "cont_1"
  top: "cont_2"
  top: "cont_3"
  top: "cont_4"
  top: "cont_5"
  top: "cont_6"
  top: "cont_7"
  top: "cont_8"
  top: "cont_9"
  top: "cont_10"
  top: "cont_11"
  top: "cont_12"
  top: "cont_13"
  top: "cont_14"
  top: "cont_15"
  slice_param {
    axis: 0
  }
}
layer {
  name: "lstm2_x_transform"
  type: "InnerProduct"
  bottom: "x"
  top: "W_xc_x"
  param {
    name: "W_xc"
  }
  param {
    name: "b_c"
  }
  propagate_down: true
  inner_product_param {
    num_output: 400
    bias_term: true
    weight_filler {
      type: "xavier"
    }
    bias_filler {
      type: "constant"
      value: 0
    }
    axis: 2
  }
}
layer {
  name: "lstm2_W_xc_x_slice"
  type: "Slice"
  bottom: "W_xc_x"
  top: "W_xc_x_1"
  top: "W_xc_x_2"
  top: "W_xc_x_3"
  top: "W_xc_x_4"
  top: "W_xc_x_5"
  top: "W_xc_x_6"
  top: "W_xc_x_7"
  top: "W_xc_x_8"
  top: "W_xc_x_9"
  top: "W_xc_x_10"
  top: "W_xc_x_11"
  top: "W_xc_x_12"
  top: "W_xc_x_13"
  top: "W_xc_x_14"
  top: "W_xc_x_15"
  slice_param {
    axis: 0
  }
}
layer {
  name: "lstm2_h_conted_0"
  type: "Scale"
  bottom: "h_0"
  bottom: "cont_1"
  top: "h_conted_0"
  scale_param {
    axis: 0
  }
}
layer {
  name: "lstm2_transform_1"
  type: "InnerProduct"
  bottom: "h_conted_0"
  top: "W_hc_h_0"
  param {
    name: "W_hc"
  }
  inner_product_param {
    num_output: 400
    bias_term: false
    weight_filler {
      type: "xavier"
    }
    axis: 2
  }
}
layer {
  name: "lstm2_gate_input_1"
  type: "Eltwise"
  bottom: "W_hc_h_0"
  bottom: "W_xc_x_1"
  top: "gate_input_1"
  eltwise_param {
    operation: SUM
  }
}
layer {
  name: "lstm2_unit_1"
  type: "LSTMUnit"
  bottom: "c_0"
  bottom: "gate_input_1"
  bottom: "cont_1"
  top: "c_1"
  top: "h_1"
}
layer {
  name: "lstm2_h_conted_1"
  type: "Scale"
  bottom: "h_1"
  bottom: "cont_2"
  top: "h_conted_1"
  scale_param {
    axis: 0
  }
}
layer {
  name: "lstm2_transform_2"
  type: "InnerProduct"
  bottom: "h_conted_1"
  top: "W_hc_h_1"
  param {
    name: "W_hc"
  }
  inner_product_param {
    num_output: 400
    bias_term: false
    weight_filler {
      type: "xavier"
    }
    axis: 2
  }
}
layer {
  name: "lstm2_gate_input_2"
  type: "Eltwise"
  bottom: "W_hc_h_1"
  bottom: "W_xc_x_2"
  top: "gate_input_2"
  eltwise_param {
    operation: SUM
  }
}
layer {
  name: "lstm2_unit_2"
  type: "LSTMUnit"
  bottom: "c_1"
  bottom: "gate_input_2"
  bottom: "cont_2"
  top: "c_2"
  top: "h_2"
}
layer {
  name: "lstm2_h_conted_2"
  type: "Scale"
  bottom: "h_2"
  bottom: "cont_3"
  top: "h_conted_2"
  scale_param {
    axis: 0
  }
}
layer {
  name: "lstm2_transform_3"
  type: "InnerProduct"
  bottom: "h_conted_2"
  top: "W_hc_h_2"
  param {
    name: "W_hc"
  }
  inner_product_param {
    num_output: 400
    bias_term: false
    weight_filler {
      type: "xavier"
    }
    axis: 2
  }
}
layer {
  name: "lstm2_gate_input_3"
  type: "Eltwise"
  bottom: "W_hc_h_2"
  bottom: "W_xc_x_3"
  top: "gate_input_3"
  eltwise_param {
    operation: SUM
  }
}
layer {
  name: "lstm2_unit_3"
  type: "LSTMUnit"
  bottom: "c_2"
  bottom: "gate_input_3"
  bottom: "cont_3"
  top: "c_3"
  top: "h_3"
}
layer {
  name: "lstm2_h_conted_3"
  type: "Scale"
  bottom: "h_3"
  bottom: "cont_4"
  top: "h_conted_3"
  scale_param {
    axis: 0
  }
}
layer {
  name: "lstm2_transform_4"
  type: "InnerProduct"
  bottom: "h_conted_3"
  top: "W_hc_h_3"
  param {
    name: "W_hc"
  }
  inner_product_param {
    num_output: 400
    bias_term: false
    weight_filler {
      type: "xavier"
    }
    axis: 2
  }
}
layer {
  name: "lstm2_gate_input_4"
  type: "Eltwise"
  bottom: "W_hc_h_3"
  bottom: "W_xc_x_4"
  top: "gate_input_4"
  eltwise_param {
    operation: SUM
  }
}
layer {
  name: "lstm2_unit_4"
  type: "LSTMUnit"
  bottom: "c_3"
  bottom: "gate_input_4"
  bottom: "cont_4"
  top: "c_4"
  top: "h_4"
}
layer {
  name: "lstm2_h_conted_4"
  type: "Scale"
  bottom: "h_4"
  bottom: "cont_5"
  top: "h_conted_4"
  scale_param {
    axis: 0
  }
}
layer {
  name: "lstm2_transform_5"
  type: "InnerProduct"
  bottom: "h_conted_4"
  top: "W_hc_h_4"
  param {
    name: "W_hc"
  }
  inner_product_param {
    num_output: 400
    bias_term: false
    weight_filler {
      type: "xavier"
    }
    axis: 2
  }
}
layer {
  name: "lstm2_gate_input_5"
  type: "Eltwise"
  bottom: "W_hc_h_4"
  bottom: "W_xc_x_5"
  top: "gate_input_5"
  eltwise_param {
    operation: SUM
  }
}
layer {
  name: "lstm2_unit_5"
  type: "LSTMUnit"
  bottom: "c_4"
  bottom: "gate_input_5"
  bottom: "cont_5"
  top: "c_5"
  top: "h_5"
}
layer {
  name: "lstm2_h_conted_5"
  type: "Scale"
  bottom: "h_5"
  bottom: "cont_6"
  top: "h_conted_5"
  scale_param {
    axis: 0
  }
}
layer {
  name: "lstm2_transform_6"
  type: "InnerProduct"
  bottom: "h_conted_5"
  top: "W_hc_h_5"
  param {
    name: "W_hc"
  }
  inner_product_param {
    num_output: 400
    bias_term: false
    weight_filler {
      type: "xavier"
    }
    axis: 2
  }
}
layer {
  name: "lstm2_gate_input_6"
  type: "Eltwise"
  bottom: "W_hc_h_5"
  bottom: "W_xc_x_6"
  top: "gate_input_6"
  eltwise_param {
    operation: SUM
  }
}
layer {
  name: "lstm2_unit_6"
  type: "LSTMUnit"
  bottom: "c_5"
  bottom: "gate_input_6"
  bottom: "cont_6"
  top: "c_6"
  top: "h_6"
}
layer {
  name: "lstm2_h_conted_6"
  type: "Scale"
  bottom: "h_6"
  bottom: "cont_7"
  top: "h_conted_6"
  scale_param {
    axis: 0
  }
}
layer {
  name: "lstm2_transform_7"
  type: "InnerProduct"
  bottom: "h_conted_6"
  top: "W_hc_h_6"
  param {
    name: "W_hc"
  }
  inner_product_param {
    num_output: 400
    bias_term: false
    weight_filler {
      type: "xavier"
    }
    axis: 2
  }
}
layer {
  name: "lstm2_gate_input_7"
  type: "Eltwise"
  bottom: "W_hc_h_6"
  bottom: "W_xc_x_7"
  top: "gate_input_7"
  eltwise_param {
    operation: SUM
  }
}
layer {
  name: "lstm2_unit_7"
  type: "LSTMUnit"
  bottom: "c_6"
  bottom: "gate_input_7"
  bottom: "cont_7"
  top: "c_7"
  top: "h_7"
}
layer {
  name: "lstm2_h_conted_7"
  type: "Scale"
  bottom: "h_7"
  bottom: "cont_8"
  top: "h_conted_7"
  scale_param {
    axis: 0
  }
}
layer {
  name: "lstm2_transform_8"
  type: "InnerProduct"
  bottom: "h_conted_7"
  top: "W_hc_h_7"
  param {
    name: "W_hc"
  }
  inner_product_param {
    num_output: 400
    bias_term: false
    weight_filler {
      type: "xavier"
    }
    axis: 2
  }
}
layer {
  name: "lstm2_gate_input_8"
  type: "Eltwise"
  bottom: "W_hc_h_7"
  bottom: "W_xc_x_8"
  top: "gate_input_8"
  eltwise_param {
    operation: SUM
  }
}
layer {
  name: "lstm2_unit_8"
  type: "LSTMUnit"
  bottom: "c_7"
  bottom: "gate_input_8"
  bottom: "cont_8"
  top: "c_8"
  top: "h_8"
}
layer {
  name: "lstm2_h_conted_8"
  type: "Scale"
  bottom: "h_8"
  bottom: "cont_9"
  top: "h_conted_8"
  scale_param {
    axis: 0
  }
}
layer {
  name: "lstm2_transform_9"
  type: "InnerProduct"
  bottom: "h_conted_8"
  top: "W_hc_h_8"
  param {
    name: "W_hc"
  }
  inner_product_param {
    num_output: 400
    bias_term: false
    weight_filler {
      type: "xavier"
    }
    axis: 2
  }
}
layer {
  name: "lstm2_gate_input_9"
  type: "Eltwise"
  bottom: "W_hc_h_8"
  bottom: "W_xc_x_9"
  top: "gate_input_9"
  eltwise_param {
    operation: SUM
  }
}
layer {
  name: "lstm2_unit_9"
  type: "LSTMUnit"
  bottom: "c_8"
  bottom: "gate_input_9"
  bottom: "cont_9"
  top: "c_9"
  top: "h_9"
}
layer {
  name: "lstm2_h_conted_9"
  type: "Scale"
  bottom: "h_9"
  bottom: "cont_10"
  top: "h_conted_9"
  scale_param {
    axis: 0
  }
}
layer {
  name: "lstm2_transform_10"
  type: "InnerProduct"
  bottom: "h_conted_9"
  top: "W_hc_h_9"
  param {
    name: "W_hc"
  }
  inner_product_param {
    num_output: 400
    bias_term: false
    weight_filler {
      type: "xavier"
    }
    axis: 2
  }
}
layer {
  name: "lstm2_gate_input_10"
  type: "Eltwise"
  bottom: "W_hc_h_9"
  bottom: "W_xc_x_10"
  top: "gate_input_10"
  eltwise_param {
    operation: SUM
  }
}
layer {
  name: "lstm2_unit_10"
  type: "LSTMUnit"
  bottom: "c_9"
  bottom: "gate_input_10"
  bottom: "cont_10"
  top: "c_10"
  top: "h_10"
}
layer {
  name: "lstm2_h_conted_10"
  type: "Scale"
  bottom: "h_10"
  bottom: "cont_11"
  top: "h_conted_10"
  scale_param {
    axis: 0
  }
}
layer {
  name: "lstm2_transform_11"
  type: "InnerProduct"
  bottom: "h_conted_10"
  top: "W_hc_h_10"
  param {
    name: "W_hc"
  }
  inner_product_param {
    num_output: 400
    bias_term: false
    weight_filler {
      type: "xavier"
    }
    axis: 2
  }
}
layer {
  name: "lstm2_gate_input_11"
  type: "Eltwise"
  bottom: "W_hc_h_10"
  bottom: "W_xc_x_11"
  top: "gate_input_11"
  eltwise_param {
    operation: SUM
  }
}
layer {
  name: "lstm2_unit_11"
  type: "LSTMUnit"
  bottom: "c_10"
  bottom: "gate_input_11"
  bottom: "cont_11"
  top: "c_11"
  top: "h_11"
}
layer {
  name: "lstm2_h_conted_11"
  type: "Scale"
  bottom: "h_11"
  bottom: "cont_12"
  top: "h_conted_11"
  scale_param {
    axis: 0
  }
}
layer {
  name: "lstm2_transform_12"
  type: "InnerProduct"
  bottom: "h_conted_11"
  top: "W_hc_h_11"
  param {
    name: "W_hc"
  }
  inner_product_param {
    num_output: 400
    bias_term: false
    weight_filler {
      type: "xavier"
    }
    axis: 2
  }
}
layer {
  name: "lstm2_gate_input_12"
  type: "Eltwise"
  bottom: "W_hc_h_11"
  bottom: "W_xc_x_12"
  top: "gate_input_12"
  eltwise_param {
    operation: SUM
  }
}
layer {
  name: "lstm2_unit_12"
  type: "LSTMUnit"
  bottom: "c_11"
  bottom: "gate_input_12"
  bottom: "cont_12"
  top: "c_12"
  top: "h_12"
}
layer {
  name: "lstm2_h_conted_12"
  type: "Scale"
  bottom: "h_12"
  bottom: "cont_13"
  top: "h_conted_12"
  scale_param {
    axis: 0
  }
}
layer {
  name: "lstm2_transform_13"
  type: "InnerProduct"
  bottom: "h_conted_12"
  top: "W_hc_h_12"
  param {
    name: "W_hc"
  }
  inner_product_param {
    num_output: 400
    bias_term: false
    weight_filler {
      type: "xavier"
    }
    axis: 2
  }
}
layer {
  name: "lstm2_gate_input_13"
  type: "Eltwise"
  bottom: "W_hc_h_12"
  bottom: "W_xc_x_13"
  top: "gate_input_13"
  eltwise_param {
    operation: SUM
  }
}
layer {
  name: "lstm2_unit_13"
  type: "LSTMUnit"
  bottom: "c_12"
  bottom: "gate_input_13"
  bottom: "cont_13"
  top: "c_13"
  top: "h_13"
}
layer {
  name: "lstm2_h_conted_13"
  type: "Scale"
  bottom: "h_13"
  bottom: "cont_14"
  top: "h_conted_13"
  scale_param {
    axis: 0
  }
}
layer {
  name: "lstm2_transform_14"
  type: "InnerProduct"
  bottom: "h_conted_13"
  top: "W_hc_h_13"
  param {
    name: "W_hc"
  }
  inner_product_param {
    num_output: 400
    bias_term: false
    weight_filler {
      type: "xavier"
    }
    axis: 2
  }
}
layer {
  name: "lstm2_gate_input_14"
  type: "Eltwise"
  bottom: "W_hc_h_13"
  bottom: "W_xc_x_14"
  top: "gate_input_14"
  eltwise_param {
    operation: SUM
  }
}
layer {
  name: "lstm2_unit_14"
  type: "LSTMUnit"
  bottom: "c_13"
  bottom: "gate_input_14"
  bottom: "cont_14"
  top: "c_14"
  top: "h_14"
}
layer {
  name: "lstm2_h_conted_14"
  type: "Scale"
  bottom: "h_14"
  bottom: "cont_15"
  top: "h_conted_14"
  scale_param {
    axis: 0
  }
}
layer {
  name: "lstm2_transform_15"
  type: "InnerProduct"
  bottom: "h_conted_14"
  top: "W_hc_h_14"
  param {
    name: "W_hc"
  }
  inner_product_param {
    num_output: 400
    bias_term: false
    weight_filler {
      type: "xavier"
    }
    axis: 2
  }
}
layer {
  name: "lstm2_gate_input_15"
  type: "Eltwise"
  bottom: "W_hc_h_14"
  bottom: "W_xc_x_15"
  top: "gate_input_15"
  eltwise_param {
    operation: SUM
  }
}
layer {
  name: "lstm2_unit_15"
  type: "LSTMUnit"
  bottom: "c_14"
  bottom: "gate_input_15"
  bottom: "cont_15"
  top: "c_15"
  top: "h_15"
}
layer {
  name: "lstm2_"
  type: "Split"
  bottom: "c_15"
  top: "c_T"
}
layer {
  name: "lstm2_h_concat"
  type: "Concat"
  bottom: "h_1"
  bottom: "h_2"
  bottom: "h_3"
  bottom: "h_4"
  bottom: "h_5"
  bottom: "h_6"
  bottom: "h_7"
  bottom: "h_8"
  bottom: "h_9"
  bottom: "h_10"
  bottom: "h_11"
  bottom: "h_12"
  bottom: "h_13"
  bottom: "h_14"
  bottom: "h_15"
  top: "h"
  concat_param {
    axis: 0
  }
}
layer {
  name: "h_pseudoloss"
  type: "Reduction"
  bottom: "h"
  top: "h_pseudoloss"
  loss_weight: 1
}
I0602 10:01:20.715888 24007 layer_factory.hpp:77] Creating layer lstm2_
I0602 10:01:20.715903 24007 net.cpp:86] Creating Layer lstm2_
I0602 10:01:20.715909 24007 net.cpp:382] lstm2_ -> x
I0602 10:01:20.715921 24007 net.cpp:382] lstm2_ -> cont
I0602 10:01:20.715931 24007 net.cpp:124] Setting up lstm2_
I0602 10:01:20.715940 24007 net.cpp:131] Top shape: 15 1 100 (1500)
I0602 10:01:20.715948 24007 net.cpp:131] Top shape: 15 1 (15)
I0602 10:01:20.715955 24007 net.cpp:139] Memory required for data: 6060
I0602 10:01:20.715960 24007 layer_factory.hpp:77] Creating layer lstm2_
I0602 10:01:20.715968 24007 net.cpp:86] Creating Layer lstm2_
I0602 10:01:20.715975 24007 net.cpp:382] lstm2_ -> c_0
I0602 10:01:20.715986 24007 net.cpp:382] lstm2_ -> h_0
I0602 10:01:20.715994 24007 net.cpp:124] Setting up lstm2_
I0602 10:01:20.716001 24007 net.cpp:131] Top shape: 1 1 100 (100)
I0602 10:01:20.716008 24007 net.cpp:131] Top shape: 1 1 100 (100)
I0602 10:01:20.716015 24007 net.cpp:139] Memory required for data: 6860
I0602 10:01:20.716022 24007 layer_factory.hpp:77] Creating layer lstm2_cont_slice
I0602 10:01:20.716029 24007 net.cpp:86] Creating Layer lstm2_cont_slice
I0602 10:01:20.716034 24007 net.cpp:408] lstm2_cont_slice <- cont
I0602 10:01:20.716042 24007 net.cpp:382] lstm2_cont_slice -> cont_1
I0602 10:01:20.716051 24007 net.cpp:382] lstm2_cont_slice -> cont_2
I0602 10:01:20.716060 24007 net.cpp:382] lstm2_cont_slice -> cont_3
I0602 10:01:20.716069 24007 net.cpp:382] lstm2_cont_slice -> cont_4
I0602 10:01:20.716079 24007 net.cpp:382] lstm2_cont_slice -> cont_5
I0602 10:01:20.716089 24007 net.cpp:382] lstm2_cont_slice -> cont_6
I0602 10:01:20.716097 24007 net.cpp:382] lstm2_cont_slice -> cont_7
I0602 10:01:20.716106 24007 net.cpp:382] lstm2_cont_slice -> cont_8
I0602 10:01:20.716114 24007 net.cpp:382] lstm2_cont_slice -> cont_9
I0602 10:01:20.716122 24007 net.cpp:382] lstm2_cont_slice -> cont_10
I0602 10:01:20.716131 24007 net.cpp:382] lstm2_cont_slice -> cont_11
I0602 10:01:20.716140 24007 net.cpp:382] lstm2_cont_slice -> cont_12
I0602 10:01:20.716150 24007 net.cpp:382] lstm2_cont_slice -> cont_13
I0602 10:01:20.716157 24007 net.cpp:382] lstm2_cont_slice -> cont_14
I0602 10:01:20.716166 24007 net.cpp:382] lstm2_cont_slice -> cont_15
I0602 10:01:20.716179 24007 net.cpp:124] Setting up lstm2_cont_slice
I0602 10:01:20.716187 24007 net.cpp:131] Top shape: 1 1 (1)
I0602 10:01:20.716192 24007 net.cpp:131] Top shape: 1 1 (1)
I0602 10:01:20.716198 24007 net.cpp:131] Top shape: 1 1 (1)
I0602 10:01:20.716204 24007 net.cpp:131] Top shape: 1 1 (1)
I0602 10:01:20.716209 24007 net.cpp:131] Top shape: 1 1 (1)
I0602 10:01:20.716217 24007 net.cpp:131] Top shape: 1 1 (1)
I0602 10:01:20.716223 24007 net.cpp:131] Top shape: 1 1 (1)
I0602 10:01:20.716230 24007 net.cpp:131] Top shape: 1 1 (1)
I0602 10:01:20.716238 24007 net.cpp:131] Top shape: 1 1 (1)
I0602 10:01:20.716243 24007 net.cpp:131] Top shape: 1 1 (1)
I0602 10:01:20.716254 24007 net.cpp:131] Top shape: 1 1 (1)
I0602 10:01:20.716265 24007 net.cpp:131] Top shape: 1 1 (1)
I0602 10:01:20.716274 24007 net.cpp:131] Top shape: 1 1 (1)
I0602 10:01:20.716282 24007 net.cpp:131] Top shape: 1 1 (1)
I0602 10:01:20.716289 24007 net.cpp:131] Top shape: 1 1 (1)
I0602 10:01:20.716295 24007 net.cpp:139] Memory required for data: 6920
I0602 10:01:20.716300 24007 layer_factory.hpp:77] Creating layer cont_1_lstm2_cont_slice_0_split
I0602 10:01:20.716306 24007 net.cpp:86] Creating Layer cont_1_lstm2_cont_slice_0_split
I0602 10:01:20.716313 24007 net.cpp:408] cont_1_lstm2_cont_slice_0_split <- cont_1
I0602 10:01:20.716321 24007 net.cpp:382] cont_1_lstm2_cont_slice_0_split -> cont_1_lstm2_cont_slice_0_split_0
I0602 10:01:20.716331 24007 net.cpp:382] cont_1_lstm2_cont_slice_0_split -> cont_1_lstm2_cont_slice_0_split_1
I0602 10:01:20.716338 24007 net.cpp:124] Setting up cont_1_lstm2_cont_slice_0_split
I0602 10:01:20.716344 24007 net.cpp:131] Top shape: 1 1 (1)
I0602 10:01:20.716351 24007 net.cpp:131] Top shape: 1 1 (1)
I0602 10:01:20.716356 24007 net.cpp:139] Memory required for data: 6928
I0602 10:01:20.716362 24007 layer_factory.hpp:77] Creating layer cont_2_lstm2_cont_slice_1_split
I0602 10:01:20.716369 24007 net.cpp:86] Creating Layer cont_2_lstm2_cont_slice_1_split
I0602 10:01:20.716377 24007 net.cpp:408] cont_2_lstm2_cont_slice_1_split <- cont_2
I0602 10:01:20.716385 24007 net.cpp:382] cont_2_lstm2_cont_slice_1_split -> cont_2_lstm2_cont_slice_1_split_0
I0602 10:01:20.716393 24007 net.cpp:382] cont_2_lstm2_cont_slice_1_split -> cont_2_lstm2_cont_slice_1_split_1
I0602 10:01:20.716403 24007 net.cpp:124] Setting up cont_2_lstm2_cont_slice_1_split
I0602 10:01:20.716413 24007 net.cpp:131] Top shape: 1 1 (1)
I0602 10:01:20.716418 24007 net.cpp:131] Top shape: 1 1 (1)
I0602 10:01:20.716423 24007 net.cpp:139] Memory required for data: 6936
I0602 10:01:20.716430 24007 layer_factory.hpp:77] Creating layer cont_3_lstm2_cont_slice_2_split
I0602 10:01:20.716437 24007 net.cpp:86] Creating Layer cont_3_lstm2_cont_slice_2_split
I0602 10:01:20.716444 24007 net.cpp:408] cont_3_lstm2_cont_slice_2_split <- cont_3
I0602 10:01:20.716452 24007 net.cpp:382] cont_3_lstm2_cont_slice_2_split -> cont_3_lstm2_cont_slice_2_split_0
I0602 10:01:20.716459 24007 net.cpp:382] cont_3_lstm2_cont_slice_2_split -> cont_3_lstm2_cont_slice_2_split_1
I0602 10:01:20.716469 24007 net.cpp:124] Setting up cont_3_lstm2_cont_slice_2_split
I0602 10:01:20.716475 24007 net.cpp:131] Top shape: 1 1 (1)
I0602 10:01:20.716482 24007 net.cpp:131] Top shape: 1 1 (1)
I0602 10:01:20.716487 24007 net.cpp:139] Memory required for data: 6944
I0602 10:01:20.716495 24007 layer_factory.hpp:77] Creating layer cont_4_lstm2_cont_slice_3_split
I0602 10:01:20.716500 24007 net.cpp:86] Creating Layer cont_4_lstm2_cont_slice_3_split
I0602 10:01:20.716507 24007 net.cpp:408] cont_4_lstm2_cont_slice_3_split <- cont_4
I0602 10:01:20.716514 24007 net.cpp:382] cont_4_lstm2_cont_slice_3_split -> cont_4_lstm2_cont_slice_3_split_0
I0602 10:01:20.716523 24007 net.cpp:382] cont_4_lstm2_cont_slice_3_split -> cont_4_lstm2_cont_slice_3_split_1
I0602 10:01:20.716531 24007 net.cpp:124] Setting up cont_4_lstm2_cont_slice_3_split
I0602 10:01:20.716537 24007 net.cpp:131] Top shape: 1 1 (1)
I0602 10:01:20.716543 24007 net.cpp:131] Top shape: 1 1 (1)
I0602 10:01:20.716548 24007 net.cpp:139] Memory required for data: 6952
I0602 10:01:20.716554 24007 layer_factory.hpp:77] Creating layer cont_5_lstm2_cont_slice_4_split
I0602 10:01:20.716562 24007 net.cpp:86] Creating Layer cont_5_lstm2_cont_slice_4_split
I0602 10:01:20.716567 24007 net.cpp:408] cont_5_lstm2_cont_slice_4_split <- cont_5
I0602 10:01:20.716573 24007 net.cpp:382] cont_5_lstm2_cont_slice_4_split -> cont_5_lstm2_cont_slice_4_split_0
I0602 10:01:20.716583 24007 net.cpp:382] cont_5_lstm2_cont_slice_4_split -> cont_5_lstm2_cont_slice_4_split_1
I0602 10:01:20.716589 24007 net.cpp:124] Setting up cont_5_lstm2_cont_slice_4_split
I0602 10:01:20.716598 24007 net.cpp:131] Top shape: 1 1 (1)
I0602 10:01:20.716606 24007 net.cpp:131] Top shape: 1 1 (1)
I0602 10:01:20.716619 24007 net.cpp:139] Memory required for data: 6960
I0602 10:01:20.716625 24007 layer_factory.hpp:77] Creating layer cont_6_lstm2_cont_slice_5_split
I0602 10:01:20.716634 24007 net.cpp:86] Creating Layer cont_6_lstm2_cont_slice_5_split
I0602 10:01:20.716641 24007 net.cpp:408] cont_6_lstm2_cont_slice_5_split <- cont_6
I0602 10:01:20.716647 24007 net.cpp:382] cont_6_lstm2_cont_slice_5_split -> cont_6_lstm2_cont_slice_5_split_0
I0602 10:01:20.716656 24007 net.cpp:382] cont_6_lstm2_cont_slice_5_split -> cont_6_lstm2_cont_slice_5_split_1
I0602 10:01:20.716665 24007 net.cpp:124] Setting up cont_6_lstm2_cont_slice_5_split
I0602 10:01:20.716671 24007 net.cpp:131] Top shape: 1 1 (1)
I0602 10:01:20.716678 24007 net.cpp:131] Top shape: 1 1 (1)
I0602 10:01:20.716686 24007 net.cpp:139] Memory required for data: 6968
I0602 10:01:20.716693 24007 layer_factory.hpp:77] Creating layer cont_7_lstm2_cont_slice_6_split
I0602 10:01:20.716699 24007 net.cpp:86] Creating Layer cont_7_lstm2_cont_slice_6_split
I0602 10:01:20.716706 24007 net.cpp:408] cont_7_lstm2_cont_slice_6_split <- cont_7
I0602 10:01:20.716711 24007 net.cpp:382] cont_7_lstm2_cont_slice_6_split -> cont_7_lstm2_cont_slice_6_split_0
I0602 10:01:20.716719 24007 net.cpp:382] cont_7_lstm2_cont_slice_6_split -> cont_7_lstm2_cont_slice_6_split_1
I0602 10:01:20.716728 24007 net.cpp:124] Setting up cont_7_lstm2_cont_slice_6_split
I0602 10:01:20.716734 24007 net.cpp:131] Top shape: 1 1 (1)
I0602 10:01:20.716742 24007 net.cpp:131] Top shape: 1 1 (1)
I0602 10:01:20.716748 24007 net.cpp:139] Memory required for data: 6976
I0602 10:01:20.716755 24007 layer_factory.hpp:77] Creating layer cont_8_lstm2_cont_slice_7_split
I0602 10:01:20.716763 24007 net.cpp:86] Creating Layer cont_8_lstm2_cont_slice_7_split
I0602 10:01:20.716768 24007 net.cpp:408] cont_8_lstm2_cont_slice_7_split <- cont_8
I0602 10:01:20.716776 24007 net.cpp:382] cont_8_lstm2_cont_slice_7_split -> cont_8_lstm2_cont_slice_7_split_0
I0602 10:01:20.716785 24007 net.cpp:382] cont_8_lstm2_cont_slice_7_split -> cont_8_lstm2_cont_slice_7_split_1
I0602 10:01:20.716794 24007 net.cpp:124] Setting up cont_8_lstm2_cont_slice_7_split
I0602 10:01:20.716799 24007 net.cpp:131] Top shape: 1 1 (1)
I0602 10:01:20.716805 24007 net.cpp:131] Top shape: 1 1 (1)
I0602 10:01:20.716811 24007 net.cpp:139] Memory required for data: 6984
I0602 10:01:20.716819 24007 layer_factory.hpp:77] Creating layer cont_9_lstm2_cont_slice_8_split
I0602 10:01:20.716826 24007 net.cpp:86] Creating Layer cont_9_lstm2_cont_slice_8_split
I0602 10:01:20.716833 24007 net.cpp:408] cont_9_lstm2_cont_slice_8_split <- cont_9
I0602 10:01:20.716840 24007 net.cpp:382] cont_9_lstm2_cont_slice_8_split -> cont_9_lstm2_cont_slice_8_split_0
I0602 10:01:20.716847 24007 net.cpp:382] cont_9_lstm2_cont_slice_8_split -> cont_9_lstm2_cont_slice_8_split_1
I0602 10:01:20.716856 24007 net.cpp:124] Setting up cont_9_lstm2_cont_slice_8_split
I0602 10:01:20.716862 24007 net.cpp:131] Top shape: 1 1 (1)
I0602 10:01:20.716869 24007 net.cpp:131] Top shape: 1 1 (1)
I0602 10:01:20.716876 24007 net.cpp:139] Memory required for data: 6992
I0602 10:01:20.716882 24007 layer_factory.hpp:77] Creating layer cont_10_lstm2_cont_slice_9_split
I0602 10:01:20.716889 24007 net.cpp:86] Creating Layer cont_10_lstm2_cont_slice_9_split
I0602 10:01:20.716895 24007 net.cpp:408] cont_10_lstm2_cont_slice_9_split <- cont_10
I0602 10:01:20.716902 24007 net.cpp:382] cont_10_lstm2_cont_slice_9_split -> cont_10_lstm2_cont_slice_9_split_0
I0602 10:01:20.716912 24007 net.cpp:382] cont_10_lstm2_cont_slice_9_split -> cont_10_lstm2_cont_slice_9_split_1
I0602 10:01:20.716919 24007 net.cpp:124] Setting up cont_10_lstm2_cont_slice_9_split
I0602 10:01:20.716925 24007 net.cpp:131] Top shape: 1 1 (1)
I0602 10:01:20.716930 24007 net.cpp:131] Top shape: 1 1 (1)
I0602 10:01:20.716936 24007 net.cpp:139] Memory required for data: 7000
I0602 10:01:20.716943 24007 layer_factory.hpp:77] Creating layer cont_11_lstm2_cont_slice_10_split
I0602 10:01:20.716948 24007 net.cpp:86] Creating Layer cont_11_lstm2_cont_slice_10_split
I0602 10:01:20.716961 24007 net.cpp:408] cont_11_lstm2_cont_slice_10_split <- cont_11
I0602 10:01:20.716969 24007 net.cpp:382] cont_11_lstm2_cont_slice_10_split -> cont_11_lstm2_cont_slice_10_split_0
I0602 10:01:20.716977 24007 net.cpp:382] cont_11_lstm2_cont_slice_10_split -> cont_11_lstm2_cont_slice_10_split_1
I0602 10:01:20.716985 24007 net.cpp:124] Setting up cont_11_lstm2_cont_slice_10_split
I0602 10:01:20.716991 24007 net.cpp:131] Top shape: 1 1 (1)
I0602 10:01:20.716998 24007 net.cpp:131] Top shape: 1 1 (1)
I0602 10:01:20.717003 24007 net.cpp:139] Memory required for data: 7008
I0602 10:01:20.717008 24007 layer_factory.hpp:77] Creating layer cont_12_lstm2_cont_slice_11_split
I0602 10:01:20.717015 24007 net.cpp:86] Creating Layer cont_12_lstm2_cont_slice_11_split
I0602 10:01:20.717021 24007 net.cpp:408] cont_12_lstm2_cont_slice_11_split <- cont_12
I0602 10:01:20.717028 24007 net.cpp:382] cont_12_lstm2_cont_slice_11_split -> cont_12_lstm2_cont_slice_11_split_0
I0602 10:01:20.717036 24007 net.cpp:382] cont_12_lstm2_cont_slice_11_split -> cont_12_lstm2_cont_slice_11_split_1
I0602 10:01:20.717042 24007 net.cpp:124] Setting up cont_12_lstm2_cont_slice_11_split
I0602 10:01:20.717049 24007 net.cpp:131] Top shape: 1 1 (1)
I0602 10:01:20.717056 24007 net.cpp:131] Top shape: 1 1 (1)
I0602 10:01:20.717063 24007 net.cpp:139] Memory required for data: 7016
I0602 10:01:20.717068 24007 layer_factory.hpp:77] Creating layer cont_13_lstm2_cont_slice_12_split
I0602 10:01:20.717075 24007 net.cpp:86] Creating Layer cont_13_lstm2_cont_slice_12_split
I0602 10:01:20.717082 24007 net.cpp:408] cont_13_lstm2_cont_slice_12_split <- cont_13
I0602 10:01:20.717089 24007 net.cpp:382] cont_13_lstm2_cont_slice_12_split -> cont_13_lstm2_cont_slice_12_split_0
I0602 10:01:20.717097 24007 net.cpp:382] cont_13_lstm2_cont_slice_12_split -> cont_13_lstm2_cont_slice_12_split_1
I0602 10:01:20.717104 24007 net.cpp:124] Setting up cont_13_lstm2_cont_slice_12_split
I0602 10:01:20.717113 24007 net.cpp:131] Top shape: 1 1 (1)
I0602 10:01:20.717119 24007 net.cpp:131] Top shape: 1 1 (1)
I0602 10:01:20.717126 24007 net.cpp:139] Memory required for data: 7024
I0602 10:01:20.717133 24007 layer_factory.hpp:77] Creating layer cont_14_lstm2_cont_slice_13_split
I0602 10:01:20.717139 24007 net.cpp:86] Creating Layer cont_14_lstm2_cont_slice_13_split
I0602 10:01:20.717144 24007 net.cpp:408] cont_14_lstm2_cont_slice_13_split <- cont_14
I0602 10:01:20.717151 24007 net.cpp:382] cont_14_lstm2_cont_slice_13_split -> cont_14_lstm2_cont_slice_13_split_0
I0602 10:01:20.717160 24007 net.cpp:382] cont_14_lstm2_cont_slice_13_split -> cont_14_lstm2_cont_slice_13_split_1
I0602 10:01:20.717170 24007 net.cpp:124] Setting up cont_14_lstm2_cont_slice_13_split
I0602 10:01:20.717175 24007 net.cpp:131] Top shape: 1 1 (1)
I0602 10:01:20.717182 24007 net.cpp:131] Top shape: 1 1 (1)
I0602 10:01:20.717187 24007 net.cpp:139] Memory required for data: 7032
I0602 10:01:20.717195 24007 layer_factory.hpp:77] Creating layer cont_15_lstm2_cont_slice_14_split
I0602 10:01:20.717200 24007 net.cpp:86] Creating Layer cont_15_lstm2_cont_slice_14_split
I0602 10:01:20.717205 24007 net.cpp:408] cont_15_lstm2_cont_slice_14_split <- cont_15
I0602 10:01:20.717211 24007 net.cpp:382] cont_15_lstm2_cont_slice_14_split -> cont_15_lstm2_cont_slice_14_split_0
I0602 10:01:20.717217 24007 net.cpp:382] cont_15_lstm2_cont_slice_14_split -> cont_15_lstm2_cont_slice_14_split_1
I0602 10:01:20.717226 24007 net.cpp:124] Setting up cont_15_lstm2_cont_slice_14_split
I0602 10:01:20.717233 24007 net.cpp:131] Top shape: 1 1 (1)
I0602 10:01:20.717241 24007 net.cpp:131] Top shape: 1 1 (1)
I0602 10:01:20.717247 24007 net.cpp:139] Memory required for data: 7040
I0602 10:01:20.717252 24007 layer_factory.hpp:77] Creating layer lstm2_x_transform
I0602 10:01:20.717260 24007 net.cpp:86] Creating Layer lstm2_x_transform
I0602 10:01:20.717267 24007 net.cpp:408] lstm2_x_transform <- x
I0602 10:01:20.717274 24007 net.cpp:382] lstm2_x_transform -> W_xc_x
I0602 10:01:20.717561 24007 net.cpp:124] Setting up lstm2_x_transform
I0602 10:01:20.717573 24007 net.cpp:131] Top shape: 15 1 400 (6000)
I0602 10:01:20.717583 24007 net.cpp:139] Memory required for data: 31040
I0602 10:01:20.717594 24007 layer_factory.hpp:77] Creating layer lstm2_W_xc_x_slice
I0602 10:01:20.717602 24007 net.cpp:86] Creating Layer lstm2_W_xc_x_slice
I0602 10:01:20.717610 24007 net.cpp:408] lstm2_W_xc_x_slice <- W_xc_x
I0602 10:01:20.717618 24007 net.cpp:382] lstm2_W_xc_x_slice -> W_xc_x_1
I0602 10:01:20.717628 24007 net.cpp:382] lstm2_W_xc_x_slice -> W_xc_x_2
…
I0602 10:01:20.727872 24007 net.cpp:202] lstm2_ does not need backward computation.
I0602 10:01:20.727880 24007 net.cpp:244] This network produces output c_T
I0602 10:01:20.727887 24007 net.cpp:244] This network produces output h_pseudoloss
I0602 10:01:20.727962 24007 net.cpp:257] Network initialization done.
I0602 10:01:20.728078 24007 recurrent_layer.cpp:150] Adding parameter 0: W_xc
I0602 10:01:20.728086 24007 recurrent_layer.cpp:150] Adding parameter 1: b_c
I0602 10:01:20.728092 24007 recurrent_layer.cpp:150] Adding parameter 2: W_hc
I0602 10:01:20.728160 24007 net.cpp:124] Setting up lstm2
I0602 10:01:20.728169 24007 net.cpp:131] Top shape: 15 1 100 (1500)
I0602 10:01:20.728176 24007 net.cpp:139] Memory required for data: 40021060
I0602 10:01:20.728185 24007 layer_factory.hpp:77] Creating layer fc1
I0602 10:01:20.728193 24007 net.cpp:86] Creating Layer fc1
I0602 10:01:20.728199 24007 net.cpp:408] fc1 <- lstm2
I0602 10:01:20.728209 24007 net.cpp:382] fc1 -> fc1
I0602 10:01:20.728289 24007 net.cpp:124] Setting up fc1
I0602 10:01:20.728297 24007 net.cpp:131] Top shape: 15 1 100 (1500)
I0602 10:01:20.728305 24007 net.cpp:139] Memory required for data: 40027060
I0602 10:01:20.728314 24007 layer_factory.hpp:77] Creating layer fc2
I0602 10:01:20.728323 24007 net.cpp:86] Creating Layer fc2
I0602 10:01:20.728329 24007 net.cpp:408] fc2 <- fc1
I0602 10:01:20.728338 24007 net.cpp:382] fc2 -> fc2
I0602 10:01:20.728356 24007 net.cpp:124] Setting up fc2
I0602 10:01:20.728364 24007 net.cpp:131] Top shape: 15 1 11 (165)
I0602 10:01:20.728369 24007 net.cpp:139] Memory required for data: 40027720
I0602 10:01:20.728376 24007 layer_factory.hpp:77] Creating layer rev1
I0602 10:01:20.728386 24007 net.cpp:86] Creating Layer rev1
I0602 10:01:20.728394 24007 net.cpp:408] rev1 <- permuted_data_permuted_data_0_split_1
I0602 10:01:20.728401 24007 net.cpp:382] rev1 -> rev_data
I0602 10:01:20.728410 24007 net.cpp:124] Setting up rev1
I0602 10:01:20.728417 24007 net.cpp:131] Top shape: 15 1 512 6 (46080)
I0602 10:01:20.728423 24007 net.cpp:139] Memory required for data: 40212040
I0602 10:01:20.728430 24007 layer_factory.hpp:77] Creating layer lstm3
I0602 10:01:20.728437 24007 net.cpp:86] Creating Layer lstm3
I0602 10:01:20.728443 24007 net.cpp:408] lstm3 <- rev_data
I0602 10:01:20.728451 24007 net.cpp:408] lstm3 <- indicator_indicator_0_split_2
I0602 10:01:20.728457 24007 net.cpp:382] lstm3 -> lstm3
I0602 10:01:20.728469 24007 recurrent_layer.cpp:20] Initializing recurrent layer: assuming input batch contains 15 timesteps of 1 independent streams.
I0602 10:01:20.728847 24007 net.cpp:53] Initializing net from parameters: 
layer {
  name: "lstm3_"
  type: "Input"
  top: "x"
  top: "cont"
  input_param {
    shape {
      dim: 15
      dim: 1
      dim: 512
      dim: 6
    }
    shape {
      dim: 15
      dim: 1
    }
  }
}
layer {
  name: "lstm3_"
  type: "Input"
  top: "c_0"
  top: "h_0"
  input_param {
    shape {
      dim: 1
      dim: 1
      dim: 100
    }
    shape {
      dim: 1
      dim: 1
      dim: 100
    }
  }
}
layer {
  name: "lstm3_cont_slice"
  type: "Slice"
  bottom: "cont"
  top: "cont_1"
  top: "cont_2"
  top: "cont_3"
  top: "cont_4"
  top: "cont_5"
  top: "cont_6"
  top: "cont_7"
  top: "cont_8"
  top: "cont_9"
  top: "cont_10"
  top: "cont_11"
  top: "cont_12"
  top: "cont_13"
  top: "cont_14"
  top: "cont_15"
  slice_param {
    axis: 0
  }
}
layer {
  name: "lstm3_x_transform"
  type: "InnerProduct"
  bottom: "x"
  top: "W_xc_x"
  param {
    name: "W_xc"
  }
  param {
    name: "b_c"
  }
  propagate_down: true
  inner_product_param {
    num_output: 400
    bias_term: true
    weight_filler {
      type: "xavier"
    }
    bias_filler {
      type: "constant"
      value: 0
    }
    axis: 2
  }
}
layer {
  name: "lstm3_W_xc_x_slice"
  type: "Slice"
  bottom: "W_xc_x"
  top: "W_xc_x_1"
  top: "W_xc_x_2"
  top: "W_xc_x_3"
  top: "W_xc_x_4"
  top: "W_xc_x_5"
  top: "W_xc_x_6"
  top: "W_xc_x_7"
  top: "W_xc_x_8"
  top: "W_xc_x_9"
  top: "W_xc_x_10"
  top: "W_xc_x_11"
  top: "W_xc_x_12"
  top: "W_xc_x_13"
  top: "W_xc_x_14"
  top: "W_xc_x_15"
  slice_param {
    axis: 0
  }
}
layer {
  name: "lstm3_h_conted_0"
  type: "Scale"
  bottom: "h_0"
  bottom: "cont_1"
  top: "h_conted_0"
  scale_param {
    axis: 0
  }
}
layer {
  name: "lstm3_transform_1"
  type: "InnerProduct"
  bottom: "h_conted_0"
  top: "W_hc_h_0"
  param {
    name: "W_hc"
  }
  inner_product_param {
    num_output: 400
    bias_term: false
    weight_filler {
      type: "xavier"
    }
    axis: 2
  }
}
layer {
  name: "lstm3_gate_input_1"
  type: "Eltwise"
  bottom: "W_hc_h_0"
  bottom: "W_xc_x_1"
  top: "gate_input_1"
  eltwise_param {
    operation: SUM
  }
}
layer {
  name: "lstm3_unit_1"
  type: "LSTMUnit"
  bottom: "c_0"
  bottom: "gate_input_1"
  bottom: "cont_1"
  top: "c_1"
  top: "h_1"
}
layer {
  name: "lstm3_h_conted_1"
  type: "Scale"
  bottom: "h_1"
  bottom: "cont_2"
  top: "h_conted_1"
  scale_param {
    axis: 0
  }
}
layer {
  name: "lstm3_transform_2"
  type: "InnerProduct"
  bottom: "h_conted_1"
  top: "W_hc_h_1"
  param {
    name: "W_hc"
  }
  inner_product_param {
    num_output: 400
    bias_term: false
    weight_filler {
      type: "xavier"
    }
    axis: 2
  }
}
layer {
  name: "lstm3_gate_input_2"
  type: "Eltwise"
  bottom: "W_hc_h_1"
  bottom: "W_xc_x_2"
  top: "gate_input_2"
  eltwise_param {
    operation: SUM
  }
}
layer {
  name: "lstm3_unit_2"
  type: "LSTMUnit"
  bottom: "c_1"
  bottom: "gate_input_2"
  bottom: "cont_2"
  top: "c_2"
  top: "h_2"
}
layer {
  name: "lstm3_h_conted_2"
  type: "Scale"
  bottom: "h_2"
  bottom: "cont_3"
  top: "h_conted_2"
  scale_param {
    axis: 0
  }
}
layer {
  name: "lstm3_transform_3"
  type: "InnerProduct"
  bottom: "h_conted_2"
  top: "W_hc_h_2"
  param {
    name: "W_hc"
  }
  inner_product_param {
    num_output: 400
    bias_term: false
    weight_filler {
      type: "xavier"
    }
    axis: 2
  }
}
layer {
  name: "lstm3_gate_input_3"
  type: "Eltwise"
  bottom: "W_hc_h_2"
  bottom: "W_xc_x_3"
  top: "gate_input_3"
  eltwise_param {
    operation: SUM
  }
}
layer {
  name: "lstm3_unit_3"
  type: "LSTMUnit"
  bottom: "c_2"
  bottom: "gate_input_3"
  bottom: "cont_3"
  top: "c_3"
  top: "h_3"
}
layer {
  name: "lstm3_h_conted_3"
  type: "Scale"
  bottom: "h_3"
  bottom: "cont_4"
  top: "h_conted_3"
  scale_param {
    axis: 0
  }
}
layer {
  name: "lstm3_transform_4"
  type: "InnerProduct"
  bottom: "h_conted_3"
  top: "W_hc_h_3"
  param {
    name: "W_hc"
  }
  inner_product_param {
    num_output: 400
    bias_term: false
    weight_filler {
      type: "xavier"
    }
    axis: 2
  }
}
layer {
  name: "lstm3_gate_input_4"
  type: "Eltwise"
  bottom: "W_hc_h_3"
  bottom: "W_xc_x_4"
  top: "gate_input_4"
  eltwise_param {
    operation: SUM
  }
}
layer {
  name: "lstm3_unit_4"
  type: "LSTMUnit"
  bottom: "c_3"
  bottom: "gate_input_4"
  bottom: "cont_4"
  top: "c_4"
  top: "h_4"
}
layer {
  name: "lstm3_h_conted_4"
  type: "Scale"
  bottom: "h_4"
  bottom: "cont_5"
  top: "h_conted_4"
  scale_param {
    axis: 0
  }
}
layer {
  name: "lstm3_transform_5"
  type: "InnerProduct"
  bottom: "h_conted_4"
  top: "W_hc_h_4"
  param {
    name: "W_hc"
  }
  inner_product_param {
    num_output: 400
    bias_term: false
    weight_filler {
      type: "xavier"
    }
    axis: 2
  }
}
layer {
  name: "lstm3_gate_input_5"
  type: "Eltwise"
  bottom: "W_hc_h_4"
  bottom: "W_xc_x_5"
  top: "gate_input_5"
  eltwise_param {
    operation: SUM
  }
}
layer {
  name: "lstm3_unit_5"
  type: "LSTMUnit"
  bottom: "c_4"
  bottom: "gate_input_5"
  bottom: "cont_5"
  top: "c_5"
  top: "h_5"
}
layer {
  name: "lstm3_h_conted_5"
  type: "Scale"
  bottom: "h_5"
  bottom: "cont_6"
  top: "h_conted_5"
  scale_param {
    axis: 0
  }
}
layer {
  name: "lstm3_transform_6"
  type: "InnerProduct"
  bottom: "h_conted_5"
  top: "W_hc_h_5"
  param {
    name: "W_hc"
  }
  inner_product_param {
    num_output: 400
    bias_term: false
    weight_filler {
      type: "xavier"
    }
    axis: 2
  }
}
layer {
  name: "lstm3_gate_input_6"
  type: "Eltwise"
  bottom: "W_hc_h_5"
  bottom: "W_xc_x_6"
  top: "gate_input_6"
  eltwise_param {
    operation: SUM
  }
}
layer {
  name: "lstm3_unit_6"
  type: "LSTMUnit"
  bottom: "c_5"
  bottom: "gate_input_6"
  bottom: "cont_6"
  top: "c_6"
  top: "h_6"
}
layer {
  name: "lstm3_h_conted_6"
  type: "Scale"
  bottom: "h_6"
  bottom: "cont_7"
  top: "h_conted_6"
  scale_param {
    axis: 0
  }
}
layer {
  name: "lstm3_transform_7"
  type: "InnerProduct"
  bottom: "h_conted_6"
  top: "W_hc_h_6"
  param {
    name: "W_hc"
  }
  inner_product_param {
    num_output: 400
    bias_term: false
    weight_filler {
      type: "xavier"
    }
    axis: 2
  }
}
layer {
  name: "lstm3_gate_input_7"
  type: "Eltwise"
  bottom: "W_hc_h_6"
  bottom: "W_xc_x_7"
  top: "gate_input_7"
  eltwise_param {
    operation: SUM
  }
}
layer {
  name: "lstm3_unit_7"
  type: "LSTMUnit"
  bottom: "c_6"
  bottom: "gate_input_7"
  bottom: "cont_7"
  top: "c_7"
  top: "h_7"
}
layer {
  name: "lstm3_h_conted_7"
  type: "Scale"
  bottom: "h_7"
  bottom: "cont_8"
  top: "h_conted_7"
  scale_param {
    axis: 0
  }
}
layer {
  name: "lstm3_transform_8"
  type: "InnerProduct"
  bottom: "h_conted_7"
  top: "W_hc_h_7"
  param {
    name: "W_hc"
  }
  inner_product_param {
    num_output: 400
    bias_term: false
    weight_filler {
      type: "xavier"
    }
    axis: 2
  }
}
layer {
  name: "lstm3_gate_input_8"
  type: "Eltwise"
  bottom: "W_hc_h_7"
  bottom: "W_xc_x_8"
  top: "gate_input_8"
  eltwise_param {
    operation: SUM
  }
}
layer {
  name: "lstm3_unit_8"
  type: "LSTMUnit"
  bottom: "c_7"
  bottom: "gate_input_8"
  bottom: "cont_8"
  top: "c_8"
  top: "h_8"
}
layer {
  name: "lstm3_h_conted_8"
  type: "Scale"
  bottom: "h_8"
  bottom: "cont_9"
  top: "h_conted_8"
  scale_param {
    axis: 0
  }
}
layer {
  name: "lstm3_transform_9"
  type: "InnerProduct"
  bottom: "h_conted_8"
  top: "W_hc_h_8"
  param {
    name: "W_hc"
  }
  inner_product_param {
    num_output: 400
    bias_term: false
    weight_filler {
      type: "xavier"
    }
    axis: 2
  }
}
layer {
  name: "lstm3_gate_input_9"
  type: "Eltwise"
  bottom: "W_hc_h_8"
  bottom: "W_xc_x_9"
  top: "gate_input_9"
  eltwise_param {
    operation: SUM
  }
}
layer {
  name: "lstm3_unit_9"
  type: "LSTMUnit"
  bottom: "c_8"
  bottom: "gate_input_9"
  bottom: "cont_9"
  top: "c_9"
  top: "h_9"
}
layer {
  name: "lstm3_h_conted_9"
  type: "Scale"
  bottom: "h_9"
  bottom: "cont_10"
  top: "h_conted_9"
  scale_param {
    axis: 0
  }
}
layer {
  name: "lstm3_transform_10"
  type: "InnerProduct"
  bottom: "h_conted_9"
  top: "W_hc_h_9"
  param {
    name: "W_hc"
  }
  inner_product_param {
    num_output: 400
    bias_term: false
    weight_filler {
      type: "xavier"
    }
    axis: 2
  }
}
layer {
  name: "lstm3_gate_input_10"
  type: "Eltwise"
  bottom: "W_hc_h_9"
  bottom: "W_xc_x_10"
  top: "gate_input_10"
  eltwise_param {
    operation: SUM
  }
}
layer {
  name: "lstm3_unit_10"
  type: "LSTMUnit"
  bottom: "c_9"
  bottom: "gate_input_10"
  bottom: "cont_10"
  top: "c_10"
  top: "h_10"
}
layer {
  name: "lstm3_h_conted_10"
  type: "Scale"
  bottom: "h_10"
  bottom: "cont_11"
  top: "h_conted_10"
  scale_param {
    axis: 0
  }
}
layer {
  name: "lstm3_transform_11"
  type: "InnerProduct"
  bottom: "h_conted_10"
  top: "W_hc_h_10"
  param {
    name: "W_hc"
  }
  inner_product_param {
    num_output: 400
    bias_term: false
    weight_filler {
      type: "xavier"
    }
    axis: 2
  }
}
layer {
  name: "lstm3_gate_input_11"
  type: "Eltwise"
  bottom: "W_hc_h_10"
  bottom: "W_xc_x_11"
  top: "gate_input_11"
  eltwise_param {
    operation: SUM
  }
}
layer {
  name: "lstm3_unit_11"
  type: "LSTMUnit"
  bottom: "c_10"
  bottom: "gate_input_11"
  bottom: "cont_11"
  top: "c_11"
  top: "h_11"
}
layer {
  name: "lstm3_h_conted_11"
  type: "Scale"
  bottom: "h_11"
  bottom: "cont_12"
  top: "h_conted_11"
  scale_param {
    axis: 0
  }
}
layer {
  name: "lstm3_transform_12"
  type: "InnerProduct"
  bottom: "h_conted_11"
  top: "W_hc_h_11"
  param {
    name: "W_hc"
  }
  inner_product_param {
    num_output: 400
    bias_term: false
    weight_filler {
      type: "xavier"
    }
    axis: 2
  }
}
layer {
  name: "lstm3_gate_input_12"
  type: "Eltwise"
  bottom: "W_hc_h_11"
  bottom: "W_xc_x_12"
  top: "gate_input_12"
  eltwise_param {
    operation: SUM
  }
}
layer {
  name: "lstm3_unit_12"
  type: "LSTMUnit"
  bottom: "c_11"
  bottom: "gate_input_12"
  bottom: "cont_12"
  top: "c_12"
  top: "h_12"
}
layer {
  name: "lstm3_h_conted_12"
  type: "Scale"
  bottom: "h_12"
  bottom: "cont_13"
  top: "h_conted_12"
  scale_param {
    axis: 0
  }
}
layer {
  name: "lstm3_transform_13"
  type: "InnerProduct"
  bottom: "h_conted_12"
  top: "W_hc_h_12"
  param {
    name: "W_hc"
  }
  inner_product_param {
    num_output: 400
    bias_term: false
    weight_filler {
      type: "xavier"
    }
    axis: 2
  }
}
layer {
  name: "lstm3_gate_input_13"
  type: "Eltwise"
  bottom: "W_hc_h_12"
  bottom: "W_xc_x_13"
  top: "gate_input_13"
  eltwise_param {
    operation: SUM
  }
}
layer {
  name: "lstm3_unit_13"
  type: "LSTMUnit"
  bottom: "c_12"
  bottom: "gate_input_13"
  bottom: "cont_13"
  top: "c_13"
  top: "h_13"
}
layer {
  name: "lstm3_h_conted_13"
  type: "Scale"
  bottom: "h_13"
  bottom: "cont_14"
  top: "h_conted_13"
  scale_param {
    axis: 0
  }
}
layer {
  name: "lstm3_transform_14"
  type: "InnerProduct"
  bottom: "h_conted_13"
  top: "W_hc_h_13"
  param {
    name: "W_hc"
  }
  inner_product_param {
    num_output: 400
    bias_term: false
    weight_filler {
      type: "xavier"
    }
    axis: 2
  }
}
layer {
  name: "lstm3_gate_input_14"
  type: "Eltwise"
  bottom: "W_hc_h_13"
  bottom: "W_xc_x_14"
  top: "gate_input_14"
  eltwise_param {
    operation: SUM
  }
}
layer {
  name: "lstm3_unit_14"
  type: "LSTMUnit"
  bottom: "c_13"
  bottom: "gate_input_14"
  bottom: "cont_14"
  top: "c_14"
  top: "h_14"
}
layer {
  name: "lstm3_h_conted_14"
  type: "Scale"
  bottom: "h_14"
  bottom: "cont_15"
  top: "h_conted_14"
  scale_param {
    axis: 0
  }
}
layer {
  name: "lstm3_transform_15"
  type: "InnerProduct"
  bottom: "h_conted_14"
  top: "W_hc_h_14"
  param {
    name: "W_hc"
  }
  inner_product_param {
    num_output: 400
    bias_term: false
    weight_filler {
      type: "xavier"
    }
    axis: 2
  }
}
layer {
  name: "lstm3_gate_input_15"
  type: "Eltwise"
  bottom: "W_hc_h_14"
  bottom: "W_xc_x_15"
  top: "gate_input_15"
  eltwise_param {
    operation: SUM
  }
}
layer {
  name: "lstm3_unit_15"
  type: "LSTMUnit"
  bottom: "c_14"
  bottom: "gate_input_15"
  bottom: "cont_15"
  top: "c_15"
  top: "h_15"
}
layer {
  name: "lstm3_"
  type: "Split"
  bottom: "c_15"
  top: "c_T"
}
layer {
  name: "lstm3_h_concat"
  type: "Concat"
  bottom: "h_1"
  bottom: "h_2"
  bottom: "h_3"
  bottom: "h_4"
  bottom: "h_5"
  bottom: "h_6"
  bottom: "h_7"
  bottom: "h_8"
  bottom: "h_9"
  bottom: "h_10"
  bottom: "h_11"
  bottom: "h_12"
  bottom: "h_13"
  bottom: "h_14"
  bottom: "h_15"
  top: "h"
  concat_param {
    axis: 0
  }
}
layer {
  name: "h_pseudoloss"
  type: "Reduction"
  bottom: "h"
  top: "h_pseudoloss"
  loss_weight: 1
}
I0602 10:01:20.729181 24007 layer_factory.hpp:77] Creating layer lstm3_
I0602 10:01:20.729192 24007 net.cpp:86] Creating Layer lstm3_
I0602 10:01:20.729200 24007 net.cpp:382] lstm3_ -> x
I0602 10:01:20.729212 24007 net.cpp:382] lstm3_ -> cont
I0602 10:01:20.729221 24007 net.cpp:124] Setting up lstm3_
I0602 10:01:20.729228 24007 net.cpp:131] Top shape: 15 1 512 6 (46080)
I0602 10:01:20.729235 24007 net.cpp:131] Top shape: 15 1 (15)
I0602 10:01:20.729243 24007 net.cpp:139] Memory required for data: 184380
I0602 10:01:20.729248 24007 layer_factory.hpp:77] Creating layer lstm3_
I0602 10:01:20.729254 24007 net.cpp:86] Creating Layer lstm3_
I0602 10:01:20.729260 24007 net.cpp:382] lstm3_ -> c_0
I0602 10:01:20.729269 24007 net.cpp:382] lstm3_ -> h_0
I0602 10:01:20.729279 24007 net.cpp:124] Setting up lstm3_
I0602 10:01:20.729286 24007 net.cpp:131] Top shape: 1 1 100 (100)
I0602 10:01:20.729292 24007 net.cpp:131] Top shape: 1 1 100 (100)
I0602 10:01:20.729297 24007 net.cpp:139] Memory required for data: 185180
I0602 10:01:20.729302 24007 layer_factory.hpp:77] Creating layer lstm3_cont_slice
I0602 10:01:20.729310 24007 net.cpp:86] Creating Layer lstm3_cont_slice
I0602 10:01:20.729315 24007 net.cpp:408] lstm3_cont_slice <- cont
I0602 10:01:20.729323 24007 net.cpp:382] lstm3_cont_slice -> cont_1
I0602 10:01:20.729334 24007 net.cpp:382] lstm3_cont_slice -> cont_2
I0602 10:01:20.729343 24007 net.cpp:382] lstm3_cont_slice -> cont_3
I0602 10:01:20.729353 24007 net.cpp:382] lstm3_cont_slice -> cont_4
I0602 10:01:20.729362 24007 net.cpp:382] lstm3_cont_slice -> cont_5
I0602 10:01:20.729372 24007 net.cpp:382] lstm3_cont_slice -> cont_6
I0602 10:01:20.729382 24007 net.cpp:382] lstm3_cont_slice -> cont_7
I0602 10:01:20.729389 24007 net.cpp:382] lstm3_cont_slice -> cont_8
I0602 10:01:20.729398 24007 net.cpp:382] lstm3_cont_slice -> cont_9
I0602 10:01:20.729406 24007 net.cpp:382] lstm3_cont_slice -> cont_10
I0602 10:01:20.729416 24007 net.cpp:382] lstm3_cont_slice -> cont_11
I0602 10:01:20.729424 24007 net.cpp:382] lstm3_cont_slice -> cont_12
I0602 10:01:20.729432 24007 net.cpp:382] lstm3_cont_slice -> cont_13
I0602 10:01:20.729440 24007 net.cpp:382] lstm3_cont_slice -> cont_14
I0602 10:01:20.729449 24007 net.cpp:382] lstm3_cont_slice -> cont_15
I0602 10:01:20.729462 24007 net.cpp:124] Setting up lstm3_cont_slice
I0602 10:01:20.729471 24007 net.cpp:131] Top shape: 1 1 (1)
I0602 10:01:20.729477 24007 net.cpp:131] Top shape: 1 1 (1)
I0602 10:01:20.729485 24007 net.cpp:131] Top shape: 1 1 (1)
I0602 10:01:20.729492 24007 net.cpp:131] Top shape: 1 1 (1)
I0602 10:01:20.729498 24007 net.cpp:131] Top shape: 1 1 (1)
I0602 10:01:20.729506 24007 net.cpp:131] Top shape: 1 1 (1)
I0602 10:01:20.729511 24007 net.cpp:131] Top shape: 1 1 (1)
I0602 10:01:20.729517 24007 net.cpp:131] Top shape: 1 1 (1)
I0602 10:01:20.729524 24007 net.cpp:131] Top shape: 1 1 (1)
I0602 10:01:20.729532 24007 net.cpp:131] Top shape: 1 1 (1)
I0602 10:01:20.729538 24007 net.cpp:131] Top shape: 1 1 (1)
I0602 10:01:20.729544 24007 net.cpp:131] Top shape: 1 1 (1)
I0602 10:01:20.729552 24007 net.cpp:131] Top shape: 1 1 (1)
I0602 10:01:20.729558 24007 net.cpp:131] Top shape: 1 1 (1)
I0602 10:01:20.729565 24007 net.cpp:131] Top shape: 1 1 (1)
I0602 10:01:20.729573 24007 net.cpp:139] Memory required for data: 185240
I0602 10:01:20.729578 24007 layer_factory.hpp:77] Creating layer cont_1_lstm3_cont_slice_0_split
I0602 10:01:20.729586 24007 net.cpp:86] Creating Layer cont_1_lstm3_cont_slice_0_split
I0602 10:01:20.729598 24007 net.cpp:408] cont_1_lstm3_cont_slice_0_split <- cont_1
I0602 10:01:20.729609 24007 net.cpp:382] cont_1_lstm3_cont_slice_0_split -> cont_1_lstm3_cont_slice_0_split_0
I0602 10:01:20.729615 24007 net.cpp:382] cont_1_lstm3_cont_slice_0_split -> cont_1_lstm3_cont_slice_0_split_1
I0602 10:01:20.729624 24007 net.cpp:124] Setting up cont_1_lstm3_cont_slice_0_split
I0602 10:01:20.729632 24007 net.cpp:131] Top shape: 1 1 (1)
I0602 10:01:20.729638 24007 net.cpp:131] Top shape: 1 1 (1)
I0602 10:01:20.729645 24007 net.cpp:139] Memory required for data: 185248
I0602 10:01:20.729651 24007 layer_factory.hpp:77] Creating layer cont_2_lstm3_cont_slice_1_split
I0602 10:01:20.729657 24007 net.cpp:86] Creating Layer cont_2_lstm3_cont_slice_1_split
I0602 10:01:20.729665 24007 net.cpp:408] cont_2_lstm3_cont_slice_1_split <- cont_2
I0602 10:01:20.729671 24007 net.cpp:382] cont_2_lstm3_cont_slice_1_split -> cont_2_lstm3_cont_slice_1_split_0
I0602 10:01:20.729681 24007 net.cpp:382] cont_2_lstm3_cont_slice_1_split -> cont_2_lstm3_cont_slice_1_split_1
I0602 10:01:20.729688 24007 net.cpp:124] Setting up cont_2_lstm3_cont_slice_1_split
I0602 10:01:20.729696 24007 net.cpp:131] Top shape: 1 1 (1)
I0602 10:01:20.729702 24007 net.cpp:131] Top shape: 1 1 (1)
I0602 10:01:20.729709 24007 net.cpp:139] Memory required for data: 185256
I0602 10:01:20.729715 24007 layer_factory.hpp:77] Creating layer cont_3_lstm3_cont_slice_2_split
I0602 10:01:20.729722 24007 net.cpp:86] Creating Layer cont_3_lstm3_cont_slice_2_split
I0602 10:01:20.729728 24007 net.cpp:408] cont_3_lstm3_cont_slice_2_split <- cont_3
I0602 10:01:20.729735 24007 net.cpp:382] cont_3_lstm3_cont_slice_2_split -> cont_3_lstm3_cont_slice_2_split_0
I0602 10:01:20.729742 24007 net.cpp:382] cont_3_lstm3_cont_slice_2_split -> cont_3_lstm3_cont_slice_2_split_1
I0602 10:01:20.729750 24007 net.cpp:124] Setting up cont_3_lstm3_cont_slice_2_split
I0602 10:01:20.729758 24007 net.cpp:131] Top shape: 1 1 (1)
I0602 10:01:20.729764 24007 net.cpp:131] Top shape: 1 1 (1)
I0602 10:01:20.729769 24007 net.cpp:139] Memory required for data: 185264
I0602 10:01:20.729775 24007 layer_factory.hpp:77] Creating layer cont_4_lstm3_cont_slice_3_split
I0602 10:01:20.729781 24007 net.cpp:86] Creating Layer cont_4_lstm3_cont_slice_3_split
I0602 10:01:20.729789 24007 net.cpp:408] cont_4_lstm3_cont_slice_3_split <- cont_4
I0602 10:01:20.729795 24007 net.cpp:382] cont_4_lstm3_cont_slice_3_split -> cont_4_lstm3_cont_slice_3_split_0
I0602 10:01:20.729804 24007 net.cpp:382] cont_4_lstm3_cont_slice_3_split -> cont_4_lstm3_cont_slice_3_split_1
I0602 10:01:20.729810 24007 net.cpp:124] Setting up cont_4_lstm3_cont_slice_3_split
I0602 10:01:20.729817 24007 net.cpp:131] Top shape: 1 1 (1)
I0602 10:01:20.729825 24007 net.cpp:131] Top shape: 1 1 (1)
I0602 10:01:20.729832 24007 net.cpp:139] Memory required for data: 185272
I0602 10:01:20.729840 24007 layer_factory.hpp:77] Creating layer cont_5_lstm3_cont_slice_4_split
I0602 10:01:20.729847 24007 net.cpp:86] Creating Layer cont_5_lstm3_cont_slice_4_split
I0602 10:01:20.729856 24007 net.cpp:408] cont_5_lstm3_cont_slice_4_split <- cont_5
I0602 10:01:20.729861 24007 net.cpp:382] cont_5_lstm3_cont_slice_4_split -> cont_5_lstm3_cont_slice_4_split_0
I0602 10:01:20.729871 24007 net.cpp:382] cont_5_lstm3_cont_slice_4_split -> cont_5_lstm3_cont_slice_4_split_1
I0602 10:01:20.729877 24007 net.cpp:124] Setting up cont_5_lstm3_cont_slice_4_split
I0602 10:01:20.729884 24007 net.cpp:131] Top shape: 1 1 (1)
I0602 10:01:20.729890 24007 net.cpp:131] Top shape: 1 1 (1)
I0602 10:01:20.729897 24007 net.cpp:139] Memory required for data: 185280
I0602 10:01:20.729903 24007 layer_factory.hpp:77] Creating layer cont_6_lstm3_cont_slice_5_split
I0602 10:01:20.729912 24007 net.cpp:86] Creating Layer cont_6_lstm3_cont_slice_5_split
I0602 10:01:20.729918 24007 net.cpp:408] cont_6_lstm3_cont_slice_5_split <- cont_6
I0602 10:01:20.729924 24007 net.cpp:382] cont_6_lstm3_cont_slice_5_split -> cont_6_lstm3_cont_slice_5_split_0
I0602 10:01:20.729931 24007 net.cpp:382] cont_6_lstm3_cont_slice_5_split -> cont_6_lstm3_cont_slice_5_split_1
I0602 10:01:20.729943 24007 net.cpp:124] Setting up cont_6_lstm3_cont_slice_5_split
I0602 10:01:20.729954 24007 net.cpp:131] Top shape: 1 1 (1)
I0602 10:01:20.729960 24007 net.cpp:131] Top shape: 1 1 (1)
I0602 10:01:20.729966 24007 net.cpp:139] Memory required for data: 185288
I0602 10:01:20.729974 24007 layer_factory.hpp:77] Creating layer cont_7_lstm3_cont_slice_6_split
I0602 10:01:20.729980 24007 net.cpp:86] Creating Layer cont_7_lstm3_cont_slice_6_split
I0602 10:01:20.729984 24007 net.cpp:408] cont_7_lstm3_cont_slice_6_split <- cont_7
I0602 10:01:20.729992 24007 net.cpp:382] cont_7_lstm3_cont_slice_6_split -> cont_7_lstm3_cont_slice_6_split_0
I0602 10:01:20.730000 24007 net.cpp:382] cont_7_lstm3_cont_slice_6_split -> cont_7_lstm3_cont_slice_6_split_1
I0602 10:01:20.730008 24007 net.cpp:124] Setting up cont_7_lstm3_cont_slice_6_split
I0602 10:01:20.730016 24007 net.cpp:131] Top shape: 1 1 (1)
I0602 10:01:20.730023 24007 net.cpp:131] Top shape: 1 1 (1)
I0602 10:01:20.730031 24007 net.cpp:139] Memory required for data: 185296
I0602 10:01:20.730037 24007 layer_factory.hpp:77] Creating layer cont_8_lstm3_cont_slice_7_split
I0602 10:01:20.730044 24007 net.cpp:86] Creating Layer cont_8_lstm3_cont_slice_7_split
I0602 10:01:20.730049 24007 net.cpp:408] cont_8_lstm3_cont_slice_7_split <- cont_8
I0602 10:01:20.730057 24007 net.cpp:382] cont_8_lstm3_cont_slice_7_split -> cont_8_lstm3_cont_slice_7_split_0
I0602 10:01:20.730065 24007 net.cpp:382] cont_8_lstm3_cont_slice_7_split -> cont_8_lstm3_cont_slice_7_split_1
I0602 10:01:20.730073 24007 net.cpp:124] Setting up cont_8_lstm3_cont_slice_7_split
I0602 10:01:20.730080 24007 net.cpp:131] Top shape: 1 1 (1)
I0602 10:01:20.730087 24007 net.cpp:131] Top shape: 1 1 (1)
I0602 10:01:20.730094 24007 net.cpp:139] Memory required for data: 185304
I0602 10:01:20.730099 24007 layer_factory.hpp:77] Creating layer cont_9_lstm3_cont_slice_8_split
I0602 10:01:20.730106 24007 net.cpp:86] Creating Layer cont_9_lstm3_cont_slice_8_split
I0602 10:01:20.730111 24007 net.cpp:408] cont_9_lstm3_cont_slice_8_split <- cont_9
I0602 10:01:20.730118 24007 net.cpp:382] cont_9_lstm3_cont_slice_8_split -> cont_9_lstm3_cont_slice_8_split_0
I0602 10:01:20.730124 24007 net.cpp:382] cont_9_lstm3_cont_slice_8_split -> cont_9_lstm3_cont_slice_8_split_1
I0602 10:01:20.730132 24007 net.cpp:124] Setting up cont_9_lstm3_cont_slice_8_split
I0602 10:01:20.730140 24007 net.cpp:131] Top shape: 1 1 (1)
I0602 10:01:20.730146 24007 net.cpp:131] Top shape: 1 1 (1)
I0602 10:01:20.730151 24007 net.cpp:139] Memory required for data: 185312
I0602 10:01:20.730157 24007 layer_factory.hpp:77] Creating layer cont_10_lstm3_cont_slice_9_split
I0602 10:01:20.730164 24007 net.cpp:86] Creating Layer cont_10_lstm3_cont_slice_9_split
I0602 10:01:20.730170 24007 net.cpp:408] cont_10_lstm3_cont_slice_9_split <- cont_10
I0602 10:01:20.730176 24007 net.cpp:382] cont_10_lstm3_cont_slice_9_split -> cont_10_lstm3_cont_slice_9_split_0
I0602 10:01:20.730185 24007 net.cpp:382] cont_10_lstm3_cont_slice_9_split -> cont_10_lstm3_cont_slice_9_split_1
I0602 10:01:20.730191 24007 net.cpp:124] Setting up cont_10_lstm3_cont_slice_9_split
I0602 10:01:20.730199 24007 net.cpp:131] Top shape: 1 1 (1)
I0602 10:01:20.730206 24007 net.cpp:131] Top shape: 1 1 (1)
I0602 10:01:20.730212 24007 net.cpp:139] Memory required for data: 185320
I0602 10:01:20.730218 24007 layer_factory.hpp:77] Creating layer cont_11_lstm3_cont_slice_10_split
I0602 10:01:20.730226 24007 net.cpp:86] Creating Layer cont_11_lstm3_cont_slice_10_split
I0602 10:01:20.730233 24007 net.cpp:408] cont_11_lstm3_cont_slice_10_split <- cont_11
I0602 10:01:20.730242 24007 net.cpp:382] cont_11_lstm3_cont_slice_10_split -> cont_11_lstm3_cont_slice_10_split_0
I0602 10:01:20.730250 24007 net.cpp:382] cont_11_lstm3_cont_slice_10_split -> cont_11_lstm3_cont_slice_10_split_1
I0602 10:01:20.730258 24007 net.cpp:124] Setting up cont_11_lstm3_cont_slice_10_split
I0602 10:01:20.730267 24007 net.cpp:131] Top shape: 1 1 (1)
I0602 10:01:20.730271 24007 net.cpp:131] Top shape: 1 1 (1)
I0602 10:01:20.730278 24007 net.cpp:139] Memory required for data: 185328
I0602 10:01:20.730288 24007 layer_factory.hpp:77] Creating layer cont_12_lstm3_cont_slice_11_split
I0602 10:01:20.730296 24007 net.cpp:86] Creating Layer cont_12_lstm3_cont_slice_11_split
I0602 10:01:20.730303 24007 net.cpp:408] cont_12_lstm3_cont_slice_11_split <- cont_12
I0602 10:01:20.730309 24007 net.cpp:382] cont_12_lstm3_cont_slice_11_split -> cont_12_lstm3_cont_slice_11_split_0
I0602 10:01:20.730316 24007 net.cpp:382] cont_12_lstm3_cont_slice_11_split -> cont_12_lstm3_cont_slice_11_split_1
I0602 10:01:20.730326 24007 net.cpp:124] Setting up cont_12_lstm3_cont_slice_11_split
I0602 10:01:20.730334 24007 net.cpp:131] Top shape: 1 1 (1)
I0602 10:01:20.730341 24007 net.cpp:131] Top shape: 1 1 (1)
I0602 10:01:20.730348 24007 net.cpp:139] Memory required for data: 185336
I0602 10:01:20.730355 24007 layer_factory.hpp:77] Creating layer cont_13_lstm3_cont_slice_12_split
I0602 10:01:20.730360 24007 net.cpp:86] Creating Layer cont_13_lstm3_cont_slice_12_split
I0602 10:01:20.730366 24007 net.cpp:408] cont_13_lstm3_cont_slice_12_split <- cont_13
I0602 10:01:20.730374 24007 net.cpp:382] cont_13_lstm3_cont_slice_12_split -> cont_13_lstm3_cont_slice_12_split_0
I0602 10:01:20.730381 24007 net.cpp:382] cont_13_lstm3_cont_slice_12_split -> cont_13_lstm3_cont_slice_12_split_1
I0602 10:01:20.730389 24007 net.cpp:124] Setting up cont_13_lstm3_cont_slice_12_split
I0602 10:01:20.730396 24007 net.cpp:131] Top shape: 1 1 (1)
I0602 10:01:20.730403 24007 net.cpp:131] Top shape: 1 1 (1)
I0602 10:01:20.730412 24007 net.cpp:139] Memory required for data: 185344
I0602 10:01:20.730418 24007 layer_factory.hpp:77] Creating layer cont_14_lstm3_cont_slice_13_split
I0602 10:01:20.730425 24007 net.cpp:86] Creating Layer cont_14_lstm3_cont_slice_13_split
I0602 10:01:20.730432 24007 net.cpp:408] cont_14_lstm3_cont_slice_13_split <- cont_14
I0602 10:01:20.730438 24007 net.cpp:382] cont_14_lstm3_cont_slice_13_split -> cont_14_lstm3_cont_slice_13_split_0
I0602 10:01:20.730446 24007 net.cpp:382] cont_14_lstm3_cont_slice_13_split -> cont_14_lstm3_cont_slice_13_split_1
I0602 10:01:20.730456 24007 net.cpp:124] Setting up cont_14_lstm3_cont_slice_13_split
I0602 10:01:20.730463 24007 net.cpp:131] Top shape: 1 1 (1)
I0602 10:01:20.730469 24007 net.cpp:131] Top shape: 1 1 (1)
I0602 10:01:20.730475 24007 net.cpp:139] Memory required for data: 185352
I0602 10:01:20.730482 24007 layer_factory.hpp:77] Creating layer cont_15_lstm3_cont_slice_14_split
I0602 10:01:20.730489 24007 net.cpp:86] Creating Layer cont_15_lstm3_cont_slice_14_split
I0602 10:01:20.730495 24007 net.cpp:408] cont_15_lstm3_cont_slice_14_split <- cont_15
I0602 10:01:20.730502 24007 net.cpp:382] cont_15_lstm3_cont_slice_14_split -> cont_15_lstm3_cont_slice_14_split_0
I0602 10:01:20.730509 24007 net.cpp:382] cont_15_lstm3_cont_slice_14_split -> cont_15_lstm3_cont_slice_14_split_1
I0602 10:01:20.730516 24007 net.cpp:124] Setting up cont_15_lstm3_cont_slice_14_split
I0602 10:01:20.730525 24007 net.cpp:131] Top shape: 1 1 (1)
I0602 10:01:20.730531 24007 net.cpp:131] Top shape: 1 1 (1)
I0602 10:01:20.730538 24007 net.cpp:139] Memory required for data: 185360
I0602 10:01:20.730543 24007 layer_factory.hpp:77] Creating layer lstm3_x_transform
I0602 10:01:20.730551 24007 net.cpp:86] Creating Layer lstm3_x_transform
I0602 10:01:20.730556 24007 net.cpp:408] lstm3_x_transform <- x
I0602 10:01:20.730563 24007 net.cpp:382] lstm3_x_transform -> W_xc_x
I0602 10:01:21.056673 24007 net.cpp:124] Setting up lstm3_x_transform
I0602 10:01:21.056711 24007 net.cpp:131] Top shape: 15 1 400 (6000)
I0602 10:01:21.056718 24007 net.cpp:139] Memory required for data: 209360
I0602 10:01:21.056735 24007 layer_factory.hpp:77] Creating layer lstm3_W_xc_x_slice
I0602 10:01:21.056751 24007 net.cpp:86] Creating Layer lstm3_W_xc_x_slice
I0602 10:01:21.056758 24007 net.cpp:408] lstm3_W_xc_x_slice <- W_xc_x
I0602 10:01:21.056768 24007 net.cpp:382] lstm3_W_xc_x_slice -> W_xc_x_1
I0602 10:01:21.056780 24007 net.cpp:382] lstm3_W_xc_x_slice -> W_xc_x_2
…
I0602 10:01:21.080611 24007 net.cpp:202] lstm4_ does not need backward computation.
I0602 10:01:21.080617 24007 net.cpp:244] This network produces output c_T
I0602 10:01:21.080626 24007 net.cpp:244] This network produces output h_pseudoloss
I0602 10:01:21.080703 24007 net.cpp:257] Network initialization done.
I0602 10:01:21.080821 24007 recurrent_layer.cpp:150] Adding parameter 0: W_xc
I0602 10:01:21.080829 24007 recurrent_layer.cpp:150] Adding parameter 1: b_c
I0602 10:01:21.080837 24007 recurrent_layer.cpp:150] Adding parameter 2: W_hc
I0602 10:01:21.080914 24007 net.cpp:124] Setting up lstm4
I0602 10:01:21.080924 24007 net.cpp:131] Top shape: 15 1 100 (1500)
I0602 10:01:21.080930 24007 net.cpp:139] Memory required for data: 40224040
I0602 10:01:21.080940 24007 layer_factory.hpp:77] Creating layer fc3
I0602 10:01:21.080953 24007 net.cpp:86] Creating Layer fc3
I0602 10:01:21.080966 24007 net.cpp:408] fc3 <- lstm4
I0602 10:01:21.080977 24007 net.cpp:382] fc3 -> fc3
I0602 10:01:21.081059 24007 net.cpp:124] Setting up fc3
I0602 10:01:21.081068 24007 net.cpp:131] Top shape: 15 1 100 (1500)
I0602 10:01:21.081075 24007 net.cpp:139] Memory required for data: 40230040
I0602 10:01:21.081084 24007 layer_factory.hpp:77] Creating layer fc4
I0602 10:01:21.081094 24007 net.cpp:86] Creating Layer fc4
I0602 10:01:21.081101 24007 net.cpp:408] fc4 <- fc3
I0602 10:01:21.081110 24007 net.cpp:382] fc4 -> fc4
I0602 10:01:21.081130 24007 net.cpp:124] Setting up fc4
I0602 10:01:21.081138 24007 net.cpp:131] Top shape: 15 1 11 (165)
I0602 10:01:21.081145 24007 net.cpp:139] Memory required for data: 40230700
I0602 10:01:21.081151 24007 layer_factory.hpp:77] Creating layer rev2
I0602 10:01:21.081161 24007 net.cpp:86] Creating Layer rev2
I0602 10:01:21.081166 24007 net.cpp:408] rev2 <- fc4
I0602 10:01:21.081172 24007 net.cpp:382] rev2 -> rev2
I0602 10:01:21.081182 24007 net.cpp:124] Setting up rev2
I0602 10:01:21.081188 24007 net.cpp:131] Top shape: 15 1 11 (165)
I0602 10:01:21.081195 24007 net.cpp:139] Memory required for data: 40231360
I0602 10:01:21.081202 24007 layer_factory.hpp:77] Creating layer eltwise-sum
I0602 10:01:21.081209 24007 net.cpp:86] Creating Layer eltwise-sum
I0602 10:01:21.081215 24007 net.cpp:408] eltwise-sum <- fc2
I0602 10:01:21.081223 24007 net.cpp:408] eltwise-sum <- rev2
I0602 10:01:21.081231 24007 net.cpp:382] eltwise-sum -> sum
I0602 10:01:21.081239 24007 net.cpp:124] Setting up eltwise-sum
I0602 10:01:21.081245 24007 net.cpp:131] Top shape: 15 1 11 (165)
I0602 10:01:21.081252 24007 net.cpp:139] Memory required for data: 40232020
I0602 10:01:21.081259 24007 layer_factory.hpp:77] Creating layer sum_eltwise-sum_0_split
I0602 10:01:21.081266 24007 net.cpp:86] Creating Layer sum_eltwise-sum_0_split
I0602 10:01:21.081272 24007 net.cpp:408] sum_eltwise-sum_0_split <- sum
I0602 10:01:21.081279 24007 net.cpp:382] sum_eltwise-sum_0_split -> sum_eltwise-sum_0_split_0
I0602 10:01:21.081290 24007 net.cpp:382] sum_eltwise-sum_0_split -> sum_eltwise-sum_0_split_1
I0602 10:01:21.081300 24007 net.cpp:124] Setting up sum_eltwise-sum_0_split
I0602 10:01:21.081307 24007 net.cpp:131] Top shape: 15 1 11 (165)
I0602 10:01:21.081315 24007 net.cpp:131] Top shape: 15 1 11 (165)
I0602 10:01:21.081320 24007 net.cpp:139] Memory required for data: 40233340
I0602 10:01:21.081326 24007 layer_factory.hpp:77] Creating layer ctc_loss
I0602 10:01:21.081333 24007 net.cpp:86] Creating Layer ctc_loss
I0602 10:01:21.081339 24007 net.cpp:408] ctc_loss <- sum_eltwise-sum_0_split_0
I0602 10:01:21.081346 24007 net.cpp:408] ctc_loss <- label_data_1_split_0
I0602 10:01:21.081354 24007 net.cpp:382] ctc_loss -> ctc_loss
I0602 10:01:21.081374 24007 net.cpp:124] Setting up ctc_loss
I0602 10:01:21.081382 24007 net.cpp:131] Top shape: (1)
I0602 10:01:21.081388 24007 net.cpp:134]     with loss weight 1
I0602 10:01:21.081396 24007 net.cpp:139] Memory required for data: 40233344
I0602 10:01:21.081403 24007 layer_factory.hpp:77] Creating layer permute_fc
I0602 10:01:21.081410 24007 net.cpp:86] Creating Layer permute_fc
I0602 10:01:21.081418 24007 net.cpp:408] permute_fc <- sum_eltwise-sum_0_split_1
I0602 10:01:21.081424 24007 net.cpp:382] permute_fc -> premuted_fc
I0602 10:01:21.081439 24007 net.cpp:124] Setting up permute_fc
I0602 10:01:21.081447 24007 net.cpp:131] Top shape: 1 15 11 (165)
I0602 10:01:21.081452 24007 net.cpp:139] Memory required for data: 40234004
I0602 10:01:21.081459 24007 layer_factory.hpp:77] Creating layer accuracy
I0602 10:01:21.081466 24007 net.cpp:86] Creating Layer accuracy
I0602 10:01:21.081473 24007 net.cpp:408] accuracy <- premuted_fc
I0602 10:01:21.081480 24007 net.cpp:408] accuracy <- label_data_1_split_1
I0602 10:01:21.081488 24007 net.cpp:382] accuracy -> accuracy
…
