…
I0602 14:12:06.997074 30558 net.cpp:296] The NetState phase (1) differed from the phase (0) specified by a rule in layer data
I0602 14:12:06.997154 30558 net.cpp:296] The NetState phase (1) differed from the phase (0) specified by a rule in layer indicator
I0602 14:12:06.997563 30558 net.cpp:53] Initializing net from parameters: 
name: "resnet_bilstm_ctc_net"
state {
  phase: TEST
  level: 0
  stage: ""
}
layer {
  name: "data"
  type: "HDF5Data"
  top: "data"
  top: "label"
  include {
    phase: TEST
  }
  hdf5_data_param {
    source: "/home/hjzhan/caffe/examples/hds/carb/testing.list"
    batch_size: 1
  }
}
layer {
  name: "data_bn"
  type: "BatchNorm"
  bottom: "data"
  top: "data_bn"
}
layer {
  name: "data_scale"
  type: "Scale"
  bottom: "data_bn"
  top: "data_bn"
  param {
    lr_mult: 1
    decay_mult: 1
  }
  param {
    lr_mult: 2
    decay_mult: 1
  }
  scale_param {
    bias_term: true
  }
}
layer {
  name: "conv1"
  type: "Convolution"
  bottom: "data_bn"
  top: "conv1"
  param {
    lr_mult: 1
    decay_mult: 1
  }
  param {
    lr_mult: 2
    decay_mult: 1
  }
  convolution_param {
    num_output: 64
    pad: 1
    kernel_size: 5
    stride: 1
    weight_filler {
      type: "msra"
      variance_norm: FAN_OUT
    }
    bias_filler {
      type: "constant"
      value: 0
    }
  }
}
layer {
  name: "conv1_bn"
  type: "BatchNorm"
  bottom: "conv1"
  top: "conv1"
}
layer {
  name: "conv1_scale"
  type: "Scale"
  bottom: "conv1"
  top: "conv1"
  param {
    lr_mult: 1
    decay_mult: 1
  }
  param {
    lr_mult: 2
    decay_mult: 1
  }
  scale_param {
    bias_term: true
  }
}
layer {
  name: "conv1_relu"
  type: "ReLU"
  bottom: "conv1"
  top: "conv1"
}
layer {
  name: "conv1_pool"
  type: "Pooling"
  bottom: "conv1"
  top: "conv1_pool"
  pooling_param {
    kernel_size: 3
    stride: 1
  }
}
layer {
  name: "layer_64_1_conv1"
  type: "Convolution"
  bottom: "conv1_pool"
  top: "layer_64_1_conv1"
  param {
    lr_mult: 1
    decay_mult: 1
  }
  convolution_param {
    num_output: 64
    bias_term: false
    pad: 1
    kernel_size: 3
    stride: 1
    weight_filler {
      type: "msra"
    }
    bias_filler {
      type: "constant"
      value: 0
    }
  }
}
layer {
  name: "layer_64_1_bn2"
  type: "BatchNorm"
  bottom: "layer_64_1_conv1"
  top: "layer_64_1_conv1"
}
layer {
  name: "layer_64_1_scale2"
  type: "Scale"
  bottom: "layer_64_1_conv1"
  top: "layer_64_1_conv1"
  param {
    lr_mult: 1
    decay_mult: 1
  }
  param {
    lr_mult: 2
    decay_mult: 1
  }
  scale_param {
    bias_term: true
  }
}
layer {
  name: "layer_64_1_relu2"
  type: "ReLU"
  bottom: "layer_64_1_conv1"
  top: "layer_64_1_conv1"
}
layer {
  name: "layer_64_1_conv2"
  type: "Convolution"
  bottom: "layer_64_1_conv1"
  top: "layer_64_1_conv2"
  param {
    lr_mult: 1
    decay_mult: 1
  }
  convolution_param {
    num_output: 64
    bias_term: false
    pad: 1
    kernel_size: 3
    stride: 1
    weight_filler {
      type: "msra"
    }
    bias_filler {
      type: "constant"
      value: 0
    }
  }
}
layer {
  name: "layer_64_1_sum"
  type: "Eltwise"
  bottom: "layer_64_1_conv2"
  bottom: "conv1_pool"
  top: "layer_64_1_sum"
}
layer {
  name: "layer_128_1_bn1"
  type: "BatchNorm"
  bottom: "layer_64_1_sum"
  top: "layer_128_1_bn1"
}
layer {
  name: "layer_128_1_scale1"
  type: "Scale"
  bottom: "layer_128_1_bn1"
  top: "layer_128_1_bn1"
  param {
    lr_mult: 1
    decay_mult: 1
  }
  param {
    lr_mult: 2
    decay_mult: 1
  }
  scale_param {
    bias_term: true
  }
}
layer {
  name: "layer_128_1_relu1"
  type: "ReLU"
  bottom: "layer_128_1_bn1"
  top: "layer_128_1_bn1"
}
layer {
  name: "layer_128_1_conv1"
  type: "Convolution"
  bottom: "layer_128_1_bn1"
  top: "layer_128_1_conv1"
  param {
    lr_mult: 1
    decay_mult: 1
  }
  convolution_param {
    num_output: 128
    bias_term: false
    pad: 1
    kernel_size: 3
    stride: 2
    weight_filler {
      type: "msra"
    }
    bias_filler {
      type: "constant"
      value: 0
    }
  }
}
layer {
  name: "layer_128_1_bn2"
  type: "BatchNorm"
  bottom: "layer_128_1_conv1"
  top: "layer_128_1_conv1"
}
layer {
  name: "layer_128_1_scale2"
  type: "Scale"
  bottom: "layer_128_1_conv1"
  top: "layer_128_1_conv1"
  param {
    lr_mult: 1
    decay_mult: 1
  }
  param {
    lr_mult: 2
    decay_mult: 1
  }
  scale_param {
    bias_term: true
  }
}
layer {
  name: "layer_128_1_relu2"
  type: "ReLU"
  bottom: "layer_128_1_conv1"
  top: "layer_128_1_conv1"
}
layer {
  name: "layer_128_1_conv2"
  type: "Convolution"
  bottom: "layer_128_1_conv1"
  top: "layer_128_1_conv2"
  param {
    lr_mult: 1
    decay_mult: 1
  }
  convolution_param {
    num_output: 128
    bias_term: false
    pad: 1
    kernel_size: 3
    stride: 1
    weight_filler {
      type: "msra"
    }
    bias_filler {
      type: "constant"
      value: 0
    }
  }
}
layer {
  name: "layer_128_1_conv_expand"
  type: "Convolution"
  bottom: "layer_128_1_bn1"
  top: "layer_128_1_conv_expand"
  param {
    lr_mult: 1
    decay_mult: 1
  }
  convolution_param {
    num_output: 128
    bias_term: false
    pad: 0
    kernel_size: 1
    stride: 2
    weight_filler {
      type: "msra"
    }
    bias_filler {
      type: "constant"
      value: 0
    }
  }
}
layer {
  name: "layer_128_1_sum"
  type: "Eltwise"
  bottom: "layer_128_1_conv2"
  bottom: "layer_128_1_conv_expand"
  top: "layer_128_1_sum"
}
layer {
  name: "layer_256_1_bn1"
  type: "BatchNorm"
  bottom: "layer_128_1_sum"
  top: "layer_256_1_bn1"
}
layer {
  name: "layer_256_1_scale1"
  type: "Scale"
  bottom: "layer_256_1_bn1"
  top: "layer_256_1_bn1"
  param {
    lr_mult: 1
    decay_mult: 1
  }
  param {
    lr_mult: 2
    decay_mult: 1
  }
  scale_param {
    bias_term: true
  }
}
layer {
  name: "layer_256_1_relu1"
  type: "ReLU"
  bottom: "layer_256_1_bn1"
  top: "layer_256_1_bn1"
}
layer {
  name: "layer_256_1_conv1"
  type: "Convolution"
  bottom: "layer_256_1_bn1"
  top: "layer_256_1_conv1"
  param {
    lr_mult: 1
    decay_mult: 1
  }
  convolution_param {
    num_output: 256
    bias_term: false
    pad: 1
    kernel_size: 3
    stride: 2
    weight_filler {
      type: "msra"
    }
    bias_filler {
      type: "constant"
      value: 0
    }
  }
}
layer {
  name: "layer_256_1_bn2"
  type: "BatchNorm"
  bottom: "layer_256_1_conv1"
  top: "layer_256_1_conv1"
}
layer {
  name: "layer_256_1_scale2"
  type: "Scale"
  bottom: "layer_256_1_conv1"
  top: "layer_256_1_conv1"
  param {
    lr_mult: 1
    decay_mult: 1
  }
  param {
    lr_mult: 2
    decay_mult: 1
  }
  scale_param {
    bias_term: true
  }
}
layer {
  name: "layer_256_1_relu2"
  type: "ReLU"
  bottom: "layer_256_1_conv1"
  top: "layer_256_1_conv1"
}
layer {
  name: "layer_256_1_conv2"
  type: "Convolution"
  bottom: "layer_256_1_conv1"
  top: "layer_256_1_conv2"
  param {
    lr_mult: 1
    decay_mult: 1
  }
  convolution_param {
    num_output: 256
    bias_term: false
    pad: 1
    kernel_size: 3
    stride: 1
    weight_filler {
      type: "msra"
    }
    bias_filler {
      type: "constant"
      value: 0
    }
  }
}
layer {
  name: "layer_256_1_conv_expand"
  type: "Convolution"
  bottom: "layer_256_1_bn1"
  top: "layer_256_1_conv_expand"
  param {
    lr_mult: 1
    decay_mult: 1
  }
  convolution_param {
    num_output: 256
    bias_term: false
    pad: 0
    kernel_size: 1
    stride: 2
    weight_filler {
      type: "msra"
    }
    bias_filler {
      type: "constant"
      value: 0
    }
  }
}
layer {
  name: "layer_256_1_sum"
  type: "Eltwise"
  bottom: "layer_256_1_conv2"
  bottom: "layer_256_1_conv_expand"
  top: "layer_256_1_sum"
}
layer {
  name: "layer_512_1_bn1"
  type: "BatchNorm"
  bottom: "layer_256_1_sum"
  top: "layer_512_1_bn1"
}
layer {
  name: "layer_512_1_scale1"
  type: "Scale"
  bottom: "layer_512_1_bn1"
  top: "layer_512_1_bn1"
  param {
    lr_mult: 1
    decay_mult: 1
  }
  param {
    lr_mult: 2
    decay_mult: 1
  }
  scale_param {
    bias_term: true
  }
}
layer {
  name: "layer_512_1_relu1"
  type: "ReLU"
  bottom: "layer_512_1_bn1"
  top: "layer_512_1_bn1"
}
layer {
  name: "layer_512_1_conv1"
  type: "Convolution"
  bottom: "layer_512_1_bn1"
  top: "layer_512_1_conv1"
  param {
    lr_mult: 1
    decay_mult: 1
  }
  convolution_param {
    num_output: 512
    bias_term: false
    pad: 1
    kernel_size: 3
    stride: 2
    weight_filler {
      type: "msra"
    }
    bias_filler {
      type: "constant"
      value: 0
    }
  }
}
layer {
  name: "layer_512_1_bn2"
  type: "BatchNorm"
  bottom: "layer_512_1_conv1"
  top: "layer_512_1_conv1"
}
layer {
  name: "layer_512_1_scale2"
  type: "Scale"
  bottom: "layer_512_1_conv1"
  top: "layer_512_1_conv1"
  param {
    lr_mult: 1
    decay_mult: 1
  }
  param {
    lr_mult: 2
    decay_mult: 1
  }
  scale_param {
    bias_term: true
  }
}
layer {
  name: "layer_512_1_relu2"
  type: "ReLU"
  bottom: "layer_512_1_conv1"
  top: "layer_512_1_conv1"
}
layer {
  name: "layer_512_1_conv2"
  type: "Convolution"
  bottom: "layer_512_1_conv1"
  top: "layer_512_1_conv2"
  param {
    lr_mult: 1
    decay_mult: 1
  }
  convolution_param {
    num_output: 512
    bias_term: false
    pad: 1
    kernel_size: 3
    stride: 1
    weight_filler {
      type: "msra"
    }
    bias_filler {
      type: "constant"
      value: 0
    }
  }
}
layer {
  name: "layer_512_1_conv_expand"
  type: "Convolution"
  bottom: "layer_512_1_bn1"
  top: "layer_512_1_conv_expand"
  param {
    lr_mult: 1
    decay_mult: 1
  }
  convolution_param {
    num_output: 512
    bias_term: false
    pad: 0
    kernel_size: 1
    stride: 2
    weight_filler {
      type: "msra"
    }
    bias_filler {
      type: "constant"
      value: 0
    }
  }
}
layer {
  name: "layer_512_1_sum"
  type: "Eltwise"
  bottom: "layer_512_1_conv2"
  bottom: "layer_512_1_conv_expand"
  top: "layer_512_1_sum"
}
layer {
  name: "last_bn"
  type: "BatchNorm"
  bottom: "layer_512_1_sum"
  top: "layer_512_1_sum"
}
layer {
  name: "last_scale"
  type: "Scale"
  bottom: "layer_512_1_sum"
  top: "layer_512_1_sum"
  param {
    lr_mult: 1
    decay_mult: 1
  }
  param {
    lr_mult: 2
    decay_mult: 1
  }
  scale_param {
    bias_term: true
  }
}
layer {
  name: "last_relu"
  type: "ReLU"
  bottom: "layer_512_1_sum"
  top: "layer_512_1_sum"
}
layer {
  name: "indicator"
  type: "ContinuationIndicator"
  top: "indicator"
  include {
    phase: TEST
  }
  continuation_indicator_param {
    time_step: 15
    batch_size: 1
  }
}
layer {
  name: "permuted_data"
  type: "Permute"
  bottom: "layer_512_1_sum"
  top: "permuted_data"
  permute_param {
    order: 3
    order: 0
    order: 1
    order: 2
  }
}
layer {
  name: "lstm1"
  type: "LSTM"
  bottom: "permuted_data"
  bottom: "indicator"
  top: "lstm1"
  recurrent_param {
    num_output: 100
    weight_filler {
      type: "xavier"
    }
    bias_filler {
      type: "constant"
      value: 0
    }
  }
}
layer {
  name: "lstm2"
  type: "LSTM"
  bottom: "lstm1"
  bottom: "indicator"
  top: "lstm2"
  recurrent_param {
    num_output: 100
    weight_filler {
      type: "xavier"
    }
    bias_filler {
      type: "constant"
      value: 0
    }
  }
}
layer {
  name: "fc1"
  type: "InnerProduct"
  bottom: "lstm2"
  top: "fc1"
  param {
    lr_mult: 1
    decay_mult: 1
  }
  param {
    lr_mult: 2
    decay_mult: 0
  }
  inner_product_param {
    num_output: 100
    weight_filler {
      type: "xavier"
    }
    bias_filler {
      type: "constant"
      value: 0
    }
    axis: 2
  }
}
layer {
  name: "fc2"
  type: "InnerProduct"
  bottom: "fc1"
  top: "fc2"
  param {
    lr_mult: 1
    decay_mult: 1
  }
  param {
    lr_mult: 2
    decay_mult: 0
  }
  inner_product_param {
    num_output: 11
    weight_filler {
      type: "xavier"
    }
    bias_filler {
      type: "constant"
      value: 0
    }
    axis: 2
  }
}
layer {
  name: "rev1"
  type: "Reverse"
  bottom: "permuted_data"
  top: "rev_data"
}
layer {
  name: "lstm3"
  type: "LSTM"
  bottom: "rev_data"
  bottom: "indicator"
  top: "lstm3"
  recurrent_param {
    num_output: 100
    weight_filler {
      type: "xavier"
    }
    bias_filler {
      type: "constant"
      value: 0
    }
  }
}
layer {
  name: "lstm4"
  type: "LSTM"
  bottom: "lstm3"
  bottom: "indicator"
  top: "lstm4"
  recurrent_param {
    num_output: 100
    weight_filler {
      type: "xavier"
    }
    bias_filler {
      type: "constant"
      value: 0
    }
  }
}
layer {
  name: "fc3"
  type: "InnerProduct"
  bottom: "lstm4"
  top: "fc3"
  param {
    lr_mult: 1
    decay_mult: 1
  }
  param {
    lr_mult: 2
    decay_mult: 0
  }
  inner_product_param {
    num_output: 100
    weight_filler {
      type: "xavier"
    }
    bias_filler {
      type: "constant"
      value: 0
    }
    axis: 2
  }
}
layer {
  name: "fc4"
  type: "InnerProduct"
  bottom: "fc3"
  top: "fc4"
  param {
    lr_mult: 1
    decay_mult: 1
  }
  param {
    lr_mult: 2
    decay_mult: 0
  }
  inner_product_param {
    num_output: 11
    weight_filler {
      type: "xavier"
    }
    bias_filler {
      type: "constant"
      value: 0
    }
    axis: 2
  }
}
layer {
  name: "rev2"
  type: "Reverse"
  bottom: "fc4"
  top: "rev2"
}
layer {
  name: "eltwise-sum"
  type: "Eltwise"
  bottom: "fc2"
  bottom: "rev2"
  top: "sum"
  eltwise_param {
    operation: SUM
  }
}
layer {
  name: "ctc_loss"
  type: "CtcLoss"
  bottom: "sum"
  bottom: "label"
  top: "ctc_loss"
  loss_weight: 1
  ctc_loss_param {
    alphabet_size: 11
    time_step: 15
    blank_label: 10
  }
}
layer {
  name: "permute_fc"
  type: "Permute"
  bottom: "sum"
  top: "premuted_fc"
  include {
    phase: TEST
  }
  permute_param {
    order: 1
    order: 0
    order: 2
  }
}
layer {
  name: "accuracy"
  type: "LabelsequenceAccuracy"
  bottom: "premuted_fc"
  bottom: "label"
  top: "accuracy"
  include {
    phase: TEST
  }
  labelsequence_accuracy_param {
    blank_label: 10
    is_print_labels: 1
  }
}
I0602 14:12:06.997942 30558 layer_factory.hpp:77] Creating layer data
I0602 14:12:06.997972 30558 net.cpp:86] Creating Layer data
I0602 14:12:06.997982 30558 net.cpp:382] data -> data
I0602 14:12:06.998013 30558 net.cpp:382] data -> label
I0602 14:12:06.998028 30558 hdf5_data_layer.cpp:79] Loading list of HDF5 filenames from: /home/hjzhan/Music/warpctc-caffe/examples/hds/carb/testing.list
I0602 14:12:06.998076 30558 hdf5_data_layer.cpp:93] Number of HDF5 files: 1
I0602 14:12:06.998986 30558 hdf5.cpp:32] Datatype class: H5T_FLOAT
I0602 14:12:13.890514 30558 net.cpp:124] Setting up data
I0602 14:12:13.890563 30558 net.cpp:131] Top shape: 1 3 50 120 (18000)
I0602 14:12:13.890573 30558 net.cpp:131] Top shape: 1 10 (10)
I0602 14:12:13.890578 30558 net.cpp:139] Memory required for data: 72040
I0602 14:12:13.890588 30558 layer_factory.hpp:77] Creating layer label_data_1_split
I0602 14:12:13.890599 30558 net.cpp:86] Creating Layer label_data_1_split
I0602 14:12:13.890609 30558 net.cpp:408] label_data_1_split <- label
I0602 14:12:13.890624 30558 net.cpp:382] label_data_1_split -> label_data_1_split_0
I0602 14:12:13.890635 30558 net.cpp:382] label_data_1_split -> label_data_1_split_1
I0602 14:12:13.890651 30558 net.cpp:124] Setting up label_data_1_split
I0602 14:12:13.890660 30558 net.cpp:131] Top shape: 1 10 (10)
I0602 14:12:13.890666 30558 net.cpp:131] Top shape: 1 10 (10)
I0602 14:12:13.890671 30558 net.cpp:139] Memory required for data: 72120
I0602 14:12:13.890677 30558 layer_factory.hpp:77] Creating layer data_bn
I0602 14:12:13.890688 30558 net.cpp:86] Creating Layer data_bn
I0602 14:12:13.890696 30558 net.cpp:408] data_bn <- data
I0602 14:12:13.890703 30558 net.cpp:382] data_bn -> data_bn
I0602 14:12:13.890725 30558 net.cpp:124] Setting up data_bn
I0602 14:12:13.890734 30558 net.cpp:131] Top shape: 1 3 50 120 (18000)
I0602 14:12:13.890741 30558 net.cpp:139] Memory required for data: 144120
I0602 14:12:13.890763 30558 layer_factory.hpp:77] Creating layer data_scale
I0602 14:12:13.890779 30558 net.cpp:86] Creating Layer data_scale
I0602 14:12:13.890784 30558 net.cpp:408] data_scale <- data_bn
I0602 14:12:13.890791 30558 net.cpp:369] data_scale -> data_bn (in-place)
I0602 14:12:13.890825 30558 layer_factory.hpp:77] Creating layer data_scale
I0602 14:12:13.890856 30558 net.cpp:124] Setting up data_scale
I0602 14:12:13.890866 30558 net.cpp:131] Top shape: 1 3 50 120 (18000)
I0602 14:12:13.890879 30558 net.cpp:139] Memory required for data: 216120
I0602 14:12:13.890902 30558 layer_factory.hpp:77] Creating layer conv1
I0602 14:12:13.890925 30558 net.cpp:86] Creating Layer conv1
I0602 14:12:13.890933 30558 net.cpp:408] conv1 <- data_bn
I0602 14:12:13.890941 30558 net.cpp:382] conv1 -> conv1
I0602 14:12:14.458622 30558 net.cpp:124] Setting up conv1
I0602 14:12:14.458669 30558 net.cpp:131] Top shape: 1 64 48 118 (362496)
I0602 14:12:14.458681 30558 net.cpp:139] Memory required for data: 1666104
I0602 14:12:14.458695 30558 layer_factory.hpp:77] Creating layer conv1_bn
I0602 14:12:14.458709 30558 net.cpp:86] Creating Layer conv1_bn
I0602 14:12:14.458717 30558 net.cpp:408] conv1_bn <- conv1
I0602 14:12:14.458727 30558 net.cpp:369] conv1_bn -> conv1 (in-place)
I0602 14:12:14.458750 30558 net.cpp:124] Setting up conv1_bn
I0602 14:12:14.458758 30558 net.cpp:131] Top shape: 1 64 48 118 (362496)
I0602 14:12:14.458765 30558 net.cpp:139] Memory required for data: 3116088
I0602 14:12:14.458777 30558 layer_factory.hpp:77] Creating layer conv1_scale
I0602 14:12:14.458787 30558 net.cpp:86] Creating Layer conv1_scale
I0602 14:12:14.458796 30558 net.cpp:408] conv1_scale <- conv1
I0602 14:12:14.458803 30558 net.cpp:369] conv1_scale -> conv1 (in-place)
I0602 14:12:14.458820 30558 layer_factory.hpp:77] Creating layer conv1_scale
I0602 14:12:14.458847 30558 net.cpp:124] Setting up conv1_scale
I0602 14:12:14.458854 30558 net.cpp:131] Top shape: 1 64 48 118 (362496)
I0602 14:12:14.458860 30558 net.cpp:139] Memory required for data: 4566072
I0602 14:12:14.458868 30558 layer_factory.hpp:77] Creating layer conv1_relu
I0602 14:12:14.458879 30558 net.cpp:86] Creating Layer conv1_relu
I0602 14:12:14.458886 30558 net.cpp:408] conv1_relu <- conv1
I0602 14:12:14.458892 30558 net.cpp:369] conv1_relu -> conv1 (in-place)
I0602 14:12:14.459642 30558 net.cpp:124] Setting up conv1_relu
I0602 14:12:14.459657 30558 net.cpp:131] Top shape: 1 64 48 118 (362496)
I0602 14:12:14.459664 30558 net.cpp:139] Memory required for data: 6016056
I0602 14:12:14.459672 30558 layer_factory.hpp:77] Creating layer conv1_pool
I0602 14:12:14.459684 30558 net.cpp:86] Creating Layer conv1_pool
I0602 14:12:14.459692 30558 net.cpp:408] conv1_pool <- conv1
I0602 14:12:14.459700 30558 net.cpp:382] conv1_pool -> conv1_pool
I0602 14:12:14.459728 30558 net.cpp:124] Setting up conv1_pool
I0602 14:12:14.459736 30558 net.cpp:131] Top shape: 1 64 46 116 (341504)
I0602 14:12:14.459743 30558 net.cpp:139] Memory required for data: 7382072
I0602 14:12:14.459748 30558 layer_factory.hpp:77] Creating layer conv1_pool_conv1_pool_0_split
I0602 14:12:14.459755 30558 net.cpp:86] Creating Layer conv1_pool_conv1_pool_0_split
I0602 14:12:14.459760 30558 net.cpp:408] conv1_pool_conv1_pool_0_split <- conv1_pool
I0602 14:12:14.459769 30558 net.cpp:382] conv1_pool_conv1_pool_0_split -> conv1_pool_conv1_pool_0_split_0
I0602 14:12:14.459779 30558 net.cpp:382] conv1_pool_conv1_pool_0_split -> conv1_pool_conv1_pool_0_split_1
I0602 14:12:14.459813 30558 net.cpp:124] Setting up conv1_pool_conv1_pool_0_split
I0602 14:12:14.459820 30558 net.cpp:131] Top shape: 1 64 46 116 (341504)
I0602 14:12:14.459827 30558 net.cpp:131] Top shape: 1 64 46 116 (341504)
I0602 14:12:14.459833 30558 net.cpp:139] Memory required for data: 10114104
I0602 14:12:14.459839 30558 layer_factory.hpp:77] Creating layer layer_64_1_conv1
I0602 14:12:14.459851 30558 net.cpp:86] Creating Layer layer_64_1_conv1
I0602 14:12:14.459857 30558 net.cpp:408] layer_64_1_conv1 <- conv1_pool_conv1_pool_0_split_0
I0602 14:12:14.459864 30558 net.cpp:382] layer_64_1_conv1 -> layer_64_1_conv1
I0602 14:12:14.464314 30558 net.cpp:124] Setting up layer_64_1_conv1
I0602 14:12:14.464337 30558 net.cpp:131] Top shape: 1 64 46 116 (341504)
I0602 14:12:14.464344 30558 net.cpp:139] Memory required for data: 11480120
I0602 14:12:14.464354 30558 layer_factory.hpp:77] Creating layer layer_64_1_bn2
I0602 14:12:14.464363 30558 net.cpp:86] Creating Layer layer_64_1_bn2
I0602 14:12:14.464370 30558 net.cpp:408] layer_64_1_bn2 <- layer_64_1_conv1
I0602 14:12:14.464385 30558 net.cpp:369] layer_64_1_bn2 -> layer_64_1_conv1 (in-place)
I0602 14:12:14.464416 30558 net.cpp:124] Setting up layer_64_1_bn2
I0602 14:12:14.464424 30558 net.cpp:131] Top shape: 1 64 46 116 (341504)
I0602 14:12:14.464432 30558 net.cpp:139] Memory required for data: 12846136
I0602 14:12:14.464442 30558 layer_factory.hpp:77] Creating layer layer_64_1_scale2
I0602 14:12:14.464452 30558 net.cpp:86] Creating Layer layer_64_1_scale2
I0602 14:12:14.464458 30558 net.cpp:408] layer_64_1_scale2 <- layer_64_1_conv1
I0602 14:12:14.464465 30558 net.cpp:369] layer_64_1_scale2 -> layer_64_1_conv1 (in-place)
I0602 14:12:14.464479 30558 layer_factory.hpp:77] Creating layer layer_64_1_scale2
I0602 14:12:14.464501 30558 net.cpp:124] Setting up layer_64_1_scale2
I0602 14:12:14.464511 30558 net.cpp:131] Top shape: 1 64 46 116 (341504)
I0602 14:12:14.464519 30558 net.cpp:139] Memory required for data: 14212152
I0602 14:12:14.464529 30558 layer_factory.hpp:77] Creating layer layer_64_1_relu2
I0602 14:12:14.464539 30558 net.cpp:86] Creating Layer layer_64_1_relu2
I0602 14:12:14.464546 30558 net.cpp:408] layer_64_1_relu2 <- layer_64_1_conv1
I0602 14:12:14.464553 30558 net.cpp:369] layer_64_1_relu2 -> layer_64_1_conv1 (in-place)
I0602 14:12:14.465551 30558 net.cpp:124] Setting up layer_64_1_relu2
I0602 14:12:14.465567 30558 net.cpp:131] Top shape: 1 64 46 116 (341504)
I0602 14:12:14.465574 30558 net.cpp:139] Memory required for data: 15578168
I0602 14:12:14.465582 30558 layer_factory.hpp:77] Creating layer layer_64_1_conv2
I0602 14:12:14.465595 30558 net.cpp:86] Creating Layer layer_64_1_conv2
I0602 14:12:14.465601 30558 net.cpp:408] layer_64_1_conv2 <- layer_64_1_conv1
I0602 14:12:14.465611 30558 net.cpp:382] layer_64_1_conv2 -> layer_64_1_conv2
I0602 14:12:14.469285 30558 net.cpp:124] Setting up layer_64_1_conv2
I0602 14:12:14.469303 30558 net.cpp:131] Top shape: 1 64 46 116 (341504)
I0602 14:12:14.469310 30558 net.cpp:139] Memory required for data: 16944184
I0602 14:12:14.469318 30558 layer_factory.hpp:77] Creating layer layer_64_1_sum
I0602 14:12:14.469329 30558 net.cpp:86] Creating Layer layer_64_1_sum
I0602 14:12:14.469336 30558 net.cpp:408] layer_64_1_sum <- layer_64_1_conv2
I0602 14:12:14.469346 30558 net.cpp:408] layer_64_1_sum <- conv1_pool_conv1_pool_0_split_1
I0602 14:12:14.469353 30558 net.cpp:382] layer_64_1_sum -> layer_64_1_sum
I0602 14:12:14.469364 30558 net.cpp:124] Setting up layer_64_1_sum
I0602 14:12:14.469373 30558 net.cpp:131] Top shape: 1 64 46 116 (341504)
I0602 14:12:14.469380 30558 net.cpp:139] Memory required for data: 18310200
I0602 14:12:14.469385 30558 layer_factory.hpp:77] Creating layer layer_128_1_bn1
I0602 14:12:14.469395 30558 net.cpp:86] Creating Layer layer_128_1_bn1
I0602 14:12:14.469401 30558 net.cpp:408] layer_128_1_bn1 <- layer_64_1_sum
I0602 14:12:14.469409 30558 net.cpp:382] layer_128_1_bn1 -> layer_128_1_bn1
I0602 14:12:14.469432 30558 net.cpp:124] Setting up layer_128_1_bn1
I0602 14:12:14.469440 30558 net.cpp:131] Top shape: 1 64 46 116 (341504)
I0602 14:12:14.469447 30558 net.cpp:139] Memory required for data: 19676216
I0602 14:12:14.469457 30558 layer_factory.hpp:77] Creating layer layer_128_1_scale1
I0602 14:12:14.469467 30558 net.cpp:86] Creating Layer layer_128_1_scale1
I0602 14:12:14.469473 30558 net.cpp:408] layer_128_1_scale1 <- layer_128_1_bn1
I0602 14:12:14.469482 30558 net.cpp:369] layer_128_1_scale1 -> layer_128_1_bn1 (in-place)
I0602 14:12:14.469496 30558 layer_factory.hpp:77] Creating layer layer_128_1_scale1
I0602 14:12:14.469527 30558 net.cpp:124] Setting up layer_128_1_scale1
I0602 14:12:14.469535 30558 net.cpp:131] Top shape: 1 64 46 116 (341504)
I0602 14:12:14.469542 30558 net.cpp:139] Memory required for data: 21042232
I0602 14:12:14.469550 30558 layer_factory.hpp:77] Creating layer layer_128_1_relu1
I0602 14:12:14.469558 30558 net.cpp:86] Creating Layer layer_128_1_relu1
I0602 14:12:14.469563 30558 net.cpp:408] layer_128_1_relu1 <- layer_128_1_bn1
I0602 14:12:14.469573 30558 net.cpp:369] layer_128_1_relu1 -> layer_128_1_bn1 (in-place)
I0602 14:12:14.470487 30558 net.cpp:124] Setting up layer_128_1_relu1
I0602 14:12:14.470510 30558 net.cpp:131] Top shape: 1 64 46 116 (341504)
I0602 14:12:14.470515 30558 net.cpp:139] Memory required for data: 22408248
I0602 14:12:14.470522 30558 layer_factory.hpp:77] Creating layer layer_128_1_bn1_layer_128_1_relu1_0_split
I0602 14:12:14.470530 30558 net.cpp:86] Creating Layer layer_128_1_bn1_layer_128_1_relu1_0_split
I0602 14:12:14.470536 30558 net.cpp:408] layer_128_1_bn1_layer_128_1_relu1_0_split <- layer_128_1_bn1
I0602 14:12:14.470543 30558 net.cpp:382] layer_128_1_bn1_layer_128_1_relu1_0_split -> layer_128_1_bn1_layer_128_1_relu1_0_split_0
I0602 14:12:14.470552 30558 net.cpp:382] layer_128_1_bn1_layer_128_1_relu1_0_split -> layer_128_1_bn1_layer_128_1_relu1_0_split_1
I0602 14:12:14.470562 30558 net.cpp:124] Setting up layer_128_1_bn1_layer_128_1_relu1_0_split
I0602 14:12:14.470571 30558 net.cpp:131] Top shape: 1 64 46 116 (341504)
I0602 14:12:14.470578 30558 net.cpp:131] Top shape: 1 64 46 116 (341504)
I0602 14:12:14.470583 30558 net.cpp:139] Memory required for data: 25140280
I0602 14:12:14.470589 30558 layer_factory.hpp:77] Creating layer layer_128_1_conv1
I0602 14:12:14.470602 30558 net.cpp:86] Creating Layer layer_128_1_conv1
I0602 14:12:14.470607 30558 net.cpp:408] layer_128_1_conv1 <- layer_128_1_bn1_layer_128_1_relu1_0_split_0
I0602 14:12:14.470616 30558 net.cpp:382] layer_128_1_conv1 -> layer_128_1_conv1
I0602 14:12:14.474768 30558 net.cpp:124] Setting up layer_128_1_conv1
I0602 14:12:14.474789 30558 net.cpp:131] Top shape: 1 128 23 58 (170752)
I0602 14:12:14.474797 30558 net.cpp:139] Memory required for data: 25823288
I0602 14:12:14.474804 30558 layer_factory.hpp:77] Creating layer layer_128_1_bn2
I0602 14:12:14.474813 30558 net.cpp:86] Creating Layer layer_128_1_bn2
I0602 14:12:14.474820 30558 net.cpp:408] layer_128_1_bn2 <- layer_128_1_conv1
I0602 14:12:14.474830 30558 net.cpp:369] layer_128_1_bn2 -> layer_128_1_conv1 (in-place)
I0602 14:12:14.474850 30558 net.cpp:124] Setting up layer_128_1_bn2
I0602 14:12:14.474858 30558 net.cpp:131] Top shape: 1 128 23 58 (170752)
I0602 14:12:14.474865 30558 net.cpp:139] Memory required for data: 26506296
I0602 14:12:14.474874 30558 layer_factory.hpp:77] Creating layer layer_128_1_scale2
I0602 14:12:14.474884 30558 net.cpp:86] Creating Layer layer_128_1_scale2
I0602 14:12:14.474890 30558 net.cpp:408] layer_128_1_scale2 <- layer_128_1_conv1
I0602 14:12:14.474898 30558 net.cpp:369] layer_128_1_scale2 -> layer_128_1_conv1 (in-place)
I0602 14:12:14.474911 30558 layer_factory.hpp:77] Creating layer layer_128_1_scale2
I0602 14:12:14.474931 30558 net.cpp:124] Setting up layer_128_1_scale2
I0602 14:12:14.474939 30558 net.cpp:131] Top shape: 1 128 23 58 (170752)
I0602 14:12:14.474944 30558 net.cpp:139] Memory required for data: 27189304
I0602 14:12:14.474952 30558 layer_factory.hpp:77] Creating layer layer_128_1_relu2
I0602 14:12:14.474961 30558 net.cpp:86] Creating Layer layer_128_1_relu2
I0602 14:12:14.474967 30558 net.cpp:408] layer_128_1_relu2 <- layer_128_1_conv1
I0602 14:12:14.474973 30558 net.cpp:369] layer_128_1_relu2 -> layer_128_1_conv1 (in-place)
I0602 14:12:14.475949 30558 net.cpp:124] Setting up layer_128_1_relu2
I0602 14:12:14.475965 30558 net.cpp:131] Top shape: 1 128 23 58 (170752)
I0602 14:12:14.475971 30558 net.cpp:139] Memory required for data: 27872312
I0602 14:12:14.475977 30558 layer_factory.hpp:77] Creating layer layer_128_1_conv2
I0602 14:12:14.475989 30558 net.cpp:86] Creating Layer layer_128_1_conv2
I0602 14:12:14.475998 30558 net.cpp:408] layer_128_1_conv2 <- layer_128_1_conv1
I0602 14:12:14.476006 30558 net.cpp:382] layer_128_1_conv2 -> layer_128_1_conv2
I0602 14:12:14.485528 30558 net.cpp:124] Setting up layer_128_1_conv2
I0602 14:12:14.485572 30558 net.cpp:131] Top shape: 1 128 23 58 (170752)
I0602 14:12:14.485579 30558 net.cpp:139] Memory required for data: 28555320
I0602 14:12:14.485590 30558 layer_factory.hpp:77] Creating layer layer_128_1_conv_expand
I0602 14:12:14.485608 30558 net.cpp:86] Creating Layer layer_128_1_conv_expand
I0602 14:12:14.485616 30558 net.cpp:408] layer_128_1_conv_expand <- layer_128_1_bn1_layer_128_1_relu1_0_split_1
I0602 14:12:14.485644 30558 net.cpp:382] layer_128_1_conv_expand -> layer_128_1_conv_expand
I0602 14:12:14.494493 30558 net.cpp:124] Setting up layer_128_1_conv_expand
I0602 14:12:14.494523 30558 net.cpp:131] Top shape: 1 128 23 58 (170752)
I0602 14:12:14.494529 30558 net.cpp:139] Memory required for data: 29238328
I0602 14:12:14.494539 30558 layer_factory.hpp:77] Creating layer layer_128_1_sum
I0602 14:12:14.494550 30558 net.cpp:86] Creating Layer layer_128_1_sum
I0602 14:12:14.494560 30558 net.cpp:408] layer_128_1_sum <- layer_128_1_conv2
I0602 14:12:14.494567 30558 net.cpp:408] layer_128_1_sum <- layer_128_1_conv_expand
I0602 14:12:14.494575 30558 net.cpp:382] layer_128_1_sum -> layer_128_1_sum
I0602 14:12:14.494587 30558 net.cpp:124] Setting up layer_128_1_sum
I0602 14:12:14.494596 30558 net.cpp:131] Top shape: 1 128 23 58 (170752)
I0602 14:12:14.494602 30558 net.cpp:139] Memory required for data: 29921336
I0602 14:12:14.494609 30558 layer_factory.hpp:77] Creating layer layer_256_1_bn1
I0602 14:12:14.494617 30558 net.cpp:86] Creating Layer layer_256_1_bn1
I0602 14:12:14.494623 30558 net.cpp:408] layer_256_1_bn1 <- layer_128_1_sum
I0602 14:12:14.494630 30558 net.cpp:382] layer_256_1_bn1 -> layer_256_1_bn1
I0602 14:12:14.494648 30558 net.cpp:124] Setting up layer_256_1_bn1
I0602 14:12:14.494657 30558 net.cpp:131] Top shape: 1 128 23 58 (170752)
I0602 14:12:14.494663 30558 net.cpp:139] Memory required for data: 30604344
I0602 14:12:14.494675 30558 layer_factory.hpp:77] Creating layer layer_256_1_scale1
I0602 14:12:14.494688 30558 net.cpp:86] Creating Layer layer_256_1_scale1
I0602 14:12:14.494693 30558 net.cpp:408] layer_256_1_scale1 <- layer_256_1_bn1
I0602 14:12:14.494700 30558 net.cpp:369] layer_256_1_scale1 -> layer_256_1_bn1 (in-place)
I0602 14:12:14.494715 30558 layer_factory.hpp:77] Creating layer layer_256_1_scale1
I0602 14:12:14.494737 30558 net.cpp:124] Setting up layer_256_1_scale1
I0602 14:12:14.494745 30558 net.cpp:131] Top shape: 1 128 23 58 (170752)
I0602 14:12:14.494752 30558 net.cpp:139] Memory required for data: 31287352
I0602 14:12:14.494760 30558 layer_factory.hpp:77] Creating layer layer_256_1_relu1
I0602 14:12:14.494766 30558 net.cpp:86] Creating Layer layer_256_1_relu1
I0602 14:12:14.494772 30558 net.cpp:408] layer_256_1_relu1 <- layer_256_1_bn1
I0602 14:12:14.494781 30558 net.cpp:369] layer_256_1_relu1 -> layer_256_1_bn1 (in-place)
I0602 14:12:14.496876 30558 net.cpp:124] Setting up layer_256_1_relu1
I0602 14:12:14.496892 30558 net.cpp:131] Top shape: 1 128 23 58 (170752)
I0602 14:12:14.496899 30558 net.cpp:139] Memory required for data: 31970360
I0602 14:12:14.496906 30558 layer_factory.hpp:77] Creating layer layer_256_1_bn1_layer_256_1_relu1_0_split
I0602 14:12:14.496913 30558 net.cpp:86] Creating Layer layer_256_1_bn1_layer_256_1_relu1_0_split
I0602 14:12:14.496919 30558 net.cpp:408] layer_256_1_bn1_layer_256_1_relu1_0_split <- layer_256_1_bn1
I0602 14:12:14.496932 30558 net.cpp:382] layer_256_1_bn1_layer_256_1_relu1_0_split -> layer_256_1_bn1_layer_256_1_relu1_0_split_0
I0602 14:12:14.496942 30558 net.cpp:382] layer_256_1_bn1_layer_256_1_relu1_0_split -> layer_256_1_bn1_layer_256_1_relu1_0_split_1
I0602 14:12:14.496953 30558 net.cpp:124] Setting up layer_256_1_bn1_layer_256_1_relu1_0_split
I0602 14:12:14.496960 30558 net.cpp:131] Top shape: 1 128 23 58 (170752)
I0602 14:12:14.496968 30558 net.cpp:131] Top shape: 1 128 23 58 (170752)
I0602 14:12:14.496974 30558 net.cpp:139] Memory required for data: 33336376
I0602 14:12:14.496980 30558 layer_factory.hpp:77] Creating layer layer_256_1_conv1
I0602 14:12:14.496991 30558 net.cpp:86] Creating Layer layer_256_1_conv1
I0602 14:12:14.496997 30558 net.cpp:408] layer_256_1_conv1 <- layer_256_1_bn1_layer_256_1_relu1_0_split_0
I0602 14:12:14.497006 30558 net.cpp:382] layer_256_1_conv1 -> layer_256_1_conv1
I0602 14:12:14.508518 30558 net.cpp:124] Setting up layer_256_1_conv1
I0602 14:12:14.508546 30558 net.cpp:131] Top shape: 1 256 12 29 (89088)
I0602 14:12:14.508553 30558 net.cpp:139] Memory required for data: 33692728
I0602 14:12:14.508571 30558 layer_factory.hpp:77] Creating layer layer_256_1_bn2
I0602 14:12:14.508594 30558 net.cpp:86] Creating Layer layer_256_1_bn2
I0602 14:12:14.508604 30558 net.cpp:408] layer_256_1_bn2 <- layer_256_1_conv1
I0602 14:12:14.508611 30558 net.cpp:369] layer_256_1_bn2 -> layer_256_1_conv1 (in-place)
I0602 14:12:14.508631 30558 net.cpp:124] Setting up layer_256_1_bn2
I0602 14:12:14.508640 30558 net.cpp:131] Top shape: 1 256 12 29 (89088)
I0602 14:12:14.508646 30558 net.cpp:139] Memory required for data: 34049080
I0602 14:12:14.508654 30558 layer_factory.hpp:77] Creating layer layer_256_1_scale2
I0602 14:12:14.508663 30558 net.cpp:86] Creating Layer layer_256_1_scale2
I0602 14:12:14.508669 30558 net.cpp:408] layer_256_1_scale2 <- layer_256_1_conv1
I0602 14:12:14.508679 30558 net.cpp:369] layer_256_1_scale2 -> layer_256_1_conv1 (in-place)
I0602 14:12:14.508694 30558 layer_factory.hpp:77] Creating layer layer_256_1_scale2
I0602 14:12:14.508713 30558 net.cpp:124] Setting up layer_256_1_scale2
I0602 14:12:14.508723 30558 net.cpp:131] Top shape: 1 256 12 29 (89088)
I0602 14:12:14.508730 30558 net.cpp:139] Memory required for data: 34405432
I0602 14:12:14.508738 30558 layer_factory.hpp:77] Creating layer layer_256_1_relu2
I0602 14:12:14.508745 30558 net.cpp:86] Creating Layer layer_256_1_relu2
I0602 14:12:14.508751 30558 net.cpp:408] layer_256_1_relu2 <- layer_256_1_conv1
I0602 14:12:14.508759 30558 net.cpp:369] layer_256_1_relu2 -> layer_256_1_conv1 (in-place)
I0602 14:12:14.510860 30558 net.cpp:124] Setting up layer_256_1_relu2
I0602 14:12:14.510874 30558 net.cpp:131] Top shape: 1 256 12 29 (89088)
I0602 14:12:14.510879 30558 net.cpp:139] Memory required for data: 34761784
I0602 14:12:14.510885 30558 layer_factory.hpp:77] Creating layer layer_256_1_conv2
I0602 14:12:14.510898 30558 net.cpp:86] Creating Layer layer_256_1_conv2
I0602 14:12:14.510905 30558 net.cpp:408] layer_256_1_conv2 <- layer_256_1_conv1
I0602 14:12:14.510915 30558 net.cpp:382] layer_256_1_conv2 -> layer_256_1_conv2
I0602 14:12:14.527406 30558 net.cpp:124] Setting up layer_256_1_conv2
I0602 14:12:14.527433 30558 net.cpp:131] Top shape: 1 256 12 29 (89088)
I0602 14:12:14.527441 30558 net.cpp:139] Memory required for data: 35118136
I0602 14:12:14.527449 30558 layer_factory.hpp:77] Creating layer layer_256_1_conv_expand
I0602 14:12:14.527464 30558 net.cpp:86] Creating Layer layer_256_1_conv_expand
I0602 14:12:14.527473 30558 net.cpp:408] layer_256_1_conv_expand <- layer_256_1_bn1_layer_256_1_relu1_0_split_1
I0602 14:12:14.527482 30558 net.cpp:382] layer_256_1_conv_expand -> layer_256_1_conv_expand
I0602 14:12:14.531970 30558 net.cpp:124] Setting up layer_256_1_conv_expand
I0602 14:12:14.531991 30558 net.cpp:131] Top shape: 1 256 12 29 (89088)
I0602 14:12:14.531998 30558 net.cpp:139] Memory required for data: 35474488
I0602 14:12:14.532006 30558 layer_factory.hpp:77] Creating layer layer_256_1_sum
I0602 14:12:14.532016 30558 net.cpp:86] Creating Layer layer_256_1_sum
I0602 14:12:14.532023 30558 net.cpp:408] layer_256_1_sum <- layer_256_1_conv2
I0602 14:12:14.532032 30558 net.cpp:408] layer_256_1_sum <- layer_256_1_conv_expand
I0602 14:12:14.532038 30558 net.cpp:382] layer_256_1_sum -> layer_256_1_sum
I0602 14:12:14.532050 30558 net.cpp:124] Setting up layer_256_1_sum
I0602 14:12:14.532058 30558 net.cpp:131] Top shape: 1 256 12 29 (89088)
I0602 14:12:14.532064 30558 net.cpp:139] Memory required for data: 35830840
I0602 14:12:14.532069 30558 layer_factory.hpp:77] Creating layer layer_512_1_bn1
I0602 14:12:14.532078 30558 net.cpp:86] Creating Layer layer_512_1_bn1
I0602 14:12:14.532085 30558 net.cpp:408] layer_512_1_bn1 <- layer_256_1_sum
I0602 14:12:14.532094 30558 net.cpp:382] layer_512_1_bn1 -> layer_512_1_bn1
I0602 14:12:14.532114 30558 net.cpp:124] Setting up layer_512_1_bn1
I0602 14:12:14.532121 30558 net.cpp:131] Top shape: 1 256 12 29 (89088)
I0602 14:12:14.532127 30558 net.cpp:139] Memory required for data: 36187192
I0602 14:12:14.532137 30558 layer_factory.hpp:77] Creating layer layer_512_1_scale1
I0602 14:12:14.532153 30558 net.cpp:86] Creating Layer layer_512_1_scale1
I0602 14:12:14.532168 30558 net.cpp:408] layer_512_1_scale1 <- layer_512_1_bn1
I0602 14:12:14.532176 30558 net.cpp:369] layer_512_1_scale1 -> layer_512_1_bn1 (in-place)
I0602 14:12:14.532191 30558 layer_factory.hpp:77] Creating layer layer_512_1_scale1
I0602 14:12:14.532212 30558 net.cpp:124] Setting up layer_512_1_scale1
I0602 14:12:14.532220 30558 net.cpp:131] Top shape: 1 256 12 29 (89088)
I0602 14:12:14.532227 30558 net.cpp:139] Memory required for data: 36543544
I0602 14:12:14.532233 30558 layer_factory.hpp:77] Creating layer layer_512_1_relu1
I0602 14:12:14.532241 30558 net.cpp:86] Creating Layer layer_512_1_relu1
I0602 14:12:14.532248 30558 net.cpp:408] layer_512_1_relu1 <- layer_512_1_bn1
I0602 14:12:14.532253 30558 net.cpp:369] layer_512_1_relu1 -> layer_512_1_bn1 (in-place)
I0602 14:12:14.533394 30558 net.cpp:124] Setting up layer_512_1_relu1
I0602 14:12:14.533406 30558 net.cpp:131] Top shape: 1 256 12 29 (89088)
I0602 14:12:14.533412 30558 net.cpp:139] Memory required for data: 36899896
I0602 14:12:14.533419 30558 layer_factory.hpp:77] Creating layer layer_512_1_bn1_layer_512_1_relu1_0_split
I0602 14:12:14.533427 30558 net.cpp:86] Creating Layer layer_512_1_bn1_layer_512_1_relu1_0_split
I0602 14:12:14.533434 30558 net.cpp:408] layer_512_1_bn1_layer_512_1_relu1_0_split <- layer_512_1_bn1
I0602 14:12:14.533442 30558 net.cpp:382] layer_512_1_bn1_layer_512_1_relu1_0_split -> layer_512_1_bn1_layer_512_1_relu1_0_split_0
I0602 14:12:14.533452 30558 net.cpp:382] layer_512_1_bn1_layer_512_1_relu1_0_split -> layer_512_1_bn1_layer_512_1_relu1_0_split_1
I0602 14:12:14.533462 30558 net.cpp:124] Setting up layer_512_1_bn1_layer_512_1_relu1_0_split
I0602 14:12:14.533469 30558 net.cpp:131] Top shape: 1 256 12 29 (89088)
I0602 14:12:14.533476 30558 net.cpp:131] Top shape: 1 256 12 29 (89088)
I0602 14:12:14.533481 30558 net.cpp:139] Memory required for data: 37612600
I0602 14:12:14.533486 30558 layer_factory.hpp:77] Creating layer layer_512_1_conv1
I0602 14:12:14.533499 30558 net.cpp:86] Creating Layer layer_512_1_conv1
I0602 14:12:14.533505 30558 net.cpp:408] layer_512_1_conv1 <- layer_512_1_bn1_layer_512_1_relu1_0_split_0
I0602 14:12:14.533514 30558 net.cpp:382] layer_512_1_conv1 -> layer_512_1_conv1
I0602 14:12:14.578491 30558 net.cpp:124] Setting up layer_512_1_conv1
I0602 14:12:14.578531 30558 net.cpp:131] Top shape: 1 512 6 15 (46080)
I0602 14:12:14.578539 30558 net.cpp:139] Memory required for data: 37796920
I0602 14:12:14.578550 30558 layer_factory.hpp:77] Creating layer layer_512_1_bn2
I0602 14:12:14.578562 30558 net.cpp:86] Creating Layer layer_512_1_bn2
I0602 14:12:14.578569 30558 net.cpp:408] layer_512_1_bn2 <- layer_512_1_conv1
I0602 14:12:14.578578 30558 net.cpp:369] layer_512_1_bn2 -> layer_512_1_conv1 (in-place)
I0602 14:12:14.578601 30558 net.cpp:124] Setting up layer_512_1_bn2
I0602 14:12:14.578608 30558 net.cpp:131] Top shape: 1 512 6 15 (46080)
I0602 14:12:14.578613 30558 net.cpp:139] Memory required for data: 37981240
I0602 14:12:14.578621 30558 layer_factory.hpp:77] Creating layer layer_512_1_scale2
I0602 14:12:14.578631 30558 net.cpp:86] Creating Layer layer_512_1_scale2
I0602 14:12:14.578639 30558 net.cpp:408] layer_512_1_scale2 <- layer_512_1_conv1
I0602 14:12:14.578644 30558 net.cpp:369] layer_512_1_scale2 -> layer_512_1_conv1 (in-place)
I0602 14:12:14.578662 30558 layer_factory.hpp:77] Creating layer layer_512_1_scale2
I0602 14:12:14.578681 30558 net.cpp:124] Setting up layer_512_1_scale2
I0602 14:12:14.578689 30558 net.cpp:131] Top shape: 1 512 6 15 (46080)
I0602 14:12:14.578696 30558 net.cpp:139] Memory required for data: 38165560
I0602 14:12:14.578703 30558 layer_factory.hpp:77] Creating layer layer_512_1_relu2
I0602 14:12:14.578712 30558 net.cpp:86] Creating Layer layer_512_1_relu2
I0602 14:12:14.578719 30558 net.cpp:408] layer_512_1_relu2 <- layer_512_1_conv1
I0602 14:12:14.578727 30558 net.cpp:369] layer_512_1_relu2 -> layer_512_1_conv1 (in-place)
I0602 14:12:14.580528 30558 net.cpp:124] Setting up layer_512_1_relu2
I0602 14:12:14.580551 30558 net.cpp:131] Top shape: 1 512 6 15 (46080)
I0602 14:12:14.580567 30558 net.cpp:139] Memory required for data: 38349880
I0602 14:12:14.580574 30558 layer_factory.hpp:77] Creating layer layer_512_1_conv2
I0602 14:12:14.580587 30558 net.cpp:86] Creating Layer layer_512_1_conv2
I0602 14:12:14.580596 30558 net.cpp:408] layer_512_1_conv2 <- layer_512_1_conv1
I0602 14:12:14.580606 30558 net.cpp:382] layer_512_1_conv2 -> layer_512_1_conv2
I0602 14:12:14.682715 30558 net.cpp:124] Setting up layer_512_1_conv2
I0602 14:12:14.682759 30558 net.cpp:131] Top shape: 1 512 6 15 (46080)
I0602 14:12:14.682767 30558 net.cpp:139] Memory required for data: 38534200
I0602 14:12:14.682780 30558 layer_factory.hpp:77] Creating layer layer_512_1_conv_expand
I0602 14:12:14.682798 30558 net.cpp:86] Creating Layer layer_512_1_conv_expand
I0602 14:12:14.682807 30558 net.cpp:408] layer_512_1_conv_expand <- layer_512_1_bn1_layer_512_1_relu1_0_split_1
I0602 14:12:14.682818 30558 net.cpp:382] layer_512_1_conv_expand -> layer_512_1_conv_expand
I0602 14:12:14.690439 30558 net.cpp:124] Setting up layer_512_1_conv_expand
I0602 14:12:14.690471 30558 net.cpp:131] Top shape: 1 512 6 15 (46080)
I0602 14:12:14.690477 30558 net.cpp:139] Memory required for data: 38718520
I0602 14:12:14.690487 30558 layer_factory.hpp:77] Creating layer layer_512_1_sum
I0602 14:12:14.690498 30558 net.cpp:86] Creating Layer layer_512_1_sum
I0602 14:12:14.690505 30558 net.cpp:408] layer_512_1_sum <- layer_512_1_conv2
I0602 14:12:14.690513 30558 net.cpp:408] layer_512_1_sum <- layer_512_1_conv_expand
I0602 14:12:14.690522 30558 net.cpp:382] layer_512_1_sum -> layer_512_1_sum
I0602 14:12:14.690538 30558 net.cpp:124] Setting up layer_512_1_sum
I0602 14:12:14.690546 30558 net.cpp:131] Top shape: 1 512 6 15 (46080)
I0602 14:12:14.690551 30558 net.cpp:139] Memory required for data: 38902840
I0602 14:12:14.690557 30558 layer_factory.hpp:77] Creating layer last_bn
I0602 14:12:14.690565 30558 net.cpp:86] Creating Layer last_bn
I0602 14:12:14.690570 30558 net.cpp:408] last_bn <- layer_512_1_sum
I0602 14:12:14.690577 30558 net.cpp:369] last_bn -> layer_512_1_sum (in-place)
I0602 14:12:14.690598 30558 net.cpp:124] Setting up last_bn
I0602 14:12:14.690605 30558 net.cpp:131] Top shape: 1 512 6 15 (46080)
I0602 14:12:14.690610 30558 net.cpp:139] Memory required for data: 39087160
I0602 14:12:14.690619 30558 layer_factory.hpp:77] Creating layer last_scale
I0602 14:12:14.690629 30558 net.cpp:86] Creating Layer last_scale
I0602 14:12:14.690634 30558 net.cpp:408] last_scale <- layer_512_1_sum
I0602 14:12:14.690642 30558 net.cpp:369] last_scale -> layer_512_1_sum (in-place)
I0602 14:12:14.690659 30558 layer_factory.hpp:77] Creating layer last_scale
I0602 14:12:14.690678 30558 net.cpp:124] Setting up last_scale
I0602 14:12:14.690685 30558 net.cpp:131] Top shape: 1 512 6 15 (46080)
I0602 14:12:14.690690 30558 net.cpp:139] Memory required for data: 39271480
I0602 14:12:14.690696 30558 layer_factory.hpp:77] Creating layer last_relu
I0602 14:12:14.690706 30558 net.cpp:86] Creating Layer last_relu
I0602 14:12:14.690711 30558 net.cpp:408] last_relu <- layer_512_1_sum
I0602 14:12:14.690717 30558 net.cpp:369] last_relu -> layer_512_1_sum (in-place)
I0602 14:12:14.692385 30558 net.cpp:124] Setting up last_relu
I0602 14:12:14.692417 30558 net.cpp:131] Top shape: 1 512 6 15 (46080)
I0602 14:12:14.692423 30558 net.cpp:139] Memory required for data: 39455800
I0602 14:12:14.692430 30558 layer_factory.hpp:77] Creating layer indicator
I0602 14:12:14.692445 30558 net.cpp:86] Creating Layer indicator
I0602 14:12:14.692451 30558 net.cpp:382] indicator -> indicator
I0602 14:12:14.692471 30558 net.cpp:124] Setting up indicator
I0602 14:12:14.692479 30558 net.cpp:131] Top shape: 15 1 (15)
I0602 14:12:14.692487 30558 net.cpp:139] Memory required for data: 39455860
I0602 14:12:14.692492 30558 layer_factory.hpp:77] Creating layer indicator_indicator_0_split
I0602 14:12:14.692502 30558 net.cpp:86] Creating Layer indicator_indicator_0_split
I0602 14:12:14.692508 30558 net.cpp:408] indicator_indicator_0_split <- indicator
I0602 14:12:14.692524 30558 net.cpp:382] indicator_indicator_0_split -> indicator_indicator_0_split_0
I0602 14:12:14.692545 30558 net.cpp:382] indicator_indicator_0_split -> indicator_indicator_0_split_1
I0602 14:12:14.692555 30558 net.cpp:382] indicator_indicator_0_split -> indicator_indicator_0_split_2
I0602 14:12:14.692567 30558 net.cpp:382] indicator_indicator_0_split -> indicator_indicator_0_split_3
I0602 14:12:14.692577 30558 net.cpp:124] Setting up indicator_indicator_0_split
I0602 14:12:14.692585 30558 net.cpp:131] Top shape: 15 1 (15)
I0602 14:12:14.692592 30558 net.cpp:131] Top shape: 15 1 (15)
I0602 14:12:14.692600 30558 net.cpp:131] Top shape: 15 1 (15)
I0602 14:12:14.692605 30558 net.cpp:131] Top shape: 15 1 (15)
I0602 14:12:14.692612 30558 net.cpp:139] Memory required for data: 39456100
I0602 14:12:14.692620 30558 layer_factory.hpp:77] Creating layer permuted_data
I0602 14:12:14.692628 30558 net.cpp:86] Creating Layer permuted_data
I0602 14:12:14.692636 30558 net.cpp:408] permuted_data <- layer_512_1_sum
I0602 14:12:14.692642 30558 net.cpp:382] permuted_data -> permuted_data
I0602 14:12:14.692662 30558 net.cpp:124] Setting up permuted_data
I0602 14:12:14.692670 30558 net.cpp:131] Top shape: 15 1 512 6 (46080)
I0602 14:12:14.692677 30558 net.cpp:139] Memory required for data: 39640420
I0602 14:12:14.692682 30558 layer_factory.hpp:77] Creating layer permuted_data_permuted_data_0_split
I0602 14:12:14.692689 30558 net.cpp:86] Creating Layer permuted_data_permuted_data_0_split
I0602 14:12:14.692695 30558 net.cpp:408] permuted_data_permuted_data_0_split <- permuted_data
I0602 14:12:14.692703 30558 net.cpp:382] permuted_data_permuted_data_0_split -> permuted_data_permuted_data_0_split_0
I0602 14:12:14.692713 30558 net.cpp:382] permuted_data_permuted_data_0_split -> permuted_data_permuted_data_0_split_1
I0602 14:12:14.692723 30558 net.cpp:124] Setting up permuted_data_permuted_data_0_split
I0602 14:12:14.692729 30558 net.cpp:131] Top shape: 15 1 512 6 (46080)
I0602 14:12:14.692735 30558 net.cpp:131] Top shape: 15 1 512 6 (46080)
I0602 14:12:14.692744 30558 net.cpp:139] Memory required for data: 40009060
I0602 14:12:14.692749 30558 layer_factory.hpp:77] Creating layer lstm1
I0602 14:12:14.692760 30558 net.cpp:86] Creating Layer lstm1
I0602 14:12:14.692766 30558 net.cpp:408] lstm1 <- permuted_data_permuted_data_0_split_0
I0602 14:12:14.692773 30558 net.cpp:408] lstm1 <- indicator_indicator_0_split_0
I0602 14:12:14.692781 30558 net.cpp:382] lstm1 -> lstm1
I0602 14:12:14.692791 30558 recurrent_layer.cpp:20] Initializing recurrent layer: assuming input batch contains 15 timesteps of 1 independent streams.
I0602 14:12:14.693289 30558 net.cpp:53] Initializing net from parameters: 
layer {
  name: "lstm1_"
  type: "Input"
  top: "x"
  top: "cont"
  input_param {
    shape {
      dim: 15
      dim: 1
      dim: 512
      dim: 6
    }
    shape {
      dim: 15
      dim: 1
    }
  }
}
layer {
  name: "lstm1_"
  type: "Input"
  top: "c_0"
  top: "h_0"
  input_param {
    shape {
      dim: 1
      dim: 1
      dim: 100
    }
    shape {
      dim: 1
      dim: 1
      dim: 100
    }
  }
}
layer {
  name: "lstm1_cont_slice"
  type: "Slice"
  bottom: "cont"
  top: "cont_1"
  top: "cont_2"
  top: "cont_3"
  top: "cont_4"
  top: "cont_5"
  top: "cont_6"
  top: "cont_7"
  top: "cont_8"
  top: "cont_9"
  top: "cont_10"
  top: "cont_11"
  top: "cont_12"
  top: "cont_13"
  top: "cont_14"
  top: "cont_15"
  slice_param {
    axis: 0
  }
}
layer {
  name: "lstm1_x_transform"
  type: "InnerProduct"
  bottom: "x"
  top: "W_xc_x"
  param {
    name: "W_xc"
  }
  param {
    name: "b_c"
  }
  propagate_down: true
  inner_product_param {
    num_output: 400
    bias_term: true
    weight_filler {
      type: "xavier"
    }
    bias_filler {
      type: "constant"
      value: 0
    }
    axis: 2
  }
}
layer {
  name: "lstm1_W_xc_x_slice"
  type: "Slice"
  bottom: "W_xc_x"
  top: "W_xc_x_1"
  top: "W_xc_x_2"
  top: "W_xc_x_3"
  top: "W_xc_x_4"
  top: "W_xc_x_5"
  top: "W_xc_x_6"
  top: "W_xc_x_7"
  top: "W_xc_x_8"
  top: "W_xc_x_9"
  top: "W_xc_x_10"
  top: "W_xc_x_11"
  top: "W_xc_x_12"
  top: "W_xc_x_13"
  top: "W_xc_x_14"
  top: "W_xc_x_15"
  slice_param {
    axis: 0
  }
}
layer {
  name: "lstm1_h_conted_0"
  type: "Scale"
  bottom: "h_0"
  bottom: "cont_1"
  top: "h_conted_0"
  scale_param {
    axis: 0
  }
}
layer {
  name: "lstm1_transform_1"
  type: "InnerProduct"
  bottom: "h_conted_0"
  top: "W_hc_h_0"
  param {
    name: "W_hc"
  }
  inner_product_param {
    num_output: 400
    bias_term: false
    weight_filler {
      type: "xavier"
    }
    axis: 2
  }
}
layer {
  name: "lstm1_gate_input_1"
  type: "Eltwise"
  bottom: "W_hc_h_0"
  bottom: "W_xc_x_1"
  top: "gate_input_1"
  eltwise_param {
    operation: SUM
  }
}
layer {
  name: "lstm1_unit_1"
  type: "LSTMUnit"
  bottom: "c_0"
  bottom: "gate_input_1"
  bottom: "cont_1"
  top: "c_1"
  top: "h_1"
}
layer {
  name: "lstm1_h_conted_1"
  type: "Scale"
  bottom: "h_1"
  bottom: "cont_2"
  top: "h_conted_1"
  scale_param {
    axis: 0
  }
}
layer {
  name: "lstm1_transform_2"
  type: "InnerProduct"
  bottom: "h_conted_1"
  top: "W_hc_h_1"
  param {
    name: "W_hc"
  }
  inner_product_param {
    num_output: 400
    bias_term: false
    weight_filler {
      type: "xavier"
    }
    axis: 2
  }
}
layer {
  name: "lstm1_gate_input_2"
  type: "Eltwise"
  bottom: "W_hc_h_1"
  bottom: "W_xc_x_2"
  top: "gate_input_2"
  eltwise_param {
    operation: SUM
  }
}
layer {
  name: "lstm1_unit_2"
  type: "LSTMUnit"
  bottom: "c_1"
  bottom: "gate_input_2"
  bottom: "cont_2"
  top: "c_2"
  top: "h_2"
}
layer {
  name: "lstm1_h_conted_2"
  type: "Scale"
  bottom: "h_2"
  bottom: "cont_3"
  top: "h_conted_2"
  scale_param {
    axis: 0
  }
}
layer {
  name: "lstm1_transform_3"
  type: "InnerProduct"
  bottom: "h_conted_2"
  top: "W_hc_h_2"
  param {
    name: "W_hc"
  }
  inner_product_param {
    num_output: 400
    bias_term: false
    weight_filler {
      type: "xavier"
    }
    axis: 2
  }
}
layer {
  name: "lstm1_gate_input_3"
  type: "Eltwise"
  bottom: "W_hc_h_2"
  bottom: "W_xc_x_3"
  top: "gate_input_3"
  eltwise_param {
    operation: SUM
  }
}
layer {
  name: "lstm1_unit_3"
  type: "LSTMUnit"
  bottom: "c_2"
  bottom: "gate_input_3"
  bottom: "cont_3"
  top: "c_3"
  top: "h_3"
}
layer {
  name: "lstm1_h_conted_3"
  type: "Scale"
  bottom: "h_3"
  bottom: "cont_4"
  top: "h_conted_3"
  scale_param {
    axis: 0
  }
}
layer {
  name: "lstm1_transform_4"
  type: "InnerProduct"
  bottom: "h_conted_3"
  top: "W_hc_h_3"
  param {
    name: "W_hc"
  }
  inner_product_param {
    num_output: 400
    bias_term: false
    weight_filler {
      type: "xavier"
    }
    axis: 2
  }
}
layer {
  name: "lstm1_gate_input_4"
  type: "Eltwise"
  bottom: "W_hc_h_3"
  bottom: "W_xc_x_4"
  top: "gate_input_4"
  eltwise_param {
    operation: SUM
  }
}
layer {
  name: "lstm1_unit_4"
  type: "LSTMUnit"
  bottom: "c_3"
  bottom: "gate_input_4"
  bottom: "cont_4"
  top: "c_4"
  top: "h_4"
}
layer {
  name: "lstm1_h_conted_4"
  type: "Scale"
  bottom: "h_4"
  bottom: "cont_5"
  top: "h_conted_4"
  scale_param {
    axis: 0
  }
}
layer {
  name: "lstm1_transform_5"
  type: "InnerProduct"
  bottom: "h_conted_4"
  top: "W_hc_h_4"
  param {
    name: "W_hc"
  }
  inner_product_param {
    num_output: 400
    bias_term: false
    weight_filler {
      type: "xavier"
    }
    axis: 2
  }
}
layer {
  name: "lstm1_gate_input_5"
  type: "Eltwise"
  bottom: "W_hc_h_4"
  bottom: "W_xc_x_5"
  top: "gate_input_5"
  eltwise_param {
    operation: SUM
  }
}
layer {
  name: "lstm1_unit_5"
  type: "LSTMUnit"
  bottom: "c_4"
  bottom: "gate_input_5"
  bottom: "cont_5"
  top: "c_5"
  top: "h_5"
}
layer {
  name: "lstm1_h_conted_5"
  type: "Scale"
  bottom: "h_5"
  bottom: "cont_6"
  top: "h_conted_5"
  scale_param {
    axis: 0
  }
}
layer {
  name: "lstm1_transform_6"
  type: "InnerProduct"
  bottom: "h_conted_5"
  top: "W_hc_h_5"
  param {
    name: "W_hc"
  }
  inner_product_param {
    num_output: 400
    bias_term: false
    weight_filler {
      type: "xavier"
    }
    axis: 2
  }
}
layer {
  name: "lstm1_gate_input_6"
  type: "Eltwise"
  bottom: "W_hc_h_5"
  bottom: "W_xc_x_6"
  top: "gate_input_6"
  eltwise_param {
    operation: SUM
  }
}
layer {
  name: "lstm1_unit_6"
  type: "LSTMUnit"
  bottom: "c_5"
  bottom: "gate_input_6"
  bottom: "cont_6"
  top: "c_6"
  top: "h_6"
}
layer {
  name: "lstm1_h_conted_6"
  type: "Scale"
  bottom: "h_6"
  bottom: "cont_7"
  top: "h_conted_6"
  scale_param {
    axis: 0
  }
}
layer {
  name: "lstm1_transform_7"
  type: "InnerProduct"
  bottom: "h_conted_6"
  top: "W_hc_h_6"
  param {
    name: "W_hc"
  }
  inner_product_param {
    num_output: 400
    bias_term: false
    weight_filler {
      type: "xavier"
    }
    axis: 2
  }
}
layer {
  name: "lstm1_gate_input_7"
  type: "Eltwise"
  bottom: "W_hc_h_6"
  bottom: "W_xc_x_7"
  top: "gate_input_7"
  eltwise_param {
    operation: SUM
  }
}
layer {
  name: "lstm1_unit_7"
  type: "LSTMUnit"
  bottom: "c_6"
  bottom: "gate_input_7"
  bottom: "cont_7"
  top: "c_7"
  top: "h_7"
}
layer {
  name: "lstm1_h_conted_7"
  type: "Scale"
  bottom: "h_7"
  bottom: "cont_8"
  top: "h_conted_7"
  scale_param {
    axis: 0
  }
}
layer {
  name: "lstm1_transform_8"
  type: "InnerProduct"
  bottom: "h_conted_7"
  top: "W_hc_h_7"
  param {
    name: "W_hc"
  }
  inner_product_param {
    num_output: 400
    bias_term: false
    weight_filler {
      type: "xavier"
    }
    axis: 2
  }
}
layer {
  name: "lstm1_gate_input_8"
  type: "Eltwise"
  bottom: "W_hc_h_7"
  bottom: "W_xc_x_8"
  top: "gate_input_8"
  eltwise_param {
    operation: SUM
  }
}
layer {
  name: "lstm1_unit_8"
  type: "LSTMUnit"
  bottom: "c_7"
  bottom: "gate_input_8"
  bottom: "cont_8"
  top: "c_8"
  top: "h_8"
}
layer {
  name: "lstm1_h_conted_8"
  type: "Scale"
  bottom: "h_8"
  bottom: "cont_9"
  top: "h_conted_8"
  scale_param {
    axis: 0
  }
}
layer {
  name: "lstm1_transform_9"
  type: "InnerProduct"
  bottom: "h_conted_8"
  top: "W_hc_h_8"
  param {
    name: "W_hc"
  }
  inner_product_param {
    num_output: 400
    bias_term: false
    weight_filler {
      type: "xavier"
    }
    axis: 2
  }
}
layer {
  name: "lstm1_gate_input_9"
  type: "Eltwise"
  bottom: "W_hc_h_8"
  bottom: "W_xc_x_9"
  top: "gate_input_9"
  eltwise_param {
    operation: SUM
  }
}
layer {
  name: "lstm1_unit_9"
  type: "LSTMUnit"
  bottom: "c_8"
  bottom: "gate_input_9"
  bottom: "cont_9"
  top: "c_9"
  top: "h_9"
}
layer {
  name: "lstm1_h_conted_9"
  type: "Scale"
  bottom: "h_9"
  bottom: "cont_10"
  top: "h_conted_9"
  scale_param {
    axis: 0
  }
}
layer {
  name: "lstm1_transform_10"
  type: "InnerProduct"
  bottom: "h_conted_9"
  top: "W_hc_h_9"
  param {
    name: "W_hc"
  }
  inner_product_param {
    num_output: 400
    bias_term: false
    weight_filler {
      type: "xavier"
    }
    axis: 2
  }
}
layer {
  name: "lstm1_gate_input_10"
  type: "Eltwise"
  bottom: "W_hc_h_9"
  bottom: "W_xc_x_10"
  top: "gate_input_10"
  eltwise_param {
    operation: SUM
  }
}
layer {
  name: "lstm1_unit_10"
  type: "LSTMUnit"
  bottom: "c_9"
  bottom: "gate_input_10"
  bottom: "cont_10"
  top: "c_10"
  top: "h_10"
}
layer {
  name: "lstm1_h_conted_10"
  type: "Scale"
  bottom: "h_10"
  bottom: "cont_11"
  top: "h_conted_10"
  scale_param {
    axis: 0
  }
}
layer {
  name: "lstm1_transform_11"
  type: "InnerProduct"
  bottom: "h_conted_10"
  top: "W_hc_h_10"
  param {
    name: "W_hc"
  }
  inner_product_param {
    num_output: 400
    bias_term: false
    weight_filler {
      type: "xavier"
    }
    axis: 2
  }
}
layer {
  name: "lstm1_gate_input_11"
  type: "Eltwise"
  bottom: "W_hc_h_10"
  bottom: "W_xc_x_11"
  top: "gate_input_11"
  eltwise_param {
    operation: SUM
  }
}
layer {
  name: "lstm1_unit_11"
  type: "LSTMUnit"
  bottom: "c_10"
  bottom: "gate_input_11"
  bottom: "cont_11"
  top: "c_11"
  top: "h_11"
}
layer {
  name: "lstm1_h_conted_11"
  type: "Scale"
  bottom: "h_11"
  bottom: "cont_12"
  top: "h_conted_11"
  scale_param {
    axis: 0
  }
}
layer {
  name: "lstm1_transform_12"
  type: "InnerProduct"
  bottom: "h_conted_11"
  top: "W_hc_h_11"
  param {
    name: "W_hc"
  }
  inner_product_param {
    num_output: 400
    bias_term: false
    weight_filler {
      type: "xavier"
    }
    axis: 2
  }
}
layer {
  name: "lstm1_gate_input_12"
  type: "Eltwise"
  bottom: "W_hc_h_11"
  bottom: "W_xc_x_12"
  top: "gate_input_12"
  eltwise_param {
    operation: SUM
  }
}
layer {
  name: "lstm1_unit_12"
  type: "LSTMUnit"
  bottom: "c_11"
  bottom: "gate_input_12"
  bottom: "cont_12"
  top: "c_12"
  top: "h_12"
}
layer {
  name: "lstm1_h_conted_12"
  type: "Scale"
  bottom: "h_12"
  bottom: "cont_13"
  top: "h_conted_12"
  scale_param {
    axis: 0
  }
}
layer {
  name: "lstm1_transform_13"
  type: "InnerProduct"
  bottom: "h_conted_12"
  top: "W_hc_h_12"
  param {
    name: "W_hc"
  }
  inner_product_param {
    num_output: 400
    bias_term: false
    weight_filler {
      type: "xavier"
    }
    axis: 2
  }
}
layer {
  name: "lstm1_gate_input_13"
  type: "Eltwise"
  bottom: "W_hc_h_12"
  bottom: "W_xc_x_13"
  top: "gate_input_13"
  eltwise_param {
    operation: SUM
  }
}
layer {
  name: "lstm1_unit_13"
  type: "LSTMUnit"
  bottom: "c_12"
  bottom: "gate_input_13"
  bottom: "cont_13"
  top: "c_13"
  top: "h_13"
}
layer {
  name: "lstm1_h_conted_13"
  type: "Scale"
  bottom: "h_13"
  bottom: "cont_14"
  top: "h_conted_13"
  scale_param {
    axis: 0
  }
}
layer {
  name: "lstm1_transform_14"
  type: "InnerProduct"
  bottom: "h_conted_13"
  top: "W_hc_h_13"
  param {
    name: "W_hc"
  }
  inner_product_param {
    num_output: 400
    bias_term: false
    weight_filler {
      type: "xavier"
    }
    axis: 2
  }
}
layer {
  name: "lstm1_gate_input_14"
  type: "Eltwise"
  bottom: "W_hc_h_13"
  bottom: "W_xc_x_14"
  top: "gate_input_14"
  eltwise_param {
    operation: SUM
  }
}
layer {
  name: "lstm1_unit_14"
  type: "LSTMUnit"
  bottom: "c_13"
  bottom: "gate_input_14"
  bottom: "cont_14"
  top: "c_14"
  top: "h_14"
}
layer {
  name: "lstm1_h_conted_14"
  type: "Scale"
  bottom: "h_14"
  bottom: "cont_15"
  top: "h_conted_14"
  scale_param {
    axis: 0
  }
}
layer {
  name: "lstm1_transform_15"
  type: "InnerProduct"
  bottom: "h_conted_14"
  top: "W_hc_h_14"
  param {
    name: "W_hc"
  }
  inner_product_param {
    num_output: 400
    bias_term: false
    weight_filler {
      type: "xavier"
    }
    axis: 2
  }
}
layer {
  name: "lstm1_gate_input_15"
  type: "Eltwise"
  bottom: "W_hc_h_14"
  bottom: "W_xc_x_15"
  top: "gate_input_15"
  eltwise_param {
    operation: SUM
  }
}
layer {
  name: "lstm1_unit_15"
  type: "LSTMUnit"
  bottom: "c_14"
  bottom: "gate_input_15"
  bottom: "cont_15"
  top: "c_15"
  top: "h_15"
}
layer {
  name: "lstm1_"
  type: "Split"
  bottom: "c_15"
  top: "c_T"
}
layer {
  name: "lstm1_h_concat"
  type: "Concat"
  bottom: "h_1"
  bottom: "h_2"
  bottom: "h_3"
  bottom: "h_4"
  bottom: "h_5"
  bottom: "h_6"
  bottom: "h_7"
  bottom: "h_8"
  bottom: "h_9"
  bottom: "h_10"
  bottom: "h_11"
  bottom: "h_12"
  bottom: "h_13"
  bottom: "h_14"
  bottom: "h_15"
  top: "h"
  concat_param {
    axis: 0
  }
}
layer {
  name: "h_pseudoloss"
  type: "Reduction"
  bottom: "h"
  top: "h_pseudoloss"
  loss_weight: 1
}
I0602 14:12:14.693886 30558 layer_factory.hpp:77] Creating layer lstm1_
I0602 14:12:14.693905 30558 net.cpp:86] Creating Layer lstm1_
I0602 14:12:14.693917 30558 net.cpp:382] lstm1_ -> x
I0602 14:12:14.693935 30558 net.cpp:382] lstm1_ -> cont
I0602 14:12:14.693955 30558 net.cpp:124] Setting up lstm1_
I0602 14:12:14.693966 30558 net.cpp:131] Top shape: 15 1 512 6 (46080)
I0602 14:12:14.693976 30558 net.cpp:131] Top shape: 15 1 (15)
I0602 14:12:14.693986 30558 net.cpp:139] Memory required for data: 184380
I0602 14:12:14.693994 30558 layer_factory.hpp:77] Creating layer lstm1_
I0602 14:12:14.694005 30558 net.cpp:86] Creating Layer lstm1_
I0602 14:12:14.694015 30558 net.cpp:382] lstm1_ -> c_0
I0602 14:12:14.694028 30558 net.cpp:382] lstm1_ -> h_0
I0602 14:12:14.694042 30558 net.cpp:124] Setting up lstm1_
I0602 14:12:14.694053 30558 net.cpp:131] Top shape: 1 1 100 (100)
I0602 14:12:14.694064 30558 net.cpp:131] Top shape: 1 1 100 (100)
I0602 14:12:14.694072 30558 net.cpp:139] Memory required for data: 185180
I0602 14:12:14.694087 30558 layer_factory.hpp:77] Creating layer lstm1_cont_slice
I0602 14:12:14.694109 30558 net.cpp:86] Creating Layer lstm1_cont_slice
I0602 14:12:14.694120 30558 net.cpp:408] lstm1_cont_slice <- cont
I0602 14:12:14.694133 30558 net.cpp:382] lstm1_cont_slice -> cont_1
I0602 14:12:14.694149 30558 net.cpp:382] lstm1_cont_slice -> cont_2
I0602 14:12:14.694164 30558 net.cpp:382] lstm1_cont_slice -> cont_3
I0602 14:12:14.694180 30558 net.cpp:382] lstm1_cont_slice -> cont_4
I0602 14:12:14.694193 30558 net.cpp:382] lstm1_cont_slice -> cont_5
I0602 14:12:14.694211 30558 net.cpp:382] lstm1_cont_slice -> cont_6
I0602 14:12:14.694226 30558 net.cpp:382] lstm1_cont_slice -> cont_7
I0602 14:12:14.694241 30558 net.cpp:382] lstm1_cont_slice -> cont_8
I0602 14:12:14.694253 30558 net.cpp:382] lstm1_cont_slice -> cont_9
I0602 14:12:14.694267 30558 net.cpp:382] lstm1_cont_slice -> cont_10
I0602 14:12:14.694283 30558 net.cpp:382] lstm1_cont_slice -> cont_11
I0602 14:12:14.694298 30558 net.cpp:382] lstm1_cont_slice -> cont_12
I0602 14:12:14.694313 30558 net.cpp:382] lstm1_cont_slice -> cont_13
I0602 14:12:14.694325 30558 net.cpp:382] lstm1_cont_slice -> cont_14
I0602 14:12:14.694341 30558 net.cpp:382] lstm1_cont_slice -> cont_15
I0602 14:12:14.694365 30558 net.cpp:124] Setting up lstm1_cont_slice
I0602 14:12:14.694380 30558 net.cpp:131] Top shape: 1 1 (1)
I0602 14:12:14.694391 30558 net.cpp:131] Top shape: 1 1 (1)
I0602 14:12:14.694402 30558 net.cpp:131] Top shape: 1 1 (1)
I0602 14:12:14.694412 30558 net.cpp:131] Top shape: 1 1 (1)
I0602 14:12:14.694422 30558 net.cpp:131] Top shape: 1 1 (1)
I0602 14:12:14.694434 30558 net.cpp:131] Top shape: 1 1 (1)
I0602 14:12:14.694445 30558 net.cpp:131] Top shape: 1 1 (1)
I0602 14:12:14.694454 30558 net.cpp:131] Top shape: 1 1 (1)
I0602 14:12:14.694465 30558 net.cpp:131] Top shape: 1 1 (1)
I0602 14:12:14.694475 30558 net.cpp:131] Top shape: 1 1 (1)
I0602 14:12:14.694485 30558 net.cpp:131] Top shape: 1 1 (1)
I0602 14:12:14.694496 30558 net.cpp:131] Top shape: 1 1 (1)
I0602 14:12:14.694507 30558 net.cpp:131] Top shape: 1 1 (1)
I0602 14:12:14.694524 30558 net.cpp:131] Top shape: 1 1 (1)
I0602 14:12:14.694532 30558 net.cpp:131] Top shape: 1 1 (1)
I0602 14:12:14.694541 30558 net.cpp:139] Memory required for data: 185240
I0602 14:12:14.694552 30558 layer_factory.hpp:77] Creating layer cont_1_lstm1_cont_slice_0_split
I0602 14:12:14.694561 30558 net.cpp:86] Creating Layer cont_1_lstm1_cont_slice_0_split
I0602 14:12:14.694571 30558 net.cpp:408] cont_1_lstm1_cont_slice_0_split <- cont_1
I0602 14:12:14.694588 30558 net.cpp:382] cont_1_lstm1_cont_slice_0_split -> cont_1_lstm1_cont_slice_0_split_0
I0602 14:12:14.694602 30558 net.cpp:382] cont_1_lstm1_cont_slice_0_split -> cont_1_lstm1_cont_slice_0_split_1
I0602 14:12:14.694615 30558 net.cpp:124] Setting up cont_1_lstm1_cont_slice_0_split
I0602 14:12:14.694628 30558 net.cpp:131] Top shape: 1 1 (1)
I0602 14:12:14.694638 30558 net.cpp:131] Top shape: 1 1 (1)
I0602 14:12:14.694645 30558 net.cpp:139] Memory required for data: 185248
I0602 14:12:14.694655 30558 layer_factory.hpp:77] Creating layer cont_2_lstm1_cont_slice_1_split
I0602 14:12:14.694666 30558 net.cpp:86] Creating Layer cont_2_lstm1_cont_slice_1_split
I0602 14:12:14.694675 30558 net.cpp:408] cont_2_lstm1_cont_slice_1_split <- cont_2
I0602 14:12:14.694690 30558 net.cpp:382] cont_2_lstm1_cont_slice_1_split -> cont_2_lstm1_cont_slice_1_split_0
I0602 14:12:14.694702 30558 net.cpp:382] cont_2_lstm1_cont_slice_1_split -> cont_2_lstm1_cont_slice_1_split_1
I0602 14:12:14.694716 30558 net.cpp:124] Setting up cont_2_lstm1_cont_slice_1_split
I0602 14:12:14.694728 30558 net.cpp:131] Top shape: 1 1 (1)
I0602 14:12:14.694738 30558 net.cpp:131] Top shape: 1 1 (1)
I0602 14:12:14.694748 30558 net.cpp:139] Memory required for data: 185256
I0602 14:12:14.694756 30558 layer_factory.hpp:77] Creating layer cont_3_lstm1_cont_slice_2_split
I0602 14:12:14.694766 30558 net.cpp:86] Creating Layer cont_3_lstm1_cont_slice_2_split
I0602 14:12:14.694778 30558 net.cpp:408] cont_3_lstm1_cont_slice_2_split <- cont_3
I0602 14:12:14.694792 30558 net.cpp:382] cont_3_lstm1_cont_slice_2_split -> cont_3_lstm1_cont_slice_2_split_0
I0602 14:12:14.694814 30558 net.cpp:382] cont_3_lstm1_cont_slice_2_split -> cont_3_lstm1_cont_slice_2_split_1
I0602 14:12:14.694831 30558 net.cpp:124] Setting up cont_3_lstm1_cont_slice_2_split
I0602 14:12:14.694842 30558 net.cpp:131] Top shape: 1 1 (1)
I0602 14:12:14.694854 30558 net.cpp:131] Top shape: 1 1 (1)
I0602 14:12:14.694864 30558 net.cpp:139] Memory required for data: 185264
I0602 14:12:14.694874 30558 layer_factory.hpp:77] Creating layer cont_4_lstm1_cont_slice_3_split
I0602 14:12:14.694885 30558 net.cpp:86] Creating Layer cont_4_lstm1_cont_slice_3_split
I0602 14:12:14.694895 30558 net.cpp:408] cont_4_lstm1_cont_slice_3_split <- cont_4
I0602 14:12:14.694905 30558 net.cpp:382] cont_4_lstm1_cont_slice_3_split -> cont_4_lstm1_cont_slice_3_split_0
I0602 14:12:14.694924 30558 net.cpp:382] cont_4_lstm1_cont_slice_3_split -> cont_4_lstm1_cont_slice_3_split_1
I0602 14:12:14.694942 30558 net.cpp:124] Setting up cont_4_lstm1_cont_slice_3_split
I0602 14:12:14.694954 30558 net.cpp:131] Top shape: 1 1 (1)
I0602 14:12:14.694963 30558 net.cpp:131] Top shape: 1 1 (1)
I0602 14:12:14.694974 30558 net.cpp:139] Memory required for data: 185272
I0602 14:12:14.694983 30558 layer_factory.hpp:77] Creating layer cont_5_lstm1_cont_slice_4_split
I0602 14:12:14.694993 30558 net.cpp:86] Creating Layer cont_5_lstm1_cont_slice_4_split
I0602 14:12:14.695004 30558 net.cpp:408] cont_5_lstm1_cont_slice_4_split <- cont_5
I0602 14:12:14.695013 30558 net.cpp:382] cont_5_lstm1_cont_slice_4_split -> cont_5_lstm1_cont_slice_4_split_0
I0602 14:12:14.695030 30558 net.cpp:382] cont_5_lstm1_cont_slice_4_split -> cont_5_lstm1_cont_slice_4_split_1
I0602 14:12:14.695047 30558 net.cpp:124] Setting up cont_5_lstm1_cont_slice_4_split
I0602 14:12:14.695058 30558 net.cpp:131] Top shape: 1 1 (1)
I0602 14:12:14.695070 30558 net.cpp:131] Top shape: 1 1 (1)
I0602 14:12:14.695077 30558 net.cpp:139] Memory required for data: 185280
I0602 14:12:14.695087 30558 layer_factory.hpp:77] Creating layer cont_6_lstm1_cont_slice_5_split
I0602 14:12:14.695099 30558 net.cpp:86] Creating Layer cont_6_lstm1_cont_slice_5_split
I0602 14:12:14.695111 30558 net.cpp:408] cont_6_lstm1_cont_slice_5_split <- cont_6
I0602 14:12:14.695125 30558 net.cpp:382] cont_6_lstm1_cont_slice_5_split -> cont_6_lstm1_cont_slice_5_split_0
I0602 14:12:14.695139 30558 net.cpp:382] cont_6_lstm1_cont_slice_5_split -> cont_6_lstm1_cont_slice_5_split_1
I0602 14:12:14.695153 30558 net.cpp:124] Setting up cont_6_lstm1_cont_slice_5_split
I0602 14:12:14.695163 30558 net.cpp:131] Top shape: 1 1 (1)
I0602 14:12:14.695176 30558 net.cpp:131] Top shape: 1 1 (1)
I0602 14:12:14.695186 30558 net.cpp:139] Memory required for data: 185288
I0602 14:12:14.695195 30558 layer_factory.hpp:77] Creating layer cont_7_lstm1_cont_slice_6_split
I0602 14:12:14.695206 30558 net.cpp:86] Creating Layer cont_7_lstm1_cont_slice_6_split
I0602 14:12:14.695216 30558 net.cpp:408] cont_7_lstm1_cont_slice_6_split <- cont_7
I0602 14:12:14.695230 30558 net.cpp:382] cont_7_lstm1_cont_slice_6_split -> cont_7_lstm1_cont_slice_6_split_0
I0602 14:12:14.695241 30558 net.cpp:382] cont_7_lstm1_cont_slice_6_split -> cont_7_lstm1_cont_slice_6_split_1
I0602 14:12:14.695260 30558 net.cpp:124] Setting up cont_7_lstm1_cont_slice_6_split
I0602 14:12:14.695271 30558 net.cpp:131] Top shape: 1 1 (1)
I0602 14:12:14.695283 30558 net.cpp:131] Top shape: 1 1 (1)
I0602 14:12:14.695292 30558 net.cpp:139] Memory required for data: 185296
I0602 14:12:14.695302 30558 layer_factory.hpp:77] Creating layer cont_8_lstm1_cont_slice_7_split
I0602 14:12:14.695314 30558 net.cpp:86] Creating Layer cont_8_lstm1_cont_slice_7_split
I0602 14:12:14.695324 30558 net.cpp:408] cont_8_lstm1_cont_slice_7_split <- cont_8
I0602 14:12:14.695339 30558 net.cpp:382] cont_8_lstm1_cont_slice_7_split -> cont_8_lstm1_cont_slice_7_split_0
I0602 14:12:14.695353 30558 net.cpp:382] cont_8_lstm1_cont_slice_7_split -> cont_8_lstm1_cont_slice_7_split_1
I0602 14:12:14.695366 30558 net.cpp:124] Setting up cont_8_lstm1_cont_slice_7_split
I0602 14:12:14.695382 30558 net.cpp:131] Top shape: 1 1 (1)
I0602 14:12:14.695401 30558 net.cpp:131] Top shape: 1 1 (1)
I0602 14:12:14.695410 30558 net.cpp:139] Memory required for data: 185304
I0602 14:12:14.695421 30558 layer_factory.hpp:77] Creating layer cont_9_lstm1_cont_slice_8_split
I0602 14:12:14.695436 30558 net.cpp:86] Creating Layer cont_9_lstm1_cont_slice_8_split
I0602 14:12:14.695446 30558 net.cpp:408] cont_9_lstm1_cont_slice_8_split <- cont_9
I0602 14:12:14.695459 30558 net.cpp:382] cont_9_lstm1_cont_slice_8_split -> cont_9_lstm1_cont_slice_8_split_0
I0602 14:12:14.695472 30558 net.cpp:382] cont_9_lstm1_cont_slice_8_split -> cont_9_lstm1_cont_slice_8_split_1
I0602 14:12:14.695485 30558 net.cpp:124] Setting up cont_9_lstm1_cont_slice_8_split
I0602 14:12:14.695497 30558 net.cpp:131] Top shape: 1 1 (1)
I0602 14:12:14.695508 30558 net.cpp:131] Top shape: 1 1 (1)
I0602 14:12:14.695518 30558 net.cpp:139] Memory required for data: 185312
I0602 14:12:14.695526 30558 layer_factory.hpp:77] Creating layer cont_10_lstm1_cont_slice_9_split
I0602 14:12:14.695536 30558 net.cpp:86] Creating Layer cont_10_lstm1_cont_slice_9_split
I0602 14:12:14.695546 30558 net.cpp:408] cont_10_lstm1_cont_slice_9_split <- cont_10
I0602 14:12:14.695559 30558 net.cpp:382] cont_10_lstm1_cont_slice_9_split -> cont_10_lstm1_cont_slice_9_split_0
I0602 14:12:14.695572 30558 net.cpp:382] cont_10_lstm1_cont_slice_9_split -> cont_10_lstm1_cont_slice_9_split_1
I0602 14:12:14.695585 30558 net.cpp:124] Setting up cont_10_lstm1_cont_slice_9_split
I0602 14:12:14.695600 30558 net.cpp:131] Top shape: 1 1 (1)
I0602 14:12:14.695610 30558 net.cpp:131] Top shape: 1 1 (1)
I0602 14:12:14.695619 30558 net.cpp:139] Memory required for data: 185320
I0602 14:12:14.695631 30558 layer_factory.hpp:77] Creating layer cont_11_lstm1_cont_slice_10_split
I0602 14:12:14.695639 30558 net.cpp:86] Creating Layer cont_11_lstm1_cont_slice_10_split
I0602 14:12:14.695648 30558 net.cpp:408] cont_11_lstm1_cont_slice_10_split <- cont_11
I0602 14:12:14.695662 30558 net.cpp:382] cont_11_lstm1_cont_slice_10_split -> cont_11_lstm1_cont_slice_10_split_0
I0602 14:12:14.695675 30558 net.cpp:382] cont_11_lstm1_cont_slice_10_split -> cont_11_lstm1_cont_slice_10_split_1
I0602 14:12:14.695690 30558 net.cpp:124] Setting up cont_11_lstm1_cont_slice_10_split
I0602 14:12:14.695700 30558 net.cpp:131] Top shape: 1 1 (1)
I0602 14:12:14.695713 30558 net.cpp:131] Top shape: 1 1 (1)
I0602 14:12:14.695720 30558 net.cpp:139] Memory required for data: 185328
I0602 14:12:14.695729 30558 layer_factory.hpp:77] Creating layer cont_12_lstm1_cont_slice_11_split
I0602 14:12:14.695742 30558 net.cpp:86] Creating Layer cont_12_lstm1_cont_slice_11_split
I0602 14:12:14.695751 30558 net.cpp:408] cont_12_lstm1_cont_slice_11_split <- cont_12
I0602 14:12:14.695761 30558 net.cpp:382] cont_12_lstm1_cont_slice_11_split -> cont_12_lstm1_cont_slice_11_split_0
I0602 14:12:14.695773 30558 net.cpp:382] cont_12_lstm1_cont_slice_11_split -> cont_12_lstm1_cont_slice_11_split_1
I0602 14:12:14.695816 30558 net.cpp:124] Setting up cont_12_lstm1_cont_slice_11_split
I0602 14:12:14.695829 30558 net.cpp:131] Top shape: 1 1 (1)
I0602 14:12:14.695838 30558 net.cpp:131] Top shape: 1 1 (1)
I0602 14:12:14.695845 30558 net.cpp:139] Memory required for data: 185336
I0602 14:12:14.695854 30558 layer_factory.hpp:77] Creating layer cont_13_lstm1_cont_slice_12_split
I0602 14:12:14.695864 30558 net.cpp:86] Creating Layer cont_13_lstm1_cont_slice_12_split
I0602 14:12:14.695871 30558 net.cpp:408] cont_13_lstm1_cont_slice_12_split <- cont_13
I0602 14:12:14.695884 30558 net.cpp:382] cont_13_lstm1_cont_slice_12_split -> cont_13_lstm1_cont_slice_12_split_0
I0602 14:12:14.695896 30558 net.cpp:382] cont_13_lstm1_cont_slice_12_split -> cont_13_lstm1_cont_slice_12_split_1
I0602 14:12:14.695909 30558 net.cpp:124] Setting up cont_13_lstm1_cont_slice_12_split
I0602 14:12:14.695919 30558 net.cpp:131] Top shape: 1 1 (1)
I0602 14:12:14.695929 30558 net.cpp:131] Top shape: 1 1 (1)
I0602 14:12:14.695936 30558 net.cpp:139] Memory required for data: 185344
I0602 14:12:14.695950 30558 layer_factory.hpp:77] Creating layer cont_14_lstm1_cont_slice_13_split
I0602 14:12:14.695968 30558 net.cpp:86] Creating Layer cont_14_lstm1_cont_slice_13_split
I0602 14:12:14.695978 30558 net.cpp:408] cont_14_lstm1_cont_slice_13_split <- cont_14
I0602 14:12:14.695988 30558 net.cpp:382] cont_14_lstm1_cont_slice_13_split -> cont_14_lstm1_cont_slice_13_split_0
I0602 14:12:14.696000 30558 net.cpp:382] cont_14_lstm1_cont_slice_13_split -> cont_14_lstm1_cont_slice_13_split_1
I0602 14:12:14.696013 30558 net.cpp:124] Setting up cont_14_lstm1_cont_slice_13_split
I0602 14:12:14.696022 30558 net.cpp:131] Top shape: 1 1 (1)
I0602 14:12:14.696033 30558 net.cpp:131] Top shape: 1 1 (1)
I0602 14:12:14.696039 30558 net.cpp:139] Memory required for data: 185352
I0602 14:12:14.696048 30558 layer_factory.hpp:77] Creating layer cont_15_lstm1_cont_slice_14_split
I0602 14:12:14.696060 30558 net.cpp:86] Creating Layer cont_15_lstm1_cont_slice_14_split
I0602 14:12:14.696069 30558 net.cpp:408] cont_15_lstm1_cont_slice_14_split <- cont_15
I0602 14:12:14.696081 30558 net.cpp:382] cont_15_lstm1_cont_slice_14_split -> cont_15_lstm1_cont_slice_14_split_0
I0602 14:12:14.696091 30558 net.cpp:382] cont_15_lstm1_cont_slice_14_split -> cont_15_lstm1_cont_slice_14_split_1
I0602 14:12:14.696105 30558 net.cpp:124] Setting up cont_15_lstm1_cont_slice_14_split
I0602 14:12:14.696115 30558 net.cpp:131] Top shape: 1 1 (1)
I0602 14:12:14.696122 30558 net.cpp:131] Top shape: 1 1 (1)
I0602 14:12:14.696132 30558 net.cpp:139] Memory required for data: 185360
I0602 14:12:14.696140 30558 layer_factory.hpp:77] Creating layer lstm1_x_transform
I0602 14:12:14.696151 30558 net.cpp:86] Creating Layer lstm1_x_transform
I0602 14:12:14.696159 30558 net.cpp:408] lstm1_x_transform <- x
I0602 14:12:14.696171 30558 net.cpp:382] lstm1_x_transform -> W_xc_x
I0602 14:12:14.724735 30558 net.cpp:124] Setting up lstm1_x_transform
I0602 14:12:14.724782 30558 net.cpp:131] Top shape: 15 1 400 (6000)
I0602 14:12:14.724794 30558 net.cpp:139] Memory required for data: 209360
I0602 14:12:14.724815 30558 layer_factory.hpp:77] Creating layer lstm1_W_xc_x_slice
I0602 14:12:14.724841 30558 net.cpp:86] Creating Layer lstm1_W_xc_x_slice
I0602 14:12:14.724855 30558 net.cpp:408] lstm1_W_xc_x_slice <- W_xc_x
I0602 14:12:14.724871 30558 net.cpp:382] lstm1_W_xc_x_slice -> W_xc_x_1
I0602 14:12:14.724889 30558 net.cpp:382] lstm1_W_xc_x_slice -> W_xc_x_2
…
I0602 14:12:14.724998 30558 net.cpp:382] lstm1_W_xc_x_slice -> W_xc_x_9
I0602 14:12:14.725013 30558 net.cpp:382] lstm1_W_xc_x_slice -> W_xc_x_10
I0602 14:12:14.725025 30558 net.cpp:382] lstm1_W_xc_x_slice -> W_xc_x_11
I0602 14:12:14.725039 30558 net.cpp:382] lstm1_W_xc_x_slice -> W_xc_x_12
I0602 14:12:14.725054 30558 net.cpp:382] lstm1_W_xc_x_slice -> W_xc_x_13
I0602 14:12:14.725069 30558 net.cpp:382] lstm1_W_xc_x_slice -> W_xc_x_14
I0602 14:12:14.725085 30558 net.cpp:382] lstm1_W_xc_x_slice -> W_xc_x_15
I0602 14:12:14.725113 30558 net.cpp:124] Setting up lstm1_W_xc_x_slice
I0602 14:12:14.725126 30558 net.cpp:131] Top shape: 1 1 400 (400)
I0602 14:12:14.725137 30558 net.cpp:131] Top shape: 1 1 400 (400)
I0602 14:12:14.725148 30558 net.cpp:131] Top shape: 1 1 400 (400)
I0602 14:12:14.725162 30558 net.cpp:131] Top shape: 1 1 400 (400)
I0602 14:12:14.725170 30558 net.cpp:131] Top shape: 1 1 400 (400)
I0602 14:12:14.725181 30558 net.cpp:131] Top shape: 1 1 400 (400)
I0602 14:12:14.725193 30558 net.cpp:131] Top shape: 1 1 400 (400)
I0602 14:12:14.725203 30558 net.cpp:131] Top shape: 1 1 400 (400)
I0602 14:12:14.725213 30558 net.cpp:131] Top shape: 1 1 400 (400)
I0602 14:12:14.725224 30558 net.cpp:131] Top shape: 1 1 400 (400)
I0602 14:12:14.725244 30558 net.cpp:131] Top shape: 1 1 400 (400)
I0602 14:12:14.725267 30558 net.cpp:131] Top shape: 1 1 400 (400)
I0602 14:12:14.725277 30558 net.cpp:131] Top shape: 1 1 400 (400)
I0602 14:12:14.725287 30558 net.cpp:131] Top shape: 1 1 400 (400)
I0602 14:12:14.725301 30558 net.cpp:131] Top shape: 1 1 400 (400)
I0602 14:12:14.725311 30558 net.cpp:139] Memory required for data: 233360
I0602 14:12:14.725322 30558 layer_factory.hpp:77] Creating layer lstm1_h_conted_0
I0602 14:12:14.725339 30558 net.cpp:86] Creating Layer lstm1_h_conted_0
I0602 14:12:14.725349 30558 net.cpp:408] lstm1_h_conted_0 <- h_0
I0602 14:12:14.725363 30558 net.cpp:408] lstm1_h_conted_0 <- cont_1_lstm1_cont_slice_0_split_0
I0602 14:12:14.725375 30558 net.cpp:382] lstm1_h_conted_0 -> h_conted_0
I0602 14:12:14.725399 30558 net.cpp:124] Setting up lstm1_h_conted_0
I0602 14:12:14.725411 30558 net.cpp:131] Top shape: 1 1 100 (100)
I0602 14:12:14.725419 30558 net.cpp:139] Memory required for data: 233760
I0602 14:12:14.725427 30558 layer_factory.hpp:77] Creating layer lstm1_transform_1
I0602 14:12:14.725447 30558 net.cpp:86] Creating Layer lstm1_transform_1
I0602 14:12:14.725461 30558 net.cpp:408] lstm1_transform_1 <- h_conted_0
I0602 14:12:14.725476 30558 net.cpp:382] lstm1_transform_1 -> W_hc_h_0
I0602 14:12:14.725858 30558 net.cpp:124] Setting up lstm1_transform_1
I0602 14:12:14.725875 30558 net.cpp:131] Top shape: 1 1 400 (400)
I0602 14:12:14.725884 30558 net.cpp:139] Memory required for data: 235360
I0602 14:12:14.725896 30558 layer_factory.hpp:77] Creating layer lstm1_gate_input_1
I0602 14:12:14.725913 30558 net.cpp:86] Creating Layer lstm1_gate_input_1
I0602 14:12:14.725924 30558 net.cpp:408] lstm1_gate_input_1 <- W_hc_h_0
I0602 14:12:14.725934 30558 net.cpp:408] lstm1_gate_input_1 <- W_xc_x_1
I0602 14:12:14.725947 30558 net.cpp:382] lstm1_gate_input_1 -> gate_input_1
I0602 14:12:14.725962 30558 net.cpp:124] Setting up lstm1_gate_input_1
I0602 14:12:14.725977 30558 net.cpp:131] Top shape: 1 1 400 (400)
I0602 14:12:14.725988 30558 net.cpp:139] Memory required for data: 236960
I0602 14:12:14.725999 30558 layer_factory.hpp:77] Creating layer lstm1_unit_1
I0602 14:12:14.726011 30558 net.cpp:86] Creating Layer lstm1_unit_1
I0602 14:12:14.726021 30558 net.cpp:408] lstm1_unit_1 <- c_0
I0602 14:12:14.726032 30558 net.cpp:408] lstm1_unit_1 <- gate_input_1
I0602 14:12:14.726045 30558 net.cpp:408] lstm1_unit_1 <- cont_1_lstm1_cont_slice_0_split_1
I0602 14:12:14.726061 30558 net.cpp:382] lstm1_unit_1 -> c_1
I0602 14:12:14.726076 30558 net.cpp:382] lstm1_unit_1 -> h_1
I0602 14:12:14.726092 30558 net.cpp:124] Setting up lstm1_unit_1
I0602 14:12:14.726102 30558 net.cpp:131] Top shape: 1 1 100 (100)
I0602 14:12:14.726114 30558 net.cpp:131] Top shape: 1 1 100 (100)
I0602 14:12:14.726125 30558 net.cpp:139] Memory required for data: 237760
I0602 14:12:14.726136 30558 layer_factory.hpp:77] Creating layer h_1_lstm1_unit_1_1_split
I0602 14:12:14.726150 30558 net.cpp:86] Creating Layer h_1_lstm1_unit_1_1_split
I0602 14:12:14.726160 30558 net.cpp:408] h_1_lstm1_unit_1_1_split <- h_1
I0602 14:12:14.726173 30558 net.cpp:382] h_1_lstm1_unit_1_1_split -> h_1_lstm1_unit_1_1_split_0
I0602 14:12:14.726188 30558 net.cpp:382] h_1_lstm1_unit_1_1_split -> h_1_lstm1_unit_1_1_split_1
I0602 14:12:14.726204 30558 net.cpp:124] Setting up h_1_lstm1_unit_1_1_split
I0602 14:12:14.726214 30558 net.cpp:131] Top shape: 1 1 100 (100)
I0602 14:12:14.726227 30558 net.cpp:131] Top shape: 1 1 100 (100)
I0602 14:12:14.726238 30558 net.cpp:139] Memory required for data: 238560
I0602 14:12:14.726245 30558 layer_factory.hpp:77] Creating layer lstm1_h_conted_1
I0602 14:12:14.726259 30558 net.cpp:86] Creating Layer lstm1_h_conted_1
I0602 14:12:14.726269 30558 net.cpp:408] lstm1_h_conted_1 <- h_1_lstm1_unit_1_1_split_0
I0602 14:12:14.726281 30558 net.cpp:408] lstm1_h_conted_1 <- cont_2_lstm1_cont_slice_1_split_0
I0602 14:12:14.726295 30558 net.cpp:382] lstm1_h_conted_1 -> h_conted_1
I0602 14:12:14.726315 30558 net.cpp:124] Setting up lstm1_h_conted_1
I0602 14:12:14.726330 30558 net.cpp:131] Top shape: 1 1 100 (100)
I0602 14:12:14.726348 30558 net.cpp:139] Memory required for data: 238960
I0602 14:12:14.726358 30558 layer_factory.hpp:77] Creating layer lstm1_transform_2
I0602 14:12:14.726372 30558 net.cpp:86] Creating Layer lstm1_transform_2
I0602 14:12:14.726382 30558 net.cpp:408] lstm1_transform_2 <- h_conted_1
I0602 14:12:14.726395 30558 net.cpp:382] lstm1_transform_2 -> W_hc_h_1
I0602 14:12:14.726768 30558 net.cpp:124] Setting up lstm1_transform_2
I0602 14:12:14.726784 30558 net.cpp:131] Top shape: 1 1 400 (400)
I0602 14:12:14.726796 30558 net.cpp:139] Memory required for data: 240560
I0602 14:12:14.726805 30558 net.cpp:467] Sharing parameters 'W_hc' owned by layer 'lstm1_transform_1', param index 0
I0602 14:12:14.726817 30558 layer_factory.hpp:77] Creating layer lstm1_gate_input_2
I0602 14:12:14.726830 30558 net.cpp:86] Creating Layer lstm1_gate_input_2
I0602 14:12:14.726840 30558 net.cpp:408] lstm1_gate_input_2 <- W_hc_h_1
I0602 14:12:14.726853 30558 net.cpp:408] lstm1_gate_input_2 <- W_xc_x_2
I0602 14:12:14.726868 30558 net.cpp:382] lstm1_gate_input_2 -> gate_input_2
I0602 14:12:14.726886 30558 net.cpp:124] Setting up lstm1_gate_input_2
I0602 14:12:14.726897 30558 net.cpp:131] Top shape: 1 1 400 (400)
I0602 14:12:14.726907 30558 net.cpp:139] Memory required for data: 242160
I0602 14:12:14.726915 30558 layer_factory.hpp:77] Creating layer lstm1_unit_2
I0602 14:12:14.726927 30558 net.cpp:86] Creating Layer lstm1_unit_2
I0602 14:12:14.726938 30558 net.cpp:408] lstm1_unit_2 <- c_1
I0602 14:12:14.726948 30558 net.cpp:408] lstm1_unit_2 <- gate_input_2
I0602 14:12:14.726960 30558 net.cpp:408] lstm1_unit_2 <- cont_2_lstm1_cont_slice_1_split_1
I0602 14:12:14.726974 30558 net.cpp:382] lstm1_unit_2 -> c_2
I0602 14:12:14.726989 30558 net.cpp:382] lstm1_unit_2 -> h_2
I0602 14:12:14.727005 30558 net.cpp:124] Setting up lstm1_unit_2
I0602 14:12:14.727020 30558 net.cpp:131] Top shape: 1 1 100 (100)
I0602 14:12:14.727030 30558 net.cpp:131] Top shape: 1 1 100 (100)
I0602 14:12:14.727039 30558 net.cpp:139] Memory required for data: 242960
I0602 14:12:14.727049 30558 layer_factory.hpp:77] Creating layer h_2_lstm1_unit_2_1_split
I0602 14:12:14.727061 30558 net.cpp:86] Creating Layer h_2_lstm1_unit_2_1_split
I0602 14:12:14.727072 30558 net.cpp:408] h_2_lstm1_unit_2_1_split <- h_2
I0602 14:12:14.727087 30558 net.cpp:382] h_2_lstm1_unit_2_1_split -> h_2_lstm1_unit_2_1_split_0
I0602 14:12:14.727099 30558 net.cpp:382] h_2_lstm1_unit_2_1_split -> h_2_lstm1_unit_2_1_split_1
I0602 14:12:14.727115 30558 net.cpp:124] Setting up h_2_lstm1_unit_2_1_split
I0602 14:12:14.727128 30558 net.cpp:131] Top shape: 1 1 100 (100)
I0602 14:12:14.727143 30558 net.cpp:131] Top shape: 1 1 100 (100)
I0602 14:12:14.727151 30558 net.cpp:139] Memory required for data: 243760
I0602 14:12:14.727164 30558 layer_factory.hpp:77] Creating layer lstm1_h_conted_2
I0602 14:12:14.727179 30558 net.cpp:86] Creating Layer lstm1_h_conted_2
I0602 14:12:14.727188 30558 net.cpp:408] lstm1_h_conted_2 <- h_2_lstm1_unit_2_1_split_0
I0602 14:12:14.727201 30558 net.cpp:408] lstm1_h_conted_2 <- cont_3_lstm1_cont_slice_2_split_0
I0602 14:12:14.727216 30558 net.cpp:382] lstm1_h_conted_2 -> h_conted_2
I0602 14:12:14.727236 30558 net.cpp:124] Setting up lstm1_h_conted_2
I0602 14:12:14.727248 30558 net.cpp:131] Top shape: 1 1 100 (100)
I0602 14:12:14.727259 30558 net.cpp:139] Memory required for data: 244160
I0602 14:12:14.727268 30558 layer_factory.hpp:77] Creating layer lstm1_transform_3
I0602 14:12:14.727283 30558 net.cpp:86] Creating Layer lstm1_transform_3
I0602 14:12:14.727293 30558 net.cpp:408] lstm1_transform_3 <- h_conted_2
I0602 14:12:14.727306 30558 net.cpp:382] lstm1_transform_3 -> W_hc_h_2
I0602 14:12:14.727682 30558 net.cpp:124] Setting up lstm1_transform_3
I0602 14:12:14.727697 30558 net.cpp:131] Top shape: 1 1 400 (400)
I0602 14:12:14.727706 30558 net.cpp:139] Memory required for data: 245760
I0602 14:12:14.727716 30558 net.cpp:467] Sharing parameters 'W_hc' owned by layer 'lstm1_transform_1', param index 0
I0602 14:12:14.727730 30558 layer_factory.hpp:77] Creating layer lstm1_gate_input_3
I0602 14:12:14.727756 30558 net.cpp:86] Creating Layer lstm1_gate_input_3
I0602 14:12:14.727767 30558 net.cpp:408] lstm1_gate_input_3 <- W_hc_h_2
I0602 14:12:14.727823 30558 net.cpp:408] lstm1_gate_input_3 <- W_xc_x_3
I0602 14:12:14.727838 30558 net.cpp:382] lstm1_gate_input_3 -> gate_input_3
I0602 14:12:14.727856 30558 net.cpp:124] Setting up lstm1_gate_input_3
I0602 14:12:14.727869 30558 net.cpp:131] Top shape: 1 1 400 (400)
I0602 14:12:14.727879 30558 net.cpp:139] Memory required for data: 247360
I0602 14:12:14.727887 30558 layer_factory.hpp:77] Creating layer lstm1_unit_3
I0602 14:12:14.727903 30558 net.cpp:86] Creating Layer lstm1_unit_3
I0602 14:12:14.727916 30558 net.cpp:408] lstm1_unit_3 <- c_2
I0602 14:12:14.727928 30558 net.cpp:408] lstm1_unit_3 <- gate_input_3
I0602 14:12:14.727943 30558 net.cpp:408] lstm1_unit_3 <- cont_3_lstm1_cont_slice_2_split_1
I0602 14:12:14.727955 30558 net.cpp:382] lstm1_unit_3 -> c_3
I0602 14:12:14.727968 30558 net.cpp:382] lstm1_unit_3 -> h_3
I0602 14:12:14.727983 30558 net.cpp:124] Setting up lstm1_unit_3
I0602 14:12:14.727998 30558 net.cpp:131] Top shape: 1 1 100 (100)
I0602 14:12:14.728006 30558 net.cpp:131] Top shape: 1 1 100 (100)
I0602 14:12:14.728014 30558 net.cpp:139] Memory required for data: 248160
I0602 14:12:14.728024 30558 layer_factory.hpp:77] Creating layer h_3_lstm1_unit_3_1_split
I0602 14:12:14.728037 30558 net.cpp:86] Creating Layer h_3_lstm1_unit_3_1_split
I0602 14:12:14.728049 30558 net.cpp:408] h_3_lstm1_unit_3_1_split <- h_3
I0602 14:12:14.728063 30558 net.cpp:382] h_3_lstm1_unit_3_1_split -> h_3_lstm1_unit_3_1_split_0
I0602 14:12:14.728080 30558 net.cpp:382] h_3_lstm1_unit_3_1_split -> h_3_lstm1_unit_3_1_split_1
I0602 14:12:14.728093 30558 net.cpp:124] Setting up h_3_lstm1_unit_3_1_split
I0602 14:12:14.728106 30558 net.cpp:131] Top shape: 1 1 100 (100)
I0602 14:12:14.728117 30558 net.cpp:131] Top shape: 1 1 100 (100)
I0602 14:12:14.728127 30558 net.cpp:139] Memory required for data: 248960
I0602 14:12:14.728137 30558 layer_factory.hpp:77] Creating layer lstm1_h_conted_3
I0602 14:12:14.728149 30558 net.cpp:86] Creating Layer lstm1_h_conted_3
I0602 14:12:14.728162 30558 net.cpp:408] lstm1_h_conted_3 <- h_3_lstm1_unit_3_1_split_0
I0602 14:12:14.728174 30558 net.cpp:408] lstm1_h_conted_3 <- cont_4_lstm1_cont_slice_3_split_0
I0602 14:12:14.728190 30558 net.cpp:382] lstm1_h_conted_3 -> h_conted_3
I0602 14:12:14.728209 30558 net.cpp:124] Setting up lstm1_h_conted_3
I0602 14:12:14.728221 30558 net.cpp:131] Top shape: 1 1 100 (100)
I0602 14:12:14.728233 30558 net.cpp:139] Memory required for data: 249360
I0602 14:12:14.728242 30558 layer_factory.hpp:77] Creating layer lstm1_transform_4
I0602 14:12:14.728256 30558 net.cpp:86] Creating Layer lstm1_transform_4
I0602 14:12:14.728266 30558 net.cpp:408] lstm1_transform_4 <- h_conted_3
I0602 14:12:14.728281 30558 net.cpp:382] lstm1_transform_4 -> W_hc_h_3
I0602 14:12:14.728657 30558 net.cpp:124] Setting up lstm1_transform_4
I0602 14:12:14.728672 30558 net.cpp:131] Top shape: 1 1 400 (400)
I0602 14:12:14.728682 30558 net.cpp:139] Memory required for data: 250960
I0602 14:12:14.728694 30558 net.cpp:467] Sharing parameters 'W_hc' owned by layer 'lstm1_transform_1', param index 0
I0602 14:12:14.728703 30558 layer_factory.hpp:77] Creating layer lstm1_gate_input_4
I0602 14:12:14.728718 30558 net.cpp:86] Creating Layer lstm1_gate_input_4
I0602 14:12:14.728729 30558 net.cpp:408] lstm1_gate_input_4 <- W_hc_h_3
I0602 14:12:14.728740 30558 net.cpp:408] lstm1_gate_input_4 <- W_xc_x_4
I0602 14:12:14.728752 30558 net.cpp:382] lstm1_gate_input_4 -> gate_input_4
I0602 14:12:14.728766 30558 net.cpp:124] Setting up lstm1_gate_input_4
I0602 14:12:14.728778 30558 net.cpp:131] Top shape: 1 1 400 (400)
I0602 14:12:14.728788 30558 net.cpp:139] Memory required for data: 252560
I0602 14:12:14.728799 30558 layer_factory.hpp:77] Creating layer lstm1_unit_4
I0602 14:12:14.728811 30558 net.cpp:86] Creating Layer lstm1_unit_4
I0602 14:12:14.728821 30558 net.cpp:408] lstm1_unit_4 <- c_3
I0602 14:12:14.728832 30558 net.cpp:408] lstm1_unit_4 <- gate_input_4
I0602 14:12:14.728855 30558 net.cpp:408] lstm1_unit_4 <- cont_4_lstm1_cont_slice_3_split_1
I0602 14:12:14.728868 30558 net.cpp:382] lstm1_unit_4 -> c_4
I0602 14:12:14.728886 30558 net.cpp:382] lstm1_unit_4 -> h_4
I0602 14:12:14.728902 30558 net.cpp:124] Setting up lstm1_unit_4
I0602 14:12:14.728919 30558 net.cpp:131] Top shape: 1 1 100 (100)
I0602 14:12:14.728930 30558 net.cpp:131] Top shape: 1 1 100 (100)
I0602 14:12:14.728940 30558 net.cpp:139] Memory required for data: 253360
I0602 14:12:14.728948 30558 layer_factory.hpp:77] Creating layer h_4_lstm1_unit_4_1_split
I0602 14:12:14.728962 30558 net.cpp:86] Creating Layer h_4_lstm1_unit_4_1_split
I0602 14:12:14.728972 30558 net.cpp:408] h_4_lstm1_unit_4_1_split <- h_4
I0602 14:12:14.728983 30558 net.cpp:382] h_4_lstm1_unit_4_1_split -> h_4_lstm1_unit_4_1_split_0
I0602 14:12:14.728998 30558 net.cpp:382] h_4_lstm1_unit_4_1_split -> h_4_lstm1_unit_4_1_split_1
I0602 14:12:14.729012 30558 net.cpp:124] Setting up h_4_lstm1_unit_4_1_split
I0602 14:12:14.729025 30558 net.cpp:131] Top shape: 1 1 100 (100)
I0602 14:12:14.729034 30558 net.cpp:131] Top shape: 1 1 100 (100)
I0602 14:12:14.729043 30558 net.cpp:139] Memory required for data: 254160
I0602 14:12:14.729053 30558 layer_factory.hpp:77] Creating layer lstm1_h_conted_4
I0602 14:12:14.729064 30558 net.cpp:86] Creating Layer lstm1_h_conted_4
I0602 14:12:14.729075 30558 net.cpp:408] lstm1_h_conted_4 <- h_4_lstm1_unit_4_1_split_0
I0602 14:12:14.729085 30558 net.cpp:408] lstm1_h_conted_4 <- cont_5_lstm1_cont_slice_4_split_0
I0602 14:12:14.729099 30558 net.cpp:382] lstm1_h_conted_4 -> h_conted_4
I0602 14:12:14.729118 30558 net.cpp:124] Setting up lstm1_h_conted_4
I0602 14:12:14.729131 30558 net.cpp:131] Top shape: 1 1 100 (100)
I0602 14:12:14.729142 30558 net.cpp:139] Memory required for data: 254560
I0602 14:12:14.729149 30558 layer_factory.hpp:77] Creating layer lstm1_transform_5
I0602 14:12:14.729166 30558 net.cpp:86] Creating Layer lstm1_transform_5
I0602 14:12:14.729176 30558 net.cpp:408] lstm1_transform_5 <- h_conted_4
I0602 14:12:14.729190 30558 net.cpp:382] lstm1_transform_5 -> W_hc_h_4
I0602 14:12:14.729565 30558 net.cpp:124] Setting up lstm1_transform_5
I0602 14:12:14.729580 30558 net.cpp:131] Top shape: 1 1 400 (400)
I0602 14:12:14.729593 30558 net.cpp:139] Memory required for data: 256160
I0602 14:12:14.729604 30558 net.cpp:467] Sharing parameters 'W_hc' owned by layer 'lstm1_transform_1', param index 0
I0602 14:12:14.729616 30558 layer_factory.hpp:77] Creating layer lstm1_gate_input_5
I0602 14:12:14.729629 30558 net.cpp:86] Creating Layer lstm1_gate_input_5
I0602 14:12:14.729640 30558 net.cpp:408] lstm1_gate_input_5 <- W_hc_h_4
I0602 14:12:14.729653 30558 net.cpp:408] lstm1_gate_input_5 <- W_xc_x_5
I0602 14:12:14.729667 30558 net.cpp:382] lstm1_gate_input_5 -> gate_input_5
I0602 14:12:14.729686 30558 net.cpp:124] Setting up lstm1_gate_input_5
I0602 14:12:14.729697 30558 net.cpp:131] Top shape: 1 1 400 (400)
I0602 14:12:14.729709 30558 net.cpp:139] Memory required for data: 257760
I0602 14:12:14.729717 30558 layer_factory.hpp:77] Creating layer lstm1_unit_5
I0602 14:12:14.729730 30558 net.cpp:86] Creating Layer lstm1_unit_5
I0602 14:12:14.729743 30558 net.cpp:408] lstm1_unit_5 <- c_4
I0602 14:12:14.729753 30558 net.cpp:408] lstm1_unit_5 <- gate_input_5
I0602 14:12:14.729766 30558 net.cpp:408] lstm1_unit_5 <- cont_5_lstm1_cont_slice_4_split_1
I0602 14:12:14.729779 30558 net.cpp:382] lstm1_unit_5 -> c_5
I0602 14:12:14.729794 30558 net.cpp:382] lstm1_unit_5 -> h_5
I0602 14:12:14.729809 30558 net.cpp:124] Setting up lstm1_unit_5
I0602 14:12:14.729821 30558 net.cpp:131] Top shape: 1 1 100 (100)
I0602 14:12:14.729831 30558 net.cpp:131] Top shape: 1 1 100 (100)
I0602 14:12:14.729841 30558 net.cpp:139] Memory required for data: 258560
I0602 14:12:14.729851 30558 layer_factory.hpp:77] Creating layer h_5_lstm1_unit_5_1_split
I0602 14:12:14.729862 30558 net.cpp:86] Creating Layer h_5_lstm1_unit_5_1_split
I0602 14:12:14.729876 30558 net.cpp:408] h_5_lstm1_unit_5_1_split <- h_5
I0602 14:12:14.729892 30558 net.cpp:382] h_5_lstm1_unit_5_1_split -> h_5_lstm1_unit_5_1_split_0
I0602 14:12:14.729913 30558 net.cpp:382] h_5_lstm1_unit_5_1_split -> h_5_lstm1_unit_5_1_split_1
I0602 14:12:14.729930 30558 net.cpp:124] Setting up h_5_lstm1_unit_5_1_split
I0602 14:12:14.729943 30558 net.cpp:131] Top shape: 1 1 100 (100)
I0602 14:12:14.729955 30558 net.cpp:131] Top shape: 1 1 100 (100)
I0602 14:12:14.729964 30558 net.cpp:139] Memory required for data: 259360
I0602 14:12:14.729974 30558 layer_factory.hpp:77] Creating layer lstm1_h_conted_5
I0602 14:12:14.729990 30558 net.cpp:86] Creating Layer lstm1_h_conted_5
I0602 14:12:14.730001 30558 net.cpp:408] lstm1_h_conted_5 <- h_5_lstm1_unit_5_1_split_0
I0602 14:12:14.730013 30558 net.cpp:408] lstm1_h_conted_5 <- cont_6_lstm1_cont_slice_5_split_0
I0602 14:12:14.730026 30558 net.cpp:382] lstm1_h_conted_5 -> h_conted_5
I0602 14:12:14.730046 30558 net.cpp:124] Setting up lstm1_h_conted_5
I0602 14:12:14.730057 30558 net.cpp:131] Top shape: 1 1 100 (100)
I0602 14:12:14.730069 30558 net.cpp:139] Memory required for data: 259760
I0602 14:12:14.730078 30558 layer_factory.hpp:77] Creating layer lstm1_transform_6
I0602 14:12:14.730094 30558 net.cpp:86] Creating Layer lstm1_transform_6
I0602 14:12:14.730106 30558 net.cpp:408] lstm1_transform_6 <- h_conted_5
I0602 14:12:14.730118 30558 net.cpp:382] lstm1_transform_6 -> W_hc_h_5
I0602 14:12:14.730494 30558 net.cpp:124] Setting up lstm1_transform_6
I0602 14:12:14.730509 30558 net.cpp:131] Top shape: 1 1 400 (400)
I0602 14:12:14.730518 30558 net.cpp:139] Memory required for data: 261360
I0602 14:12:14.730531 30558 net.cpp:467] Sharing parameters 'W_hc' owned by layer 'lstm1_transform_1', param index 0
I0602 14:12:14.730540 30558 layer_factory.hpp:77] Creating layer lstm1_gate_input_6
I0602 14:12:14.730554 30558 net.cpp:86] Creating Layer lstm1_gate_input_6
I0602 14:12:14.730567 30558 net.cpp:408] lstm1_gate_input_6 <- W_hc_h_5
I0602 14:12:14.730579 30558 net.cpp:408] lstm1_gate_input_6 <- W_xc_x_6
I0602 14:12:14.730594 30558 net.cpp:382] lstm1_gate_input_6 -> gate_input_6
I0602 14:12:14.730608 30558 net.cpp:124] Setting up lstm1_gate_input_6
I0602 14:12:14.730619 30558 net.cpp:131] Top shape: 1 1 400 (400)
I0602 14:12:14.730628 30558 net.cpp:139] Memory required for data: 262960
I0602 14:12:14.730636 30558 layer_factory.hpp:77] Creating layer lstm1_unit_6
I0602 14:12:14.730650 30558 net.cpp:86] Creating Layer lstm1_unit_6
I0602 14:12:14.730660 30558 net.cpp:408] lstm1_unit_6 <- c_5
I0602 14:12:14.730671 30558 net.cpp:408] lstm1_unit_6 <- gate_input_6
I0602 14:12:14.730684 30558 net.cpp:408] lstm1_unit_6 <- cont_6_lstm1_cont_slice_5_split_1
I0602 14:12:14.730695 30558 net.cpp:382] lstm1_unit_6 -> c_6
I0602 14:12:14.730712 30558 net.cpp:382] lstm1_unit_6 -> h_6
I0602 14:12:14.730731 30558 net.cpp:124] Setting up lstm1_unit_6
I0602 14:12:14.730741 30558 net.cpp:131] Top shape: 1 1 100 (100)
I0602 14:12:14.730751 30558 net.cpp:131] Top shape: 1 1 100 (100)
I0602 14:12:14.730762 30558 net.cpp:139] Memory required for data: 263760
I0602 14:12:14.730772 30558 layer_factory.hpp:77] Creating layer h_6_lstm1_unit_6_1_split
I0602 14:12:14.730783 30558 net.cpp:86] Creating Layer h_6_lstm1_unit_6_1_split
I0602 14:12:14.730795 30558 net.cpp:408] h_6_lstm1_unit_6_1_split <- h_6
I0602 14:12:14.730808 30558 net.cpp:382] h_6_lstm1_unit_6_1_split -> h_6_lstm1_unit_6_1_split_0
I0602 14:12:14.730821 30558 net.cpp:382] h_6_lstm1_unit_6_1_split -> h_6_lstm1_unit_6_1_split_1
I0602 14:12:14.730835 30558 net.cpp:124] Setting up h_6_lstm1_unit_6_1_split
I0602 14:12:14.730847 30558 net.cpp:131] Top shape: 1 1 100 (100)
I0602 14:12:14.730859 30558 net.cpp:131] Top shape: 1 1 100 (100)
I0602 14:12:14.730870 30558 net.cpp:139] Memory required for data: 264560
I0602 14:12:14.730881 30558 layer_factory.hpp:77] Creating layer lstm1_h_conted_6
I0602 14:12:14.730896 30558 net.cpp:86] Creating Layer lstm1_h_conted_6
I0602 14:12:14.730911 30558 net.cpp:408] lstm1_h_conted_6 <- h_6_lstm1_unit_6_1_split_0
I0602 14:12:14.730921 30558 net.cpp:408] lstm1_h_conted_6 <- cont_7_lstm1_cont_slice_6_split_0
I0602 14:12:14.730937 30558 net.cpp:382] lstm1_h_conted_6 -> h_conted_6
I0602 14:12:14.730962 30558 net.cpp:124] Setting up lstm1_h_conted_6
I0602 14:12:14.730974 30558 net.cpp:131] Top shape: 1 1 100 (100)
I0602 14:12:14.730986 30558 net.cpp:139] Memory required for data: 264960
I0602 14:12:14.730996 30558 layer_factory.hpp:77] Creating layer lstm1_transform_7
I0602 14:12:14.731009 30558 net.cpp:86] Creating Layer lstm1_transform_7
I0602 14:12:14.731020 30558 net.cpp:408] lstm1_transform_7 <- h_conted_6
I0602 14:12:14.731034 30558 net.cpp:382] lstm1_transform_7 -> W_hc_h_6
I0602 14:12:14.731411 30558 net.cpp:124] Setting up lstm1_transform_7
I0602 14:12:14.731426 30558 net.cpp:131] Top shape: 1 1 400 (400)
I0602 14:12:14.731436 30558 net.cpp:139] Memory required for data: 266560
I0602 14:12:14.731447 30558 net.cpp:467] Sharing parameters 'W_hc' owned by layer 'lstm1_transform_1', param index 0
I0602 14:12:14.731457 30558 layer_factory.hpp:77] Creating layer lstm1_gate_input_7
I0602 14:12:14.731472 30558 net.cpp:86] Creating Layer lstm1_gate_input_7
I0602 14:12:14.731480 30558 net.cpp:408] lstm1_gate_input_7 <- W_hc_h_6
I0602 14:12:14.731492 30558 net.cpp:408] lstm1_gate_input_7 <- W_xc_x_7
I0602 14:12:14.731503 30558 net.cpp:382] lstm1_gate_input_7 -> gate_input_7
I0602 14:12:14.731520 30558 net.cpp:124] Setting up lstm1_gate_input_7
I0602 14:12:14.731531 30558 net.cpp:131] Top shape: 1 1 400 (400)
I0602 14:12:14.731541 30558 net.cpp:139] Memory required for data: 268160
I0602 14:12:14.731551 30558 layer_factory.hpp:77] Creating layer lstm1_unit_7
I0602 14:12:14.731564 30558 net.cpp:86] Creating Layer lstm1_unit_7
I0602 14:12:14.731575 30558 net.cpp:408] lstm1_unit_7 <- c_6
I0602 14:12:14.731587 30558 net.cpp:408] lstm1_unit_7 <- gate_input_7
I0602 14:12:14.731597 30558 net.cpp:408] lstm1_unit_7 <- cont_7_lstm1_cont_slice_6_split_1
I0602 14:12:14.731611 30558 net.cpp:382] lstm1_unit_7 -> c_7
I0602 14:12:14.731624 30558 net.cpp:382] lstm1_unit_7 -> h_7
I0602 14:12:14.731642 30558 net.cpp:124] Setting up lstm1_unit_7
I0602 14:12:14.731652 30558 net.cpp:131] Top shape: 1 1 100 (100)
I0602 14:12:14.731665 30558 net.cpp:131] Top shape: 1 1 100 (100)
I0602 14:12:14.731674 30558 net.cpp:139] Memory required for data: 268960
I0602 14:12:14.731684 30558 layer_factory.hpp:77] Creating layer h_7_lstm1_unit_7_1_split
I0602 14:12:14.731696 30558 net.cpp:86] Creating Layer h_7_lstm1_unit_7_1_split
I0602 14:12:14.731706 30558 net.cpp:408] h_7_lstm1_unit_7_1_split <- h_7
I0602 14:12:14.731720 30558 net.cpp:382] h_7_lstm1_unit_7_1_split -> h_7_lstm1_unit_7_1_split_0
I0602 14:12:14.731734 30558 net.cpp:382] h_7_lstm1_unit_7_1_split -> h_7_lstm1_unit_7_1_split_1
I0602 14:12:14.731748 30558 net.cpp:124] Setting up h_7_lstm1_unit_7_1_split
I0602 14:12:14.731760 30558 net.cpp:131] Top shape: 1 1 100 (100)
I0602 14:12:14.731772 30558 net.cpp:131] Top shape: 1 1 100 (100)
I0602 14:12:14.731809 30558 net.cpp:139] Memory required for data: 269760
I0602 14:12:14.731822 30558 layer_factory.hpp:77] Creating layer lstm1_h_conted_7
I0602 14:12:14.731838 30558 net.cpp:86] Creating Layer lstm1_h_conted_7
I0602 14:12:14.731848 30558 net.cpp:408] lstm1_h_conted_7 <- h_7_lstm1_unit_7_1_split_0
I0602 14:12:14.731861 30558 net.cpp:408] lstm1_h_conted_7 <- cont_8_lstm1_cont_slice_7_split_0
I0602 14:12:14.731870 30558 net.cpp:382] lstm1_h_conted_7 -> h_conted_7
I0602 14:12:14.731889 30558 net.cpp:124] Setting up lstm1_h_conted_7
I0602 14:12:14.731900 30558 net.cpp:131] Top shape: 1 1 100 (100)
I0602 14:12:14.731910 30558 net.cpp:139] Memory required for data: 270160
I0602 14:12:14.731921 30558 layer_factory.hpp:77] Creating layer lstm1_transform_8
I0602 14:12:14.731935 30558 net.cpp:86] Creating Layer lstm1_transform_8
I0602 14:12:14.731947 30558 net.cpp:408] lstm1_transform_8 <- h_conted_7
I0602 14:12:14.731961 30558 net.cpp:382] lstm1_transform_8 -> W_hc_h_7
I0602 14:12:14.732334 30558 net.cpp:124] Setting up lstm1_transform_8
I0602 14:12:14.732352 30558 net.cpp:131] Top shape: 1 1 400 (400)
I0602 14:12:14.732360 30558 net.cpp:139] Memory required for data: 271760
I0602 14:12:14.732375 30558 net.cpp:467] Sharing parameters 'W_hc' owned by layer 'lstm1_transform_1', param index 0
I0602 14:12:14.732393 30558 layer_factory.hpp:77] Creating layer lstm1_gate_input_8
I0602 14:12:14.732406 30558 net.cpp:86] Creating Layer lstm1_gate_input_8
I0602 14:12:14.732419 30558 net.cpp:408] lstm1_gate_input_8 <- W_hc_h_7
I0602 14:12:14.732430 30558 net.cpp:408] lstm1_gate_input_8 <- W_xc_x_8
I0602 14:12:14.732442 30558 net.cpp:382] lstm1_gate_input_8 -> gate_input_8
I0602 14:12:14.732457 30558 net.cpp:124] Setting up lstm1_gate_input_8
I0602 14:12:14.732472 30558 net.cpp:131] Top shape: 1 1 400 (400)
I0602 14:12:14.732482 30558 net.cpp:139] Memory required for data: 273360
I0602 14:12:14.732491 30558 layer_factory.hpp:77] Creating layer lstm1_unit_8
I0602 14:12:14.732506 30558 net.cpp:86] Creating Layer lstm1_unit_8
I0602 14:12:14.732516 30558 net.cpp:408] lstm1_unit_8 <- c_7
I0602 14:12:14.732527 30558 net.cpp:408] lstm1_unit_8 <- gate_input_8
I0602 14:12:14.732538 30558 net.cpp:408] lstm1_unit_8 <- cont_8_lstm1_cont_slice_7_split_1
I0602 14:12:14.732549 30558 net.cpp:382] lstm1_unit_8 -> c_8
I0602 14:12:14.732568 30558 net.cpp:382] lstm1_unit_8 -> h_8
I0602 14:12:14.732584 30558 net.cpp:124] Setting up lstm1_unit_8
I0602 14:12:14.732597 30558 net.cpp:131] Top shape: 1 1 100 (100)
I0602 14:12:14.732607 30558 net.cpp:131] Top shape: 1 1 100 (100)
I0602 14:12:14.732620 30558 net.cpp:139] Memory required for data: 274160
I0602 14:12:14.732627 30558 layer_factory.hpp:77] Creating layer h_8_lstm1_unit_8_1_split
I0602 14:12:14.732641 30558 net.cpp:86] Creating Layer h_8_lstm1_unit_8_1_split
I0602 14:12:14.732652 30558 net.cpp:408] h_8_lstm1_unit_8_1_split <- h_8
I0602 14:12:14.732667 30558 net.cpp:382] h_8_lstm1_unit_8_1_split -> h_8_lstm1_unit_8_1_split_0
I0602 14:12:14.732683 30558 net.cpp:382] h_8_lstm1_unit_8_1_split -> h_8_lstm1_unit_8_1_split_1
I0602 14:12:14.732697 30558 net.cpp:124] Setting up h_8_lstm1_unit_8_1_split
I0602 14:12:14.732710 30558 net.cpp:131] Top shape: 1 1 100 (100)
I0602 14:12:14.732720 30558 net.cpp:131] Top shape: 1 1 100 (100)
I0602 14:12:14.732729 30558 net.cpp:139] Memory required for data: 274960
I0602 14:12:14.732738 30558 layer_factory.hpp:77] Creating layer lstm1_h_conted_8
I0602 14:12:14.732750 30558 net.cpp:86] Creating Layer lstm1_h_conted_8
I0602 14:12:14.732759 30558 net.cpp:408] lstm1_h_conted_8 <- h_8_lstm1_unit_8_1_split_0
I0602 14:12:14.732769 30558 net.cpp:408] lstm1_h_conted_8 <- cont_9_lstm1_cont_slice_8_split_0
I0602 14:12:14.732784 30558 net.cpp:382] lstm1_h_conted_8 -> h_conted_8
I0602 14:12:14.732801 30558 net.cpp:124] Setting up lstm1_h_conted_8
I0602 14:12:14.732816 30558 net.cpp:131] Top shape: 1 1 100 (100)
I0602 14:12:14.732823 30558 net.cpp:139] Memory required for data: 275360
I0602 14:12:14.732834 30558 layer_factory.hpp:77] Creating layer lstm1_transform_9
I0602 14:12:14.732851 30558 net.cpp:86] Creating Layer lstm1_transform_9
I0602 14:12:14.732861 30558 net.cpp:408] lstm1_transform_9 <- h_conted_8
I0602 14:12:14.732878 30558 net.cpp:382] lstm1_transform_9 -> W_hc_h_8
I0602 14:12:14.733252 30558 net.cpp:124] Setting up lstm1_transform_9
I0602 14:12:14.733268 30558 net.cpp:131] Top shape: 1 1 400 (400)
I0602 14:12:14.733275 30558 net.cpp:139] Memory required for data: 276960
I0602 14:12:14.733284 30558 net.cpp:467] Sharing parameters 'W_hc' owned by layer 'lstm1_transform_1', param index 0
I0602 14:12:14.733299 30558 layer_factory.hpp:77] Creating layer lstm1_gate_input_9
I0602 14:12:14.733311 30558 net.cpp:86] Creating Layer lstm1_gate_input_9
I0602 14:12:14.733321 30558 net.cpp:408] lstm1_gate_input_9 <- W_hc_h_8
I0602 14:12:14.733335 30558 net.cpp:408] lstm1_gate_input_9 <- W_xc_x_9
I0602 14:12:14.733345 30558 net.cpp:382] lstm1_gate_input_9 -> gate_input_9
I0602 14:12:14.733361 30558 net.cpp:124] Setting up lstm1_gate_input_9
I0602 14:12:14.733374 30558 net.cpp:131] Top shape: 1 1 400 (400)
I0602 14:12:14.733386 30558 net.cpp:139] Memory required for data: 278560
I0602 14:12:14.733394 30558 layer_factory.hpp:77] Creating layer lstm1_unit_9
I0602 14:12:14.733412 30558 net.cpp:86] Creating Layer lstm1_unit_9
I0602 14:12:14.733428 30558 net.cpp:408] lstm1_unit_9 <- c_8
I0602 14:12:14.733443 30558 net.cpp:408] lstm1_unit_9 <- gate_input_9
I0602 14:12:14.733454 30558 net.cpp:408] lstm1_unit_9 <- cont_9_lstm1_cont_slice_8_split_1
I0602 14:12:14.733470 30558 net.cpp:382] lstm1_unit_9 -> c_9
I0602 14:12:14.733484 30558 net.cpp:382] lstm1_unit_9 -> h_9
I0602 14:12:14.733500 30558 net.cpp:124] Setting up lstm1_unit_9
I0602 14:12:14.733516 30558 net.cpp:131] Top shape: 1 1 100 (100)
I0602 14:12:14.733530 30558 net.cpp:131] Top shape: 1 1 100 (100)
I0602 14:12:14.733538 30558 net.cpp:139] Memory required for data: 279360
I0602 14:12:14.733549 30558 layer_factory.hpp:77] Creating layer h_9_lstm1_unit_9_1_split
I0602 14:12:14.733566 30558 net.cpp:86] Creating Layer h_9_lstm1_unit_9_1_split
I0602 14:12:14.733578 30558 net.cpp:408] h_9_lstm1_unit_9_1_split <- h_9
I0602 14:12:14.733592 30558 net.cpp:382] h_9_lstm1_unit_9_1_split -> h_9_lstm1_unit_9_1_split_0
I0602 14:12:14.733603 30558 net.cpp:382] h_9_lstm1_unit_9_1_split -> h_9_lstm1_unit_9_1_split_1
I0602 14:12:14.733620 30558 net.cpp:124] Setting up h_9_lstm1_unit_9_1_split
I0602 14:12:14.733634 30558 net.cpp:131] Top shape: 1 1 100 (100)
I0602 14:12:14.733646 30558 net.cpp:131] Top shape: 1 1 100 (100)
I0602 14:12:14.733655 30558 net.cpp:139] Memory required for data: 280160
I0602 14:12:14.733667 30558 layer_factory.hpp:77] Creating layer lstm1_h_conted_9
I0602 14:12:14.733678 30558 net.cpp:86] Creating Layer lstm1_h_conted_9
I0602 14:12:14.733690 30558 net.cpp:408] lstm1_h_conted_9 <- h_9_lstm1_unit_9_1_split_0
I0602 14:12:14.733702 30558 net.cpp:408] lstm1_h_conted_9 <- cont_10_lstm1_cont_slice_9_split_0
I0602 14:12:14.733713 30558 net.cpp:382] lstm1_h_conted_9 -> h_conted_9
I0602 14:12:14.733736 30558 net.cpp:124] Setting up lstm1_h_conted_9
I0602 14:12:14.733752 30558 net.cpp:131] Top shape: 1 1 100 (100)
I0602 14:12:14.733760 30558 net.cpp:139] Memory required for data: 280560
I0602 14:12:14.733769 30558 layer_factory.hpp:77] Creating layer lstm1_transform_10
I0602 14:12:14.733783 30558 net.cpp:86] Creating Layer lstm1_transform_10
I0602 14:12:14.733794 30558 net.cpp:408] lstm1_transform_10 <- h_conted_9
I0602 14:12:14.733810 30558 net.cpp:382] lstm1_transform_10 -> W_hc_h_9
I0602 14:12:14.734184 30558 net.cpp:124] Setting up lstm1_transform_10
I0602 14:12:14.734200 30558 net.cpp:131] Top shape: 1 1 400 (400)
I0602 14:12:14.734210 30558 net.cpp:139] Memory required for data: 282160
I0602 14:12:14.734221 30558 net.cpp:467] Sharing parameters 'W_hc' owned by layer 'lstm1_transform_1', param index 0
I0602 14:12:14.734236 30558 layer_factory.hpp:77] Creating layer lstm1_gate_input_10
I0602 14:12:14.734251 30558 net.cpp:86] Creating Layer lstm1_gate_input_10
I0602 14:12:14.734262 30558 net.cpp:408] lstm1_gate_input_10 <- W_hc_h_9
I0602 14:12:14.734273 30558 net.cpp:408] lstm1_gate_input_10 <- W_xc_x_10
I0602 14:12:14.734287 30558 net.cpp:382] lstm1_gate_input_10 -> gate_input_10
I0602 14:12:14.734303 30558 net.cpp:124] Setting up lstm1_gate_input_10
I0602 14:12:14.734318 30558 net.cpp:131] Top shape: 1 1 400 (400)
I0602 14:12:14.734329 30558 net.cpp:139] Memory required for data: 283760
I0602 14:12:14.734339 30558 layer_factory.hpp:77] Creating layer lstm1_unit_10
I0602 14:12:14.734352 30558 net.cpp:86] Creating Layer lstm1_unit_10
I0602 14:12:14.734364 30558 net.cpp:408] lstm1_unit_10 <- c_9
I0602 14:12:14.734376 30558 net.cpp:408] lstm1_unit_10 <- gate_input_10
I0602 14:12:14.734386 30558 net.cpp:408] lstm1_unit_10 <- cont_10_lstm1_cont_slice_9_split_1
I0602 14:12:14.734400 30558 net.cpp:382] lstm1_unit_10 -> c_10
I0602 14:12:14.734413 30558 net.cpp:382] lstm1_unit_10 -> h_10
I0602 14:12:14.734429 30558 net.cpp:124] Setting up lstm1_unit_10
I0602 14:12:14.734441 30558 net.cpp:131] Top shape: 1 1 100 (100)
I0602 14:12:14.734450 30558 net.cpp:131] Top shape: 1 1 100 (100)
I0602 14:12:14.734462 30558 net.cpp:139] Memory required for data: 284560
I0602 14:12:14.734470 30558 layer_factory.hpp:77] Creating layer h_10_lstm1_unit_10_1_split
I0602 14:12:14.734493 30558 net.cpp:86] Creating Layer h_10_lstm1_unit_10_1_split
I0602 14:12:14.734504 30558 net.cpp:408] h_10_lstm1_unit_10_1_split <- h_10
I0602 14:12:14.734519 30558 net.cpp:382] h_10_lstm1_unit_10_1_split -> h_10_lstm1_unit_10_1_split_0
I0602 14:12:14.734534 30558 net.cpp:382] h_10_lstm1_unit_10_1_split -> h_10_lstm1_unit_10_1_split_1
I0602 14:12:14.734550 30558 net.cpp:124] Setting up h_10_lstm1_unit_10_1_split
I0602 14:12:14.734561 30558 net.cpp:131] Top shape: 1 1 100 (100)
I0602 14:12:14.734575 30558 net.cpp:131] Top shape: 1 1 100 (100)
I0602 14:12:14.734585 30558 net.cpp:139] Memory required for data: 285360
I0602 14:12:14.734596 30558 layer_factory.hpp:77] Creating layer lstm1_h_conted_10
I0602 14:12:14.734607 30558 net.cpp:86] Creating Layer lstm1_h_conted_10
I0602 14:12:14.734617 30558 net.cpp:408] lstm1_h_conted_10 <- h_10_lstm1_unit_10_1_split_0
I0602 14:12:14.734629 30558 net.cpp:408] lstm1_h_conted_10 <- cont_11_lstm1_cont_slice_10_split_0
I0602 14:12:14.734644 30558 net.cpp:382] lstm1_h_conted_10 -> h_conted_10
I0602 14:12:14.734664 30558 net.cpp:124] Setting up lstm1_h_conted_10
I0602 14:12:14.734678 30558 net.cpp:131] Top shape: 1 1 100 (100)
I0602 14:12:14.734688 30558 net.cpp:139] Memory required for data: 285760
I0602 14:12:14.734699 30558 layer_factory.hpp:77] Creating layer lstm1_transform_11
I0602 14:12:14.734714 30558 net.cpp:86] Creating Layer lstm1_transform_11
I0602 14:12:14.734722 30558 net.cpp:408] lstm1_transform_11 <- h_conted_10
I0602 14:12:14.734738 30558 net.cpp:382] lstm1_transform_11 -> W_hc_h_10
I0602 14:12:14.735112 30558 net.cpp:124] Setting up lstm1_transform_11
I0602 14:12:14.735126 30558 net.cpp:131] Top shape: 1 1 400 (400)
I0602 14:12:14.735136 30558 net.cpp:139] Memory required for data: 287360
I0602 14:12:14.735146 30558 net.cpp:467] Sharing parameters 'W_hc' owned by layer 'lstm1_transform_1', param index 0
I0602 14:12:14.735155 30558 layer_factory.hpp:77] Creating layer lstm1_gate_input_11
I0602 14:12:14.735170 30558 net.cpp:86] Creating Layer lstm1_gate_input_11
I0602 14:12:14.735182 30558 net.cpp:408] lstm1_gate_input_11 <- W_hc_h_10
I0602 14:12:14.735193 30558 net.cpp:408] lstm1_gate_input_11 <- W_xc_x_11
I0602 14:12:14.735208 30558 net.cpp:382] lstm1_gate_input_11 -> gate_input_11
I0602 14:12:14.735222 30558 net.cpp:124] Setting up lstm1_gate_input_11
I0602 14:12:14.735234 30558 net.cpp:131] Top shape: 1 1 400 (400)
I0602 14:12:14.735241 30558 net.cpp:139] Memory required for data: 288960
I0602 14:12:14.735250 30558 layer_factory.hpp:77] Creating layer lstm1_unit_11
I0602 14:12:14.735263 30558 net.cpp:86] Creating Layer lstm1_unit_11
I0602 14:12:14.735273 30558 net.cpp:408] lstm1_unit_11 <- c_10
I0602 14:12:14.735288 30558 net.cpp:408] lstm1_unit_11 <- gate_input_11
I0602 14:12:14.735299 30558 net.cpp:408] lstm1_unit_11 <- cont_11_lstm1_cont_slice_10_split_1
I0602 14:12:14.735311 30558 net.cpp:382] lstm1_unit_11 -> c_11
I0602 14:12:14.735324 30558 net.cpp:382] lstm1_unit_11 -> h_11
I0602 14:12:14.735340 30558 net.cpp:124] Setting up lstm1_unit_11
I0602 14:12:14.735354 30558 net.cpp:131] Top shape: 1 1 100 (100)
I0602 14:12:14.735365 30558 net.cpp:131] Top shape: 1 1 100 (100)
I0602 14:12:14.735378 30558 net.cpp:139] Memory required for data: 289760
I0602 14:12:14.735388 30558 layer_factory.hpp:77] Creating layer h_11_lstm1_unit_11_1_split
I0602 14:12:14.735397 30558 net.cpp:86] Creating Layer h_11_lstm1_unit_11_1_split
I0602 14:12:14.735407 30558 net.cpp:408] h_11_lstm1_unit_11_1_split <- h_11
I0602 14:12:14.735420 30558 net.cpp:382] h_11_lstm1_unit_11_1_split -> h_11_lstm1_unit_11_1_split_0
I0602 14:12:14.735436 30558 net.cpp:382] h_11_lstm1_unit_11_1_split -> h_11_lstm1_unit_11_1_split_1
I0602 14:12:14.735451 30558 net.cpp:124] Setting up h_11_lstm1_unit_11_1_split
I0602 14:12:14.735466 30558 net.cpp:131] Top shape: 1 1 100 (100)
I0602 14:12:14.735477 30558 net.cpp:131] Top shape: 1 1 100 (100)
I0602 14:12:14.735488 30558 net.cpp:139] Memory required for data: 290560
I0602 14:12:14.735498 30558 layer_factory.hpp:77] Creating layer lstm1_h_conted_11
I0602 14:12:14.735520 30558 net.cpp:86] Creating Layer lstm1_h_conted_11
I0602 14:12:14.735532 30558 net.cpp:408] lstm1_h_conted_11 <- h_11_lstm1_unit_11_1_split_0
I0602 14:12:14.735544 30558 net.cpp:408] lstm1_h_conted_11 <- cont_12_lstm1_cont_slice_11_split_0
I0602 14:12:14.735556 30558 net.cpp:382] lstm1_h_conted_11 -> h_conted_11
I0602 14:12:14.735574 30558 net.cpp:124] Setting up lstm1_h_conted_11
I0602 14:12:14.735586 30558 net.cpp:131] Top shape: 1 1 100 (100)
I0602 14:12:14.735595 30558 net.cpp:139] Memory required for data: 290960
I0602 14:12:14.735605 30558 layer_factory.hpp:77] Creating layer lstm1_transform_12
I0602 14:12:14.735621 30558 net.cpp:86] Creating Layer lstm1_transform_12
I0602 14:12:14.735632 30558 net.cpp:408] lstm1_transform_12 <- h_conted_11
I0602 14:12:14.735646 30558 net.cpp:382] lstm1_transform_12 -> W_hc_h_11
I0602 14:12:14.736057 30558 net.cpp:124] Setting up lstm1_transform_12
I0602 14:12:14.736074 30558 net.cpp:131] Top shape: 1 1 400 (400)
I0602 14:12:14.736083 30558 net.cpp:139] Memory required for data: 292560
I0602 14:12:14.736093 30558 net.cpp:467] Sharing parameters 'W_hc' owned by layer 'lstm1_transform_1', param index 0
I0602 14:12:14.736104 30558 layer_factory.hpp:77] Creating layer lstm1_gate_input_12
I0602 14:12:14.736119 30558 net.cpp:86] Creating Layer lstm1_gate_input_12
I0602 14:12:14.736129 30558 net.cpp:408] lstm1_gate_input_12 <- W_hc_h_11
I0602 14:12:14.736141 30558 net.cpp:408] lstm1_gate_input_12 <- W_xc_x_12
I0602 14:12:14.736153 30558 net.cpp:382] lstm1_gate_input_12 -> gate_input_12
I0602 14:12:14.736169 30558 net.cpp:124] Setting up lstm1_gate_input_12
I0602 14:12:14.736181 30558 net.cpp:131] Top shape: 1 1 400 (400)
I0602 14:12:14.736191 30558 net.cpp:139] Memory required for data: 294160
I0602 14:12:14.736202 30558 layer_factory.hpp:77] Creating layer lstm1_unit_12
I0602 14:12:14.736213 30558 net.cpp:86] Creating Layer lstm1_unit_12
I0602 14:12:14.736225 30558 net.cpp:408] lstm1_unit_12 <- c_11
I0602 14:12:14.736238 30558 net.cpp:408] lstm1_unit_12 <- gate_input_12
I0602 14:12:14.736253 30558 net.cpp:408] lstm1_unit_12 <- cont_12_lstm1_cont_slice_11_split_1
I0602 14:12:14.736265 30558 net.cpp:382] lstm1_unit_12 -> c_12
I0602 14:12:14.736279 30558 net.cpp:382] lstm1_unit_12 -> h_12
I0602 14:12:14.736294 30558 net.cpp:124] Setting up lstm1_unit_12
I0602 14:12:14.736306 30558 net.cpp:131] Top shape: 1 1 100 (100)
I0602 14:12:14.736316 30558 net.cpp:131] Top shape: 1 1 100 (100)
I0602 14:12:14.736327 30558 net.cpp:139] Memory required for data: 294960
I0602 14:12:14.736340 30558 layer_factory.hpp:77] Creating layer h_12_lstm1_unit_12_1_split
I0602 14:12:14.736352 30558 net.cpp:86] Creating Layer h_12_lstm1_unit_12_1_split
I0602 14:12:14.736366 30558 net.cpp:408] h_12_lstm1_unit_12_1_split <- h_12
I0602 14:12:14.736377 30558 net.cpp:382] h_12_lstm1_unit_12_1_split -> h_12_lstm1_unit_12_1_split_0
I0602 14:12:14.736389 30558 net.cpp:382] h_12_lstm1_unit_12_1_split -> h_12_lstm1_unit_12_1_split_1
I0602 14:12:14.736403 30558 net.cpp:124] Setting up h_12_lstm1_unit_12_1_split
I0602 14:12:14.736418 30558 net.cpp:131] Top shape: 1 1 100 (100)
I0602 14:12:14.736429 30558 net.cpp:131] Top shape: 1 1 100 (100)
I0602 14:12:14.736438 30558 net.cpp:139] Memory required for data: 295760
I0602 14:12:14.736449 30558 layer_factory.hpp:77] Creating layer lstm1_h_conted_12
I0602 14:12:14.736459 30558 net.cpp:86] Creating Layer lstm1_h_conted_12
I0602 14:12:14.736470 30558 net.cpp:408] lstm1_h_conted_12 <- h_12_lstm1_unit_12_1_split_0
I0602 14:12:14.736485 30558 net.cpp:408] lstm1_h_conted_12 <- cont_13_lstm1_cont_slice_12_split_0
I0602 14:12:14.736495 30558 net.cpp:382] lstm1_h_conted_12 -> h_conted_12
I0602 14:12:14.736515 30558 net.cpp:124] Setting up lstm1_h_conted_12
I0602 14:12:14.736526 30558 net.cpp:131] Top shape: 1 1 100 (100)
I0602 14:12:14.736538 30558 net.cpp:139] Memory required for data: 296160
I0602 14:12:14.736548 30558 layer_factory.hpp:77] Creating layer lstm1_transform_13
I0602 14:12:14.736565 30558 net.cpp:86] Creating Layer lstm1_transform_13
I0602 14:12:14.736578 30558 net.cpp:408] lstm1_transform_13 <- h_conted_12
I0602 14:12:14.736600 30558 net.cpp:382] lstm1_transform_13 -> W_hc_h_12
I0602 14:12:14.736977 30558 net.cpp:124] Setting up lstm1_transform_13
I0602 14:12:14.736994 30558 net.cpp:131] Top shape: 1 1 400 (400)
I0602 14:12:14.737004 30558 net.cpp:139] Memory required for data: 297760
I0602 14:12:14.737012 30558 net.cpp:467] Sharing parameters 'W_hc' owned by layer 'lstm1_transform_1', param index 0
I0602 14:12:14.737023 30558 layer_factory.hpp:77] Creating layer lstm1_gate_input_13
I0602 14:12:14.737035 30558 net.cpp:86] Creating Layer lstm1_gate_input_13
I0602 14:12:14.737049 30558 net.cpp:408] lstm1_gate_input_13 <- W_hc_h_12
I0602 14:12:14.737058 30558 net.cpp:408] lstm1_gate_input_13 <- W_xc_x_13
I0602 14:12:14.737072 30558 net.cpp:382] lstm1_gate_input_13 -> gate_input_13
I0602 14:12:14.737087 30558 net.cpp:124] Setting up lstm1_gate_input_13
I0602 14:12:14.737099 30558 net.cpp:131] Top shape: 1 1 400 (400)
I0602 14:12:14.737112 30558 net.cpp:139] Memory required for data: 299360
I0602 14:12:14.737120 30558 layer_factory.hpp:77] Creating layer lstm1_unit_13
I0602 14:12:14.737131 30558 net.cpp:86] Creating Layer lstm1_unit_13
I0602 14:12:14.737143 30558 net.cpp:408] lstm1_unit_13 <- c_12
I0602 14:12:14.737154 30558 net.cpp:408] lstm1_unit_13 <- gate_input_13
I0602 14:12:14.737169 30558 net.cpp:408] lstm1_unit_13 <- cont_13_lstm1_cont_slice_12_split_1
I0602 14:12:14.737181 30558 net.cpp:382] lstm1_unit_13 -> c_13
I0602 14:12:14.737198 30558 net.cpp:382] lstm1_unit_13 -> h_13
I0602 14:12:14.737215 30558 net.cpp:124] Setting up lstm1_unit_13
I0602 14:12:14.737227 30558 net.cpp:131] Top shape: 1 1 100 (100)
I0602 14:12:14.737239 30558 net.cpp:131] Top shape: 1 1 100 (100)
I0602 14:12:14.737251 30558 net.cpp:139] Memory required for data: 300160
I0602 14:12:14.737258 30558 layer_factory.hpp:77] Creating layer h_13_lstm1_unit_13_1_split
I0602 14:12:14.737270 30558 net.cpp:86] Creating Layer h_13_lstm1_unit_13_1_split
I0602 14:12:14.737283 30558 net.cpp:408] h_13_lstm1_unit_13_1_split <- h_13
I0602 14:12:14.737294 30558 net.cpp:382] h_13_lstm1_unit_13_1_split -> h_13_lstm1_unit_13_1_split_0
I0602 14:12:14.737310 30558 net.cpp:382] h_13_lstm1_unit_13_1_split -> h_13_lstm1_unit_13_1_split_1
I0602 14:12:14.737324 30558 net.cpp:124] Setting up h_13_lstm1_unit_13_1_split
I0602 14:12:14.737339 30558 net.cpp:131] Top shape: 1 1 100 (100)
I0602 14:12:14.737349 30558 net.cpp:131] Top shape: 1 1 100 (100)
I0602 14:12:14.737360 30558 net.cpp:139] Memory required for data: 300960
I0602 14:12:14.737368 30558 layer_factory.hpp:77] Creating layer lstm1_h_conted_13
I0602 14:12:14.737381 30558 net.cpp:86] Creating Layer lstm1_h_conted_13
I0602 14:12:14.737392 30558 net.cpp:408] lstm1_h_conted_13 <- h_13_lstm1_unit_13_1_split_0
I0602 14:12:14.737402 30558 net.cpp:408] lstm1_h_conted_13 <- cont_14_lstm1_cont_slice_13_split_0
I0602 14:12:14.737416 30558 net.cpp:382] lstm1_h_conted_13 -> h_conted_13
I0602 14:12:14.737432 30558 net.cpp:124] Setting up lstm1_h_conted_13
I0602 14:12:14.737445 30558 net.cpp:131] Top shape: 1 1 100 (100)
I0602 14:12:14.737453 30558 net.cpp:139] Memory required for data: 301360
I0602 14:12:14.737462 30558 layer_factory.hpp:77] Creating layer lstm1_transform_14
I0602 14:12:14.737478 30558 net.cpp:86] Creating Layer lstm1_transform_14
I0602 14:12:14.737488 30558 net.cpp:408] lstm1_transform_14 <- h_conted_13
I0602 14:12:14.737502 30558 net.cpp:382] lstm1_transform_14 -> W_hc_h_13
I0602 14:12:14.737877 30558 net.cpp:124] Setting up lstm1_transform_14
I0602 14:12:14.737893 30558 net.cpp:131] Top shape: 1 1 400 (400)
I0602 14:12:14.737905 30558 net.cpp:139] Memory required for data: 302960
I0602 14:12:14.737917 30558 net.cpp:467] Sharing parameters 'W_hc' owned by layer 'lstm1_transform_1', param index 0
I0602 14:12:14.737927 30558 layer_factory.hpp:77] Creating layer lstm1_gate_input_14
I0602 14:12:14.737941 30558 net.cpp:86] Creating Layer lstm1_gate_input_14
I0602 14:12:14.737951 30558 net.cpp:408] lstm1_gate_input_14 <- W_hc_h_13
I0602 14:12:14.737968 30558 net.cpp:408] lstm1_gate_input_14 <- W_xc_x_14
I0602 14:12:14.737989 30558 net.cpp:382] lstm1_gate_input_14 -> gate_input_14
I0602 14:12:14.738003 30558 net.cpp:124] Setting up lstm1_gate_input_14
I0602 14:12:14.738015 30558 net.cpp:131] Top shape: 1 1 400 (400)
I0602 14:12:14.738028 30558 net.cpp:139] Memory required for data: 304560
I0602 14:12:14.738037 30558 layer_factory.hpp:77] Creating layer lstm1_unit_14
I0602 14:12:14.738050 30558 net.cpp:86] Creating Layer lstm1_unit_14
I0602 14:12:14.738064 30558 net.cpp:408] lstm1_unit_14 <- c_13
I0602 14:12:14.738075 30558 net.cpp:408] lstm1_unit_14 <- gate_input_14
I0602 14:12:14.738087 30558 net.cpp:408] lstm1_unit_14 <- cont_14_lstm1_cont_slice_13_split_1
I0602 14:12:14.738101 30558 net.cpp:382] lstm1_unit_14 -> c_14
I0602 14:12:14.738116 30558 net.cpp:382] lstm1_unit_14 -> h_14
I0602 14:12:14.738132 30558 net.cpp:124] Setting up lstm1_unit_14
I0602 14:12:14.738147 30558 net.cpp:131] Top shape: 1 1 100 (100)
I0602 14:12:14.738157 30558 net.cpp:131] Top shape: 1 1 100 (100)
I0602 14:12:14.738168 30558 net.cpp:139] Memory required for data: 305360
I0602 14:12:14.738176 30558 layer_factory.hpp:77] Creating layer h_14_lstm1_unit_14_1_split
I0602 14:12:14.738188 30558 net.cpp:86] Creating Layer h_14_lstm1_unit_14_1_split
I0602 14:12:14.738199 30558 net.cpp:408] h_14_lstm1_unit_14_1_split <- h_14
I0602 14:12:14.738210 30558 net.cpp:382] h_14_lstm1_unit_14_1_split -> h_14_lstm1_unit_14_1_split_0
I0602 14:12:14.738225 30558 net.cpp:382] h_14_lstm1_unit_14_1_split -> h_14_lstm1_unit_14_1_split_1
I0602 14:12:14.738239 30558 net.cpp:124] Setting up h_14_lstm1_unit_14_1_split
I0602 14:12:14.738252 30558 net.cpp:131] Top shape: 1 1 100 (100)
I0602 14:12:14.738261 30558 net.cpp:131] Top shape: 1 1 100 (100)
I0602 14:12:14.738270 30558 net.cpp:139] Memory required for data: 306160
I0602 14:12:14.738281 30558 layer_factory.hpp:77] Creating layer lstm1_h_conted_14
I0602 14:12:14.738293 30558 net.cpp:86] Creating Layer lstm1_h_conted_14
I0602 14:12:14.738306 30558 net.cpp:408] lstm1_h_conted_14 <- h_14_lstm1_unit_14_1_split_0
I0602 14:12:14.738317 30558 net.cpp:408] lstm1_h_conted_14 <- cont_15_lstm1_cont_slice_14_split_0
I0602 14:12:14.738329 30558 net.cpp:382] lstm1_h_conted_14 -> h_conted_14
I0602 14:12:14.738346 30558 net.cpp:124] Setting up lstm1_h_conted_14
I0602 14:12:14.738360 30558 net.cpp:131] Top shape: 1 1 100 (100)
I0602 14:12:14.738370 30558 net.cpp:139] Memory required for data: 306560
I0602 14:12:14.738379 30558 layer_factory.hpp:77] Creating layer lstm1_transform_15
I0602 14:12:14.738394 30558 net.cpp:86] Creating Layer lstm1_transform_15
I0602 14:12:14.738405 30558 net.cpp:408] lstm1_transform_15 <- h_conted_14
I0602 14:12:14.738420 30558 net.cpp:382] lstm1_transform_15 -> W_hc_h_14
I0602 14:12:14.738793 30558 net.cpp:124] Setting up lstm1_transform_15
I0602 14:12:14.738807 30558 net.cpp:131] Top shape: 1 1 400 (400)
I0602 14:12:14.738817 30558 net.cpp:139] Memory required for data: 308160
I0602 14:12:14.738831 30558 net.cpp:467] Sharing parameters 'W_hc' owned by layer 'lstm1_transform_1', param index 0
I0602 14:12:14.738842 30558 layer_factory.hpp:77] Creating layer lstm1_gate_input_15
I0602 14:12:14.738854 30558 net.cpp:86] Creating Layer lstm1_gate_input_15
I0602 14:12:14.738864 30558 net.cpp:408] lstm1_gate_input_15 <- W_hc_h_14
I0602 14:12:14.738878 30558 net.cpp:408] lstm1_gate_input_15 <- W_xc_x_15
I0602 14:12:14.738891 30558 net.cpp:382] lstm1_gate_input_15 -> gate_input_15
I0602 14:12:14.738909 30558 net.cpp:124] Setting up lstm1_gate_input_15
I0602 14:12:14.738921 30558 net.cpp:131] Top shape: 1 1 400 (400)
I0602 14:12:14.738934 30558 net.cpp:139] Memory required for data: 309760
I0602 14:12:14.738942 30558 layer_factory.hpp:77] Creating layer lstm1_unit_15
I0602 14:12:14.738953 30558 net.cpp:86] Creating Layer lstm1_unit_15
I0602 14:12:14.738967 30558 net.cpp:408] lstm1_unit_15 <- c_14
I0602 14:12:14.738976 30558 net.cpp:408] lstm1_unit_15 <- gate_input_15
I0602 14:12:14.738988 30558 net.cpp:408] lstm1_unit_15 <- cont_15_lstm1_cont_slice_14_split_1
I0602 14:12:14.739003 30558 net.cpp:382] lstm1_unit_15 -> c_15
I0602 14:12:14.739027 30558 net.cpp:382] lstm1_unit_15 -> h_15
I0602 14:12:14.739048 30558 net.cpp:124] Setting up lstm1_unit_15
I0602 14:12:14.739063 30558 net.cpp:131] Top shape: 1 1 100 (100)
I0602 14:12:14.739071 30558 net.cpp:131] Top shape: 1 1 100 (100)
I0602 14:12:14.739078 30558 net.cpp:139] Memory required for data: 310560
I0602 14:12:14.739084 30558 layer_factory.hpp:77] Creating layer lstm1_
I0602 14:12:14.739091 30558 net.cpp:86] Creating Layer lstm1_
I0602 14:12:14.739097 30558 net.cpp:408] lstm1_ <- c_15
I0602 14:12:14.739105 30558 net.cpp:382] lstm1_ -> c_T
I0602 14:12:14.739115 30558 net.cpp:124] Setting up lstm1_
I0602 14:12:14.739122 30558 net.cpp:131] Top shape: 1 1 100 (100)
I0602 14:12:14.739128 30558 net.cpp:139] Memory required for data: 310960
I0602 14:12:14.739135 30558 layer_factory.hpp:77] Creating layer lstm1_h_concat
I0602 14:12:14.739145 30558 net.cpp:86] Creating Layer lstm1_h_concat
I0602 14:12:14.739151 30558 net.cpp:408] lstm1_h_concat <- h_1_lstm1_unit_1_1_split_1
I0602 14:12:14.739157 30558 net.cpp:408] lstm1_h_concat <- h_2_lstm1_unit_2_1_split_1
…
I0602 14:12:14.740054 30558 net.cpp:202] lstm1_ does not need backward computation.
I0602 14:12:14.740061 30558 net.cpp:244] This network produces output c_T
I0602 14:12:14.740067 30558 net.cpp:244] This network produces output h_pseudoloss
I0602 14:12:14.740170 30558 net.cpp:257] Network initialization done.
I0602 14:12:14.740314 30558 recurrent_layer.cpp:150] Adding parameter 0: W_xc
I0602 14:12:14.740324 30558 recurrent_layer.cpp:150] Adding parameter 1: b_c
I0602 14:12:14.740334 30558 recurrent_layer.cpp:150] Adding parameter 2: W_hc
I0602 14:12:14.740418 30558 net.cpp:124] Setting up lstm1
I0602 14:12:14.740430 30558 net.cpp:131] Top shape: 15 1 100 (1500)
I0602 14:12:14.740437 30558 net.cpp:139] Memory required for data: 40015060
I0602 14:12:14.740452 30558 layer_factory.hpp:77] Creating layer lstm2
I0602 14:12:14.740463 30558 net.cpp:86] Creating Layer lstm2
I0602 14:12:14.740470 30558 net.cpp:408] lstm2 <- lstm1
I0602 14:12:14.740478 30558 net.cpp:408] lstm2 <- indicator_indicator_0_split_1
I0602 14:12:14.740486 30558 net.cpp:382] lstm2 -> lstm2
I0602 14:12:14.740495 30558 recurrent_layer.cpp:20] Initializing recurrent layer: assuming input batch contains 15 timesteps of 1 independent streams.
I0602 14:12:14.740900 30558 net.cpp:53] Initializing net from parameters: 
layer {
  name: "lstm2_"
  type: "Input"
  top: "x"
  top: "cont"
  input_param {
    shape {
      dim: 15
      dim: 1
      dim: 100
    }
    shape {
      dim: 15
      dim: 1
    }
  }
}
layer {
  name: "lstm2_"
  type: "Input"
  top: "c_0"
  top: "h_0"
  input_param {
    shape {
      dim: 1
      dim: 1
      dim: 100
    }
    shape {
      dim: 1
      dim: 1
      dim: 100
    }
  }
}
layer {
  name: "lstm2_cont_slice"
  type: "Slice"
  bottom: "cont"
  top: "cont_1"
  top: "cont_2"
  top: "cont_3"
  top: "cont_4"
  top: "cont_5"
  top: "cont_6"
  top: "cont_7"
  top: "cont_8"
  top: "cont_9"
  top: "cont_10"
  top: "cont_11"
  top: "cont_12"
  top: "cont_13"
  top: "cont_14"
  top: "cont_15"
  slice_param {
    axis: 0
  }
}
layer {
  name: "lstm2_x_transform"
  type: "InnerProduct"
  bottom: "x"
  top: "W_xc_x"
  param {
    name: "W_xc"
  }
  param {
    name: "b_c"
  }
  propagate_down: true
  inner_product_param {
    num_output: 400
    bias_term: true
    weight_filler {
      type: "xavier"
    }
    bias_filler {
      type: "constant"
      value: 0
    }
    axis: 2
  }
}
layer {
  name: "lstm2_W_xc_x_slice"
  type: "Slice"
  bottom: "W_xc_x"
  top: "W_xc_x_1"
  top: "W_xc_x_2"
  top: "W_xc_x_3"
  top: "W_xc_x_4"
  top: "W_xc_x_5"
  top: "W_xc_x_6"
  top: "W_xc_x_7"
  top: "W_xc_x_8"
  top: "W_xc_x_9"
  top: "W_xc_x_10"
  top: "W_xc_x_11"
  top: "W_xc_x_12"
  top: "W_xc_x_13"
  top: "W_xc_x_14"
  top: "W_xc_x_15"
  slice_param {
    axis: 0
  }
}
layer {
  name: "lstm2_h_conted_0"
  type: "Scale"
  bottom: "h_0"
  bottom: "cont_1"
  top: "h_conted_0"
  scale_param {
    axis: 0
  }
}
layer {
  name: "lstm2_transform_1"
  type: "InnerProduct"
  bottom: "h_conted_0"
  top: "W_hc_h_0"
  param {
    name: "W_hc"
  }
  inner_product_param {
    num_output: 400
    bias_term: false
    weight_filler {
      type: "xavier"
    }
    axis: 2
  }
}
layer {
  name: "lstm2_gate_input_1"
  type: "Eltwise"
  bottom: "W_hc_h_0"
  bottom: "W_xc_x_1"
  top: "gate_input_1"
  eltwise_param {
    operation: SUM
  }
}
layer {
  name: "lstm2_unit_1"
  type: "LSTMUnit"
  bottom: "c_0"
  bottom: "gate_input_1"
  bottom: "cont_1"
  top: "c_1"
  top: "h_1"
}
layer {
  name: "lstm2_h_conted_1"
  type: "Scale"
  bottom: "h_1"
  bottom: "cont_2"
  top: "h_conted_1"
  scale_param {
    axis: 0
  }
}
layer {
  name: "lstm2_transform_2"
  type: "InnerProduct"
  bottom: "h_conted_1"
  top: "W_hc_h_1"
  param {
    name: "W_hc"
  }
  inner_product_param {
    num_output: 400
    bias_term: false
    weight_filler {
      type: "xavier"
    }
    axis: 2
  }
}
layer {
  name: "lstm2_gate_input_2"
  type: "Eltwise"
  bottom: "W_hc_h_1"
  bottom: "W_xc_x_2"
  top: "gate_input_2"
  eltwise_param {
    operation: SUM
  }
}
layer {
  name: "lstm2_unit_2"
  type: "LSTMUnit"
  bottom: "c_1"
  bottom: "gate_input_2"
  bottom: "cont_2"
  top: "c_2"
  top: "h_2"
}
layer {
  name: "lstm2_h_conted_2"
  type: "Scale"
  bottom: "h_2"
  bottom: "cont_3"
  top: "h_conted_2"
  scale_param {
    axis: 0
  }
}
layer {
  name: "lstm2_transform_3"
  type: "InnerProduct"
  bottom: "h_conted_2"
  top: "W_hc_h_2"
  param {
    name: "W_hc"
  }
  inner_product_param {
    num_output: 400
    bias_term: false
    weight_filler {
      type: "xavier"
    }
    axis: 2
  }
}
layer {
  name: "lstm2_gate_input_3"
  type: "Eltwise"
  bottom: "W_hc_h_2"
  bottom: "W_xc_x_3"
  top: "gate_input_3"
  eltwise_param {
    operation: SUM
  }
}
layer {
  name: "lstm2_unit_3"
  type: "LSTMUnit"
  bottom: "c_2"
  bottom: "gate_input_3"
  bottom: "cont_3"
  top: "c_3"
  top: "h_3"
}
layer {
  name: "lstm2_h_conted_3"
  type: "Scale"
  bottom: "h_3"
  bottom: "cont_4"
  top: "h_conted_3"
  scale_param {
    axis: 0
  }
}
layer {
  name: "lstm2_transform_4"
  type: "InnerProduct"
  bottom: "h_conted_3"
  top: "W_hc_h_3"
  param {
    name: "W_hc"
  }
  inner_product_param {
    num_output: 400
    bias_term: false
    weight_filler {
      type: "xavier"
    }
    axis: 2
  }
}
layer {
  name: "lstm2_gate_input_4"
  type: "Eltwise"
  bottom: "W_hc_h_3"
  bottom: "W_xc_x_4"
  top: "gate_input_4"
  eltwise_param {
    operation: SUM
  }
}
layer {
  name: "lstm2_unit_4"
  type: "LSTMUnit"
  bottom: "c_3"
  bottom: "gate_input_4"
  bottom: "cont_4"
  top: "c_4"
  top: "h_4"
}
layer {
  name: "lstm2_h_conted_4"
  type: "Scale"
  bottom: "h_4"
  bottom: "cont_5"
  top: "h_conted_4"
  scale_param {
    axis: 0
  }
}
layer {
  name: "lstm2_transform_5"
  type: "InnerProduct"
  bottom: "h_conted_4"
  top: "W_hc_h_4"
  param {
    name: "W_hc"
  }
  inner_product_param {
    num_output: 400
    bias_term: false
    weight_filler {
      type: "xavier"
    }
    axis: 2
  }
}
layer {
  name: "lstm2_gate_input_5"
  type: "Eltwise"
  bottom: "W_hc_h_4"
  bottom: "W_xc_x_5"
  top: "gate_input_5"
  eltwise_param {
    operation: SUM
  }
}
layer {
  name: "lstm2_unit_5"
  type: "LSTMUnit"
  bottom: "c_4"
  bottom: "gate_input_5"
  bottom: "cont_5"
  top: "c_5"
  top: "h_5"
}
layer {
  name: "lstm2_h_conted_5"
  type: "Scale"
  bottom: "h_5"
  bottom: "cont_6"
  top: "h_conted_5"
  scale_param {
    axis: 0
  }
}
layer {
  name: "lstm2_transform_6"
  type: "InnerProduct"
  bottom: "h_conted_5"
  top: "W_hc_h_5"
  param {
    name: "W_hc"
  }
  inner_product_param {
    num_output: 400
    bias_term: false
    weight_filler {
      type: "xavier"
    }
    axis: 2
  }
}
layer {
  name: "lstm2_gate_input_6"
  type: "Eltwise"
  bottom: "W_hc_h_5"
  bottom: "W_xc_x_6"
  top: "gate_input_6"
  eltwise_param {
    operation: SUM
  }
}
layer {
  name: "lstm2_unit_6"
  type: "LSTMUnit"
  bottom: "c_5"
  bottom: "gate_input_6"
  bottom: "cont_6"
  top: "c_6"
  top: "h_6"
}
layer {
  name: "lstm2_h_conted_6"
  type: "Scale"
  bottom: "h_6"
  bottom: "cont_7"
  top: "h_conted_6"
  scale_param {
    axis: 0
  }
}
layer {
  name: "lstm2_transform_7"
  type: "InnerProduct"
  bottom: "h_conted_6"
  top: "W_hc_h_6"
  param {
    name: "W_hc"
  }
  inner_product_param {
    num_output: 400
    bias_term: false
    weight_filler {
      type: "xavier"
    }
    axis: 2
  }
}
layer {
  name: "lstm2_gate_input_7"
  type: "Eltwise"
  bottom: "W_hc_h_6"
  bottom: "W_xc_x_7"
  top: "gate_input_7"
  eltwise_param {
    operation: SUM
  }
}
layer {
  name: "lstm2_unit_7"
  type: "LSTMUnit"
  bottom: "c_6"
  bottom: "gate_input_7"
  bottom: "cont_7"
  top: "c_7"
  top: "h_7"
}
layer {
  name: "lstm2_h_conted_7"
  type: "Scale"
  bottom: "h_7"
  bottom: "cont_8"
  top: "h_conted_7"
  scale_param {
    axis: 0
  }
}
layer {
  name: "lstm2_transform_8"
  type: "InnerProduct"
  bottom: "h_conted_7"
  top: "W_hc_h_7"
  param {
    name: "W_hc"
  }
  inner_product_param {
    num_output: 400
    bias_term: false
    weight_filler {
      type: "xavier"
    }
    axis: 2
  }
}
layer {
  name: "lstm2_gate_input_8"
  type: "Eltwise"
  bottom: "W_hc_h_7"
  bottom: "W_xc_x_8"
  top: "gate_input_8"
  eltwise_param {
    operation: SUM
  }
}
layer {
  name: "lstm2_unit_8"
  type: "LSTMUnit"
  bottom: "c_7"
  bottom: "gate_input_8"
  bottom: "cont_8"
  top: "c_8"
  top: "h_8"
}
layer {
  name: "lstm2_h_conted_8"
  type: "Scale"
  bottom: "h_8"
  bottom: "cont_9"
  top: "h_conted_8"
  scale_param {
    axis: 0
  }
}
layer {
  name: "lstm2_transform_9"
  type: "InnerProduct"
  bottom: "h_conted_8"
  top: "W_hc_h_8"
  param {
    name: "W_hc"
  }
  inner_product_param {
    num_output: 400
    bias_term: false
    weight_filler {
      type: "xavier"
    }
    axis: 2
  }
}
layer {
  name: "lstm2_gate_input_9"
  type: "Eltwise"
  bottom: "W_hc_h_8"
  bottom: "W_xc_x_9"
  top: "gate_input_9"
  eltwise_param {
    operation: SUM
  }
}
layer {
  name: "lstm2_unit_9"
  type: "LSTMUnit"
  bottom: "c_8"
  bottom: "gate_input_9"
  bottom: "cont_9"
  top: "c_9"
  top: "h_9"
}
layer {
  name: "lstm2_h_conted_9"
  type: "Scale"
  bottom: "h_9"
  bottom: "cont_10"
  top: "h_conted_9"
  scale_param {
    axis: 0
  }
}
layer {
  name: "lstm2_transform_10"
  type: "InnerProduct"
  bottom: "h_conted_9"
  top: "W_hc_h_9"
  param {
    name: "W_hc"
  }
  inner_product_param {
    num_output: 400
    bias_term: false
    weight_filler {
      type: "xavier"
    }
    axis: 2
  }
}
layer {
  name: "lstm2_gate_input_10"
  type: "Eltwise"
  bottom: "W_hc_h_9"
  bottom: "W_xc_x_10"
  top: "gate_input_10"
  eltwise_param {
    operation: SUM
  }
}
layer {
  name: "lstm2_unit_10"
  type: "LSTMUnit"
  bottom: "c_9"
  bottom: "gate_input_10"
  bottom: "cont_10"
  top: "c_10"
  top: "h_10"
}
layer {
  name: "lstm2_h_conted_10"
  type: "Scale"
  bottom: "h_10"
  bottom: "cont_11"
  top: "h_conted_10"
  scale_param {
    axis: 0
  }
}
layer {
  name: "lstm2_transform_11"
  type: "InnerProduct"
  bottom: "h_conted_10"
  top: "W_hc_h_10"
  param {
    name: "W_hc"
  }
  inner_product_param {
    num_output: 400
    bias_term: false
    weight_filler {
      type: "xavier"
    }
    axis: 2
  }
}
layer {
  name: "lstm2_gate_input_11"
  type: "Eltwise"
  bottom: "W_hc_h_10"
  bottom: "W_xc_x_11"
  top: "gate_input_11"
  eltwise_param {
    operation: SUM
  }
}
layer {
  name: "lstm2_unit_11"
  type: "LSTMUnit"
  bottom: "c_10"
  bottom: "gate_input_11"
  bottom: "cont_11"
  top: "c_11"
  top: "h_11"
}
layer {
  name: "lstm2_h_conted_11"
  type: "Scale"
  bottom: "h_11"
  bottom: "cont_12"
  top: "h_conted_11"
  scale_param {
    axis: 0
  }
}
layer {
  name: "lstm2_transform_12"
  type: "InnerProduct"
  bottom: "h_conted_11"
  top: "W_hc_h_11"
  param {
    name: "W_hc"
  }
  inner_product_param {
    num_output: 400
    bias_term: false
    weight_filler {
      type: "xavier"
    }
    axis: 2
  }
}
layer {
  name: "lstm2_gate_input_12"
  type: "Eltwise"
  bottom: "W_hc_h_11"
  bottom: "W_xc_x_12"
  top: "gate_input_12"
  eltwise_param {
    operation: SUM
  }
}
layer {
  name: "lstm2_unit_12"
  type: "LSTMUnit"
  bottom: "c_11"
  bottom: "gate_input_12"
  bottom: "cont_12"
  top: "c_12"
  top: "h_12"
}
layer {
  name: "lstm2_h_conted_12"
  type: "Scale"
  bottom: "h_12"
  bottom: "cont_13"
  top: "h_conted_12"
  scale_param {
    axis: 0
  }
}
layer {
  name: "lstm2_transform_13"
  type: "InnerProduct"
  bottom: "h_conted_12"
  top: "W_hc_h_12"
  param {
    name: "W_hc"
  }
  inner_product_param {
    num_output: 400
    bias_term: false
    weight_filler {
      type: "xavier"
    }
    axis: 2
  }
}
layer {
  name: "lstm2_gate_input_13"
  type: "Eltwise"
  bottom: "W_hc_h_12"
  bottom: "W_xc_x_13"
  top: "gate_input_13"
  eltwise_param {
    operation: SUM
  }
}
layer {
  name: "lstm2_unit_13"
  type: "LSTMUnit"
  bottom: "c_12"
  bottom: "gate_input_13"
  bottom: "cont_13"
  top: "c_13"
  top: "h_13"
}
layer {
  name: "lstm2_h_conted_13"
  type: "Scale"
  bottom: "h_13"
  bottom: "cont_14"
  top: "h_conted_13"
  scale_param {
    axis: 0
  }
}
layer {
  name: "lstm2_transform_14"
  type: "InnerProduct"
  bottom: "h_conted_13"
  top: "W_hc_h_13"
  param {
    name: "W_hc"
  }
  inner_product_param {
    num_output: 400
    bias_term: false
    weight_filler {
      type: "xavier"
    }
    axis: 2
  }
}
layer {
  name: "lstm2_gate_input_14"
  type: "Eltwise"
  bottom: "W_hc_h_13"
  bottom: "W_xc_x_14"
  top: "gate_input_14"
  eltwise_param {
    operation: SUM
  }
}
layer {
  name: "lstm2_unit_14"
  type: "LSTMUnit"
  bottom: "c_13"
  bottom: "gate_input_14"
  bottom: "cont_14"
  top: "c_14"
  top: "h_14"
}
layer {
  name: "lstm2_h_conted_14"
  type: "Scale"
  bottom: "h_14"
  bottom: "cont_15"
  top: "h_conted_14"
  scale_param {
    axis: 0
  }
}
layer {
  name: "lstm2_transform_15"
  type: "InnerProduct"
  bottom: "h_conted_14"
  top: "W_hc_h_14"
  param {
    name: "W_hc"
  }
  inner_product_param {
    num_output: 400
    bias_term: false
    weight_filler {
      type: "xavier"
    }
    axis: 2
  }
}
layer {
  name: "lstm2_gate_input_15"
  type: "Eltwise"
  bottom: "W_hc_h_14"
  bottom: "W_xc_x_15"
  top: "gate_input_15"
  eltwise_param {
    operation: SUM
  }
}
layer {
  name: "lstm2_unit_15"
  type: "LSTMUnit"
  bottom: "c_14"
  bottom: "gate_input_15"
  bottom: "cont_15"
  top: "c_15"
  top: "h_15"
}
layer {
  name: "lstm2_"
  type: "Split"
  bottom: "c_15"
  top: "c_T"
}
layer {
  name: "lstm2_h_concat"
  type: "Concat"
  bottom: "h_1"
  bottom: "h_2"
  bottom: "h_3"
  bottom: "h_4"
  bottom: "h_5"
  bottom: "h_6"
  bottom: "h_7"
  bottom: "h_8"
  bottom: "h_9"
  bottom: "h_10"
  bottom: "h_11"
  bottom: "h_12"
  bottom: "h_13"
  bottom: "h_14"
  bottom: "h_15"
  top: "h"
  concat_param {
    axis: 0
  }
}
layer {
  name: "h_pseudoloss"
  type: "Reduction"
  bottom: "h"
  top: "h_pseudoloss"
  loss_weight: 1
}
I0602 14:12:14.741253 30558 layer_factory.hpp:77] Creating layer lstm2_
I0602 14:12:14.741268 30558 net.cpp:86] Creating Layer lstm2_
I0602 14:12:14.741276 30558 net.cpp:382] lstm2_ -> x
I0602 14:12:14.741287 30558 net.cpp:382] lstm2_ -> cont
I0602 14:12:14.741297 30558 net.cpp:124] Setting up lstm2_
I0602 14:12:14.741305 30558 net.cpp:131] Top shape: 15 1 100 (1500)
I0602 14:12:14.741312 30558 net.cpp:131] Top shape: 15 1 (15)
I0602 14:12:14.741318 30558 net.cpp:139] Memory required for data: 6060
I0602 14:12:14.741324 30558 layer_factory.hpp:77] Creating layer lstm2_
I0602 14:12:14.741333 30558 net.cpp:86] Creating Layer lstm2_
I0602 14:12:14.741339 30558 net.cpp:382] lstm2_ -> c_0
I0602 14:12:14.741349 30558 net.cpp:382] lstm2_ -> h_0
I0602 14:12:14.741359 30558 net.cpp:124] Setting up lstm2_
I0602 14:12:14.741366 30558 net.cpp:131] Top shape: 1 1 100 (100)
I0602 14:12:14.741372 30558 net.cpp:131] Top shape: 1 1 100 (100)
I0602 14:12:14.741380 30558 net.cpp:139] Memory required for data: 6860
I0602 14:12:14.741385 30558 layer_factory.hpp:77] Creating layer lstm2_cont_slice
I0602 14:12:14.741394 30558 net.cpp:86] Creating Layer lstm2_cont_slice
I0602 14:12:14.741400 30558 net.cpp:408] lstm2_cont_slice <- cont
I0602 14:12:14.741408 30558 net.cpp:382] lstm2_cont_slice -> cont_1
I0602 14:12:14.741420 30558 net.cpp:382] lstm2_cont_slice -> cont_2
I0602 14:12:14.741430 30558 net.cpp:382] lstm2_cont_slice -> cont_3
I0602 14:12:14.741437 30558 net.cpp:382] lstm2_cont_slice -> cont_4
I0602 14:12:14.741446 30558 net.cpp:382] lstm2_cont_slice -> cont_5
I0602 14:12:14.741456 30558 net.cpp:382] lstm2_cont_slice -> cont_6
I0602 14:12:14.741464 30558 net.cpp:382] lstm2_cont_slice -> cont_7
I0602 14:12:14.741473 30558 net.cpp:382] lstm2_cont_slice -> cont_8
I0602 14:12:14.741482 30558 net.cpp:382] lstm2_cont_slice -> cont_9
I0602 14:12:14.741492 30558 net.cpp:382] lstm2_cont_slice -> cont_10
I0602 14:12:14.741500 30558 net.cpp:382] lstm2_cont_slice -> cont_11
I0602 14:12:14.741509 30558 net.cpp:382] lstm2_cont_slice -> cont_12
I0602 14:12:14.741518 30558 net.cpp:382] lstm2_cont_slice -> cont_13
I0602 14:12:14.741528 30558 net.cpp:382] lstm2_cont_slice -> cont_14
I0602 14:12:14.741535 30558 net.cpp:382] lstm2_cont_slice -> cont_15
I0602 14:12:14.741551 30558 net.cpp:124] Setting up lstm2_cont_slice
I0602 14:12:14.741559 30558 net.cpp:131] Top shape: 1 1 (1)
I0602 14:12:14.741566 30558 net.cpp:131] Top shape: 1 1 (1)
I0602 14:12:14.741574 30558 net.cpp:131] Top shape: 1 1 (1)
I0602 14:12:14.741580 30558 net.cpp:131] Top shape: 1 1 (1)
I0602 14:12:14.741586 30558 net.cpp:131] Top shape: 1 1 (1)
I0602 14:12:14.741592 30558 net.cpp:131] Top shape: 1 1 (1)
I0602 14:12:14.741600 30558 net.cpp:131] Top shape: 1 1 (1)
I0602 14:12:14.741606 30558 net.cpp:131] Top shape: 1 1 (1)
I0602 14:12:14.741613 30558 net.cpp:131] Top shape: 1 1 (1)
I0602 14:12:14.741619 30558 net.cpp:131] Top shape: 1 1 (1)
I0602 14:12:14.741629 30558 net.cpp:131] Top shape: 1 1 (1)
I0602 14:12:14.741643 30558 net.cpp:131] Top shape: 1 1 (1)
I0602 14:12:14.741652 30558 net.cpp:131] Top shape: 1 1 (1)
I0602 14:12:14.741657 30558 net.cpp:131] Top shape: 1 1 (1)
I0602 14:12:14.741665 30558 net.cpp:131] Top shape: 1 1 (1)
I0602 14:12:14.741672 30558 net.cpp:139] Memory required for data: 6920
I0602 14:12:14.741677 30558 layer_factory.hpp:77] Creating layer cont_1_lstm2_cont_slice_0_split
I0602 14:12:14.741684 30558 net.cpp:86] Creating Layer cont_1_lstm2_cont_slice_0_split
I0602 14:12:14.741690 30558 net.cpp:408] cont_1_lstm2_cont_slice_0_split <- cont_1
I0602 14:12:14.741698 30558 net.cpp:382] cont_1_lstm2_cont_slice_0_split -> cont_1_lstm2_cont_slice_0_split_0
I0602 14:12:14.741705 30558 net.cpp:382] cont_1_lstm2_cont_slice_0_split -> cont_1_lstm2_cont_slice_0_split_1
I0602 14:12:14.741714 30558 net.cpp:124] Setting up cont_1_lstm2_cont_slice_0_split
I0602 14:12:14.741721 30558 net.cpp:131] Top shape: 1 1 (1)
I0602 14:12:14.741729 30558 net.cpp:131] Top shape: 1 1 (1)
I0602 14:12:14.741735 30558 net.cpp:139] Memory required for data: 6928
I0602 14:12:14.741740 30558 layer_factory.hpp:77] Creating layer cont_2_lstm2_cont_slice_1_split
I0602 14:12:14.741747 30558 net.cpp:86] Creating Layer cont_2_lstm2_cont_slice_1_split
I0602 14:12:14.741753 30558 net.cpp:408] cont_2_lstm2_cont_slice_1_split <- cont_2
I0602 14:12:14.741761 30558 net.cpp:382] cont_2_lstm2_cont_slice_1_split -> cont_2_lstm2_cont_slice_1_split_0
I0602 14:12:14.741770 30558 net.cpp:382] cont_2_lstm2_cont_slice_1_split -> cont_2_lstm2_cont_slice_1_split_1
I0602 14:12:14.741778 30558 net.cpp:124] Setting up cont_2_lstm2_cont_slice_1_split
I0602 14:12:14.741786 30558 net.cpp:131] Top shape: 1 1 (1)
I0602 14:12:14.741793 30558 net.cpp:131] Top shape: 1 1 (1)
I0602 14:12:14.741799 30558 net.cpp:139] Memory required for data: 6936
I0602 14:12:14.741806 30558 layer_factory.hpp:77] Creating layer cont_3_lstm2_cont_slice_2_split
I0602 14:12:14.741812 30558 net.cpp:86] Creating Layer cont_3_lstm2_cont_slice_2_split
I0602 14:12:14.741818 30558 net.cpp:408] cont_3_lstm2_cont_slice_2_split <- cont_3
I0602 14:12:14.741827 30558 net.cpp:382] cont_3_lstm2_cont_slice_2_split -> cont_3_lstm2_cont_slice_2_split_0
I0602 14:12:14.741835 30558 net.cpp:382] cont_3_lstm2_cont_slice_2_split -> cont_3_lstm2_cont_slice_2_split_1
I0602 14:12:14.741843 30558 net.cpp:124] Setting up cont_3_lstm2_cont_slice_2_split
I0602 14:12:14.741852 30558 net.cpp:131] Top shape: 1 1 (1)
I0602 14:12:14.741859 30558 net.cpp:131] Top shape: 1 1 (1)
I0602 14:12:14.741864 30558 net.cpp:139] Memory required for data: 6944
I0602 14:12:14.741870 30558 layer_factory.hpp:77] Creating layer cont_4_lstm2_cont_slice_3_split
I0602 14:12:14.741878 30558 net.cpp:86] Creating Layer cont_4_lstm2_cont_slice_3_split
I0602 14:12:14.741883 30558 net.cpp:408] cont_4_lstm2_cont_slice_3_split <- cont_4
I0602 14:12:14.741890 30558 net.cpp:382] cont_4_lstm2_cont_slice_3_split -> cont_4_lstm2_cont_slice_3_split_0
I0602 14:12:14.741899 30558 net.cpp:382] cont_4_lstm2_cont_slice_3_split -> cont_4_lstm2_cont_slice_3_split_1
I0602 14:12:14.741909 30558 net.cpp:124] Setting up cont_4_lstm2_cont_slice_3_split
I0602 14:12:14.741915 30558 net.cpp:131] Top shape: 1 1 (1)
I0602 14:12:14.741924 30558 net.cpp:131] Top shape: 1 1 (1)
I0602 14:12:14.741928 30558 net.cpp:139] Memory required for data: 6952
I0602 14:12:14.741935 30558 layer_factory.hpp:77] Creating layer cont_5_lstm2_cont_slice_4_split
I0602 14:12:14.741941 30558 net.cpp:86] Creating Layer cont_5_lstm2_cont_slice_4_split
I0602 14:12:14.741948 30558 net.cpp:408] cont_5_lstm2_cont_slice_4_split <- cont_5
I0602 14:12:14.741956 30558 net.cpp:382] cont_5_lstm2_cont_slice_4_split -> cont_5_lstm2_cont_slice_4_split_0
I0602 14:12:14.741964 30558 net.cpp:382] cont_5_lstm2_cont_slice_4_split -> cont_5_lstm2_cont_slice_4_split_1
I0602 14:12:14.741974 30558 net.cpp:124] Setting up cont_5_lstm2_cont_slice_4_split
I0602 14:12:14.741981 30558 net.cpp:131] Top shape: 1 1 (1)
I0602 14:12:14.741991 30558 net.cpp:131] Top shape: 1 1 (1)
I0602 14:12:14.742002 30558 net.cpp:139] Memory required for data: 6960
I0602 14:12:14.742007 30558 layer_factory.hpp:77] Creating layer cont_6_lstm2_cont_slice_5_split
I0602 14:12:14.742015 30558 net.cpp:86] Creating Layer cont_6_lstm2_cont_slice_5_split
I0602 14:12:14.742022 30558 net.cpp:408] cont_6_lstm2_cont_slice_5_split <- cont_6
I0602 14:12:14.742028 30558 net.cpp:382] cont_6_lstm2_cont_slice_5_split -> cont_6_lstm2_cont_slice_5_split_0
I0602 14:12:14.742036 30558 net.cpp:382] cont_6_lstm2_cont_slice_5_split -> cont_6_lstm2_cont_slice_5_split_1
I0602 14:12:14.742045 30558 net.cpp:124] Setting up cont_6_lstm2_cont_slice_5_split
I0602 14:12:14.742053 30558 net.cpp:131] Top shape: 1 1 (1)
I0602 14:12:14.742058 30558 net.cpp:131] Top shape: 1 1 (1)
I0602 14:12:14.742064 30558 net.cpp:139] Memory required for data: 6968
I0602 14:12:14.742070 30558 layer_factory.hpp:77] Creating layer cont_7_lstm2_cont_slice_6_split
I0602 14:12:14.742077 30558 net.cpp:86] Creating Layer cont_7_lstm2_cont_slice_6_split
I0602 14:12:14.742084 30558 net.cpp:408] cont_7_lstm2_cont_slice_6_split <- cont_7
I0602 14:12:14.742091 30558 net.cpp:382] cont_7_lstm2_cont_slice_6_split -> cont_7_lstm2_cont_slice_6_split_0
I0602 14:12:14.742100 30558 net.cpp:382] cont_7_lstm2_cont_slice_6_split -> cont_7_lstm2_cont_slice_6_split_1
I0602 14:12:14.742108 30558 net.cpp:124] Setting up cont_7_lstm2_cont_slice_6_split
I0602 14:12:14.742116 30558 net.cpp:131] Top shape: 1 1 (1)
I0602 14:12:14.742123 30558 net.cpp:131] Top shape: 1 1 (1)
I0602 14:12:14.742130 30558 net.cpp:139] Memory required for data: 6976
I0602 14:12:14.742136 30558 layer_factory.hpp:77] Creating layer cont_8_lstm2_cont_slice_7_split
I0602 14:12:14.742141 30558 net.cpp:86] Creating Layer cont_8_lstm2_cont_slice_7_split
I0602 14:12:14.742148 30558 net.cpp:408] cont_8_lstm2_cont_slice_7_split <- cont_8
I0602 14:12:14.742156 30558 net.cpp:382] cont_8_lstm2_cont_slice_7_split -> cont_8_lstm2_cont_slice_7_split_0
I0602 14:12:14.742164 30558 net.cpp:382] cont_8_lstm2_cont_slice_7_split -> cont_8_lstm2_cont_slice_7_split_1
I0602 14:12:14.742172 30558 net.cpp:124] Setting up cont_8_lstm2_cont_slice_7_split
I0602 14:12:14.742182 30558 net.cpp:131] Top shape: 1 1 (1)
I0602 14:12:14.742188 30558 net.cpp:131] Top shape: 1 1 (1)
I0602 14:12:14.742194 30558 net.cpp:139] Memory required for data: 6984
I0602 14:12:14.742202 30558 layer_factory.hpp:77] Creating layer cont_9_lstm2_cont_slice_8_split
I0602 14:12:14.742208 30558 net.cpp:86] Creating Layer cont_9_lstm2_cont_slice_8_split
I0602 14:12:14.742215 30558 net.cpp:408] cont_9_lstm2_cont_slice_8_split <- cont_9
I0602 14:12:14.742223 30558 net.cpp:382] cont_9_lstm2_cont_slice_8_split -> cont_9_lstm2_cont_slice_8_split_0
I0602 14:12:14.742230 30558 net.cpp:382] cont_9_lstm2_cont_slice_8_split -> cont_9_lstm2_cont_slice_8_split_1
I0602 14:12:14.742238 30558 net.cpp:124] Setting up cont_9_lstm2_cont_slice_8_split
I0602 14:12:14.742245 30558 net.cpp:131] Top shape: 1 1 (1)
I0602 14:12:14.742252 30558 net.cpp:131] Top shape: 1 1 (1)
I0602 14:12:14.742259 30558 net.cpp:139] Memory required for data: 6992
I0602 14:12:14.742264 30558 layer_factory.hpp:77] Creating layer cont_10_lstm2_cont_slice_9_split
I0602 14:12:14.742270 30558 net.cpp:86] Creating Layer cont_10_lstm2_cont_slice_9_split
I0602 14:12:14.742278 30558 net.cpp:408] cont_10_lstm2_cont_slice_9_split <- cont_10
I0602 14:12:14.742285 30558 net.cpp:382] cont_10_lstm2_cont_slice_9_split -> cont_10_lstm2_cont_slice_9_split_0
I0602 14:12:14.742295 30558 net.cpp:382] cont_10_lstm2_cont_slice_9_split -> cont_10_lstm2_cont_slice_9_split_1
I0602 14:12:14.742302 30558 net.cpp:124] Setting up cont_10_lstm2_cont_slice_9_split
I0602 14:12:14.742310 30558 net.cpp:131] Top shape: 1 1 (1)
I0602 14:12:14.742316 30558 net.cpp:131] Top shape: 1 1 (1)
I0602 14:12:14.742324 30558 net.cpp:139] Memory required for data: 7000
I0602 14:12:14.742331 30558 layer_factory.hpp:77] Creating layer cont_11_lstm2_cont_slice_10_split
I0602 14:12:14.742337 30558 net.cpp:86] Creating Layer cont_11_lstm2_cont_slice_10_split
I0602 14:12:14.742352 30558 net.cpp:408] cont_11_lstm2_cont_slice_10_split <- cont_11
I0602 14:12:14.742359 30558 net.cpp:382] cont_11_lstm2_cont_slice_10_split -> cont_11_lstm2_cont_slice_10_split_0
I0602 14:12:14.742367 30558 net.cpp:382] cont_11_lstm2_cont_slice_10_split -> cont_11_lstm2_cont_slice_10_split_1
I0602 14:12:14.742377 30558 net.cpp:124] Setting up cont_11_lstm2_cont_slice_10_split
I0602 14:12:14.742384 30558 net.cpp:131] Top shape: 1 1 (1)
I0602 14:12:14.742390 30558 net.cpp:131] Top shape: 1 1 (1)
I0602 14:12:14.742396 30558 net.cpp:139] Memory required for data: 7008
I0602 14:12:14.742403 30558 layer_factory.hpp:77] Creating layer cont_12_lstm2_cont_slice_11_split
I0602 14:12:14.742408 30558 net.cpp:86] Creating Layer cont_12_lstm2_cont_slice_11_split
I0602 14:12:14.742415 30558 net.cpp:408] cont_12_lstm2_cont_slice_11_split <- cont_12
I0602 14:12:14.742422 30558 net.cpp:382] cont_12_lstm2_cont_slice_11_split -> cont_12_lstm2_cont_slice_11_split_0
I0602 14:12:14.742429 30558 net.cpp:382] cont_12_lstm2_cont_slice_11_split -> cont_12_lstm2_cont_slice_11_split_1
I0602 14:12:14.742439 30558 net.cpp:124] Setting up cont_12_lstm2_cont_slice_11_split
I0602 14:12:14.742446 30558 net.cpp:131] Top shape: 1 1 (1)
I0602 14:12:14.742452 30558 net.cpp:131] Top shape: 1 1 (1)
I0602 14:12:14.742458 30558 net.cpp:139] Memory required for data: 7016
I0602 14:12:14.742465 30558 layer_factory.hpp:77] Creating layer cont_13_lstm2_cont_slice_12_split
I0602 14:12:14.742471 30558 net.cpp:86] Creating Layer cont_13_lstm2_cont_slice_12_split
I0602 14:12:14.742477 30558 net.cpp:408] cont_13_lstm2_cont_slice_12_split <- cont_13
I0602 14:12:14.742486 30558 net.cpp:382] cont_13_lstm2_cont_slice_12_split -> cont_13_lstm2_cont_slice_12_split_0
I0602 14:12:14.742493 30558 net.cpp:382] cont_13_lstm2_cont_slice_12_split -> cont_13_lstm2_cont_slice_12_split_1
I0602 14:12:14.742502 30558 net.cpp:124] Setting up cont_13_lstm2_cont_slice_12_split
I0602 14:12:14.742509 30558 net.cpp:131] Top shape: 1 1 (1)
I0602 14:12:14.742516 30558 net.cpp:131] Top shape: 1 1 (1)
I0602 14:12:14.742522 30558 net.cpp:139] Memory required for data: 7024
I0602 14:12:14.742527 30558 layer_factory.hpp:77] Creating layer cont_14_lstm2_cont_slice_13_split
I0602 14:12:14.742534 30558 net.cpp:86] Creating Layer cont_14_lstm2_cont_slice_13_split
I0602 14:12:14.742542 30558 net.cpp:408] cont_14_lstm2_cont_slice_13_split <- cont_14
I0602 14:12:14.742549 30558 net.cpp:382] cont_14_lstm2_cont_slice_13_split -> cont_14_lstm2_cont_slice_13_split_0
I0602 14:12:14.742558 30558 net.cpp:382] cont_14_lstm2_cont_slice_13_split -> cont_14_lstm2_cont_slice_13_split_1
I0602 14:12:14.742568 30558 net.cpp:124] Setting up cont_14_lstm2_cont_slice_13_split
I0602 14:12:14.742573 30558 net.cpp:131] Top shape: 1 1 (1)
I0602 14:12:14.742579 30558 net.cpp:131] Top shape: 1 1 (1)
I0602 14:12:14.742585 30558 net.cpp:139] Memory required for data: 7032
I0602 14:12:14.742591 30558 layer_factory.hpp:77] Creating layer cont_15_lstm2_cont_slice_14_split
I0602 14:12:14.742597 30558 net.cpp:86] Creating Layer cont_15_lstm2_cont_slice_14_split
I0602 14:12:14.742604 30558 net.cpp:408] cont_15_lstm2_cont_slice_14_split <- cont_15
I0602 14:12:14.742610 30558 net.cpp:382] cont_15_lstm2_cont_slice_14_split -> cont_15_lstm2_cont_slice_14_split_0
I0602 14:12:14.742617 30558 net.cpp:382] cont_15_lstm2_cont_slice_14_split -> cont_15_lstm2_cont_slice_14_split_1
I0602 14:12:14.742626 30558 net.cpp:124] Setting up cont_15_lstm2_cont_slice_14_split
I0602 14:12:14.742633 30558 net.cpp:131] Top shape: 1 1 (1)
I0602 14:12:14.742640 30558 net.cpp:131] Top shape: 1 1 (1)
I0602 14:12:14.742645 30558 net.cpp:139] Memory required for data: 7040
I0602 14:12:14.742650 30558 layer_factory.hpp:77] Creating layer lstm2_x_transform
I0602 14:12:14.742656 30558 net.cpp:86] Creating Layer lstm2_x_transform
I0602 14:12:14.742662 30558 net.cpp:408] lstm2_x_transform <- x
I0602 14:12:14.742669 30558 net.cpp:382] lstm2_x_transform -> W_xc_x
I0602 14:12:14.742969 30558 net.cpp:124] Setting up lstm2_x_transform
I0602 14:12:14.742982 30558 net.cpp:131] Top shape: 15 1 400 (6000)
I0602 14:12:14.742995 30558 net.cpp:139] Memory required for data: 31040
I0602 14:12:14.743006 30558 layer_factory.hpp:77] Creating layer lstm2_W_xc_x_slice
I0602 14:12:14.743016 30558 net.cpp:86] Creating Layer lstm2_W_xc_x_slice
I0602 14:12:14.743023 30558 net.cpp:408] lstm2_W_xc_x_slice <- W_xc_x
I0602 14:12:14.743031 30558 net.cpp:382] lstm2_W_xc_x_slice -> W_xc_x_1
I0602 14:12:14.743041 30558 net.cpp:382] lstm2_W_xc_x_slice -> W_xc_x_2
…
I0602 14:12:14.753376 30558 net.cpp:202] lstm2_ does not need backward computation.
I0602 14:12:14.753381 30558 net.cpp:244] This network produces output c_T
I0602 14:12:14.753386 30558 net.cpp:244] This network produces output h_pseudoloss
I0602 14:12:14.753463 30558 net.cpp:257] Network initialization done.
I0602 14:12:14.753585 30558 recurrent_layer.cpp:150] Adding parameter 0: W_xc
I0602 14:12:14.753594 30558 recurrent_layer.cpp:150] Adding parameter 1: b_c
I0602 14:12:14.753599 30558 recurrent_layer.cpp:150] Adding parameter 2: W_hc
I0602 14:12:14.753679 30558 net.cpp:124] Setting up lstm2
I0602 14:12:14.753690 30558 net.cpp:131] Top shape: 15 1 100 (1500)
I0602 14:12:14.753695 30558 net.cpp:139] Memory required for data: 40021060
I0602 14:12:14.753703 30558 layer_factory.hpp:77] Creating layer fc1
I0602 14:12:14.753711 30558 net.cpp:86] Creating Layer fc1
I0602 14:12:14.753717 30558 net.cpp:408] fc1 <- lstm2
I0602 14:12:14.753726 30558 net.cpp:382] fc1 -> fc1
I0602 14:12:14.753808 30558 net.cpp:124] Setting up fc1
I0602 14:12:14.753814 30558 net.cpp:131] Top shape: 15 1 100 (1500)
I0602 14:12:14.753819 30558 net.cpp:139] Memory required for data: 40027060
I0602 14:12:14.753826 30558 layer_factory.hpp:77] Creating layer fc2
I0602 14:12:14.753834 30558 net.cpp:86] Creating Layer fc2
I0602 14:12:14.753839 30558 net.cpp:408] fc2 <- fc1
I0602 14:12:14.753844 30558 net.cpp:382] fc2 -> fc2
I0602 14:12:14.753862 30558 net.cpp:124] Setting up fc2
I0602 14:12:14.753870 30558 net.cpp:131] Top shape: 15 1 11 (165)
I0602 14:12:14.753875 30558 net.cpp:139] Memory required for data: 40027720
I0602 14:12:14.753880 30558 layer_factory.hpp:77] Creating layer rev1
I0602 14:12:14.753888 30558 net.cpp:86] Creating Layer rev1
I0602 14:12:14.753895 30558 net.cpp:408] rev1 <- permuted_data_permuted_data_0_split_1
I0602 14:12:14.753901 30558 net.cpp:382] rev1 -> rev_data
I0602 14:12:14.753914 30558 net.cpp:124] Setting up rev1
I0602 14:12:14.753921 30558 net.cpp:131] Top shape: 15 1 512 6 (46080)
I0602 14:12:14.753926 30558 net.cpp:139] Memory required for data: 40212040
I0602 14:12:14.753931 30558 layer_factory.hpp:77] Creating layer lstm3
I0602 14:12:14.753938 30558 net.cpp:86] Creating Layer lstm3
I0602 14:12:14.753944 30558 net.cpp:408] lstm3 <- rev_data
I0602 14:12:14.753950 30558 net.cpp:408] lstm3 <- indicator_indicator_0_split_2
I0602 14:12:14.753957 30558 net.cpp:382] lstm3 -> lstm3
I0602 14:12:14.753968 30558 recurrent_layer.cpp:20] Initializing recurrent layer: assuming input batch contains 15 timesteps of 1 independent streams.
I0602 14:12:14.754349 30558 net.cpp:53] Initializing net from parameters: 
layer {
  name: "lstm3_"
  type: "Input"
  top: "x"
  top: "cont"
  input_param {
    shape {
      dim: 15
      dim: 1
      dim: 512
      dim: 6
    }
    shape {
      dim: 15
      dim: 1
    }
  }
}
layer {
  name: "lstm3_"
  type: "Input"
  top: "c_0"
  top: "h_0"
  input_param {
    shape {
      dim: 1
      dim: 1
      dim: 100
    }
    shape {
      dim: 1
      dim: 1
      dim: 100
    }
  }
}
layer {
  name: "lstm3_cont_slice"
  type: "Slice"
  bottom: "cont"
  top: "cont_1"
  top: "cont_2"
  top: "cont_3"
  top: "cont_4"
  top: "cont_5"
  top: "cont_6"
  top: "cont_7"
  top: "cont_8"
  top: "cont_9"
  top: "cont_10"
  top: "cont_11"
  top: "cont_12"
  top: "cont_13"
  top: "cont_14"
  top: "cont_15"
  slice_param {
    axis: 0
  }
}
layer {
  name: "lstm3_x_transform"
  type: "InnerProduct"
  bottom: "x"
  top: "W_xc_x"
  param {
    name: "W_xc"
  }
  param {
    name: "b_c"
  }
  propagate_down: true
  inner_product_param {
    num_output: 400
    bias_term: true
    weight_filler {
      type: "xavier"
    }
    bias_filler {
      type: "constant"
      value: 0
    }
    axis: 2
  }
}
layer {
  name: "lstm3_W_xc_x_slice"
  type: "Slice"
  bottom: "W_xc_x"
  top: "W_xc_x_1"
  top: "W_xc_x_2"
  top: "W_xc_x_3"
  top: "W_xc_x_4"
  top: "W_xc_x_5"
  top: "W_xc_x_6"
  top: "W_xc_x_7"
  top: "W_xc_x_8"
  top: "W_xc_x_9"
  top: "W_xc_x_10"
  top: "W_xc_x_11"
  top: "W_xc_x_12"
  top: "W_xc_x_13"
  top: "W_xc_x_14"
  top: "W_xc_x_15"
  slice_param {
    axis: 0
  }
}
layer {
  name: "lstm3_h_conted_0"
  type: "Scale"
  bottom: "h_0"
  bottom: "cont_1"
  top: "h_conted_0"
  scale_param {
    axis: 0
  }
}
layer {
  name: "lstm3_transform_1"
  type: "InnerProduct"
  bottom: "h_conted_0"
  top: "W_hc_h_0"
  param {
    name: "W_hc"
  }
  inner_product_param {
    num_output: 400
    bias_term: false
    weight_filler {
      type: "xavier"
    }
    axis: 2
  }
}
layer {
  name: "lstm3_gate_input_1"
  type: "Eltwise"
  bottom: "W_hc_h_0"
  bottom: "W_xc_x_1"
  top: "gate_input_1"
  eltwise_param {
    operation: SUM
  }
}
layer {
  name: "lstm3_unit_1"
  type: "LSTMUnit"
  bottom: "c_0"
  bottom: "gate_input_1"
  bottom: "cont_1"
  top: "c_1"
  top: "h_1"
}
layer {
  name: "lstm3_h_conted_1"
  type: "Scale"
  bottom: "h_1"
  bottom: "cont_2"
  top: "h_conted_1"
  scale_param {
    axis: 0
  }
}
layer {
  name: "lstm3_transform_2"
  type: "InnerProduct"
  bottom: "h_conted_1"
  top: "W_hc_h_1"
  param {
    name: "W_hc"
  }
  inner_product_param {
    num_output: 400
    bias_term: false
    weight_filler {
      type: "xavier"
    }
    axis: 2
  }
}
layer {
  name: "lstm3_gate_input_2"
  type: "Eltwise"
  bottom: "W_hc_h_1"
  bottom: "W_xc_x_2"
  top: "gate_input_2"
  eltwise_param {
    operation: SUM
  }
}
layer {
  name: "lstm3_unit_2"
  type: "LSTMUnit"
  bottom: "c_1"
  bottom: "gate_input_2"
  bottom: "cont_2"
  top: "c_2"
  top: "h_2"
}
layer {
  name: "lstm3_h_conted_2"
  type: "Scale"
  bottom: "h_2"
  bottom: "cont_3"
  top: "h_conted_2"
  scale_param {
    axis: 0
  }
}
layer {
  name: "lstm3_transform_3"
  type: "InnerProduct"
  bottom: "h_conted_2"
  top: "W_hc_h_2"
  param {
    name: "W_hc"
  }
  inner_product_param {
    num_output: 400
    bias_term: false
    weight_filler {
      type: "xavier"
    }
    axis: 2
  }
}
layer {
  name: "lstm3_gate_input_3"
  type: "Eltwise"
  bottom: "W_hc_h_2"
  bottom: "W_xc_x_3"
  top: "gate_input_3"
  eltwise_param {
    operation: SUM
  }
}
layer {
  name: "lstm3_unit_3"
  type: "LSTMUnit"
  bottom: "c_2"
  bottom: "gate_input_3"
  bottom: "cont_3"
  top: "c_3"
  top: "h_3"
}
layer {
  name: "lstm3_h_conted_3"
  type: "Scale"
  bottom: "h_3"
  bottom: "cont_4"
  top: "h_conted_3"
  scale_param {
    axis: 0
  }
}
layer {
  name: "lstm3_transform_4"
  type: "InnerProduct"
  bottom: "h_conted_3"
  top: "W_hc_h_3"
  param {
    name: "W_hc"
  }
  inner_product_param {
    num_output: 400
    bias_term: false
    weight_filler {
      type: "xavier"
    }
    axis: 2
  }
}
layer {
  name: "lstm3_gate_input_4"
  type: "Eltwise"
  bottom: "W_hc_h_3"
  bottom: "W_xc_x_4"
  top: "gate_input_4"
  eltwise_param {
    operation: SUM
  }
}
layer {
  name: "lstm3_unit_4"
  type: "LSTMUnit"
  bottom: "c_3"
  bottom: "gate_input_4"
  bottom: "cont_4"
  top: "c_4"
  top: "h_4"
}
layer {
  name: "lstm3_h_conted_4"
  type: "Scale"
  bottom: "h_4"
  bottom: "cont_5"
  top: "h_conted_4"
  scale_param {
    axis: 0
  }
}
layer {
  name: "lstm3_transform_5"
  type: "InnerProduct"
  bottom: "h_conted_4"
  top: "W_hc_h_4"
  param {
    name: "W_hc"
  }
  inner_product_param {
    num_output: 400
    bias_term: false
    weight_filler {
      type: "xavier"
    }
    axis: 2
  }
}
layer {
  name: "lstm3_gate_input_5"
  type: "Eltwise"
  bottom: "W_hc_h_4"
  bottom: "W_xc_x_5"
  top: "gate_input_5"
  eltwise_param {
    operation: SUM
  }
}
layer {
  name: "lstm3_unit_5"
  type: "LSTMUnit"
  bottom: "c_4"
  bottom: "gate_input_5"
  bottom: "cont_5"
  top: "c_5"
  top: "h_5"
}
layer {
  name: "lstm3_h_conted_5"
  type: "Scale"
  bottom: "h_5"
  bottom: "cont_6"
  top: "h_conted_5"
  scale_param {
    axis: 0
  }
}
layer {
  name: "lstm3_transform_6"
  type: "InnerProduct"
  bottom: "h_conted_5"
  top: "W_hc_h_5"
  param {
    name: "W_hc"
  }
  inner_product_param {
    num_output: 400
    bias_term: false
    weight_filler {
      type: "xavier"
    }
    axis: 2
  }
}
layer {
  name: "lstm3_gate_input_6"
  type: "Eltwise"
  bottom: "W_hc_h_5"
  bottom: "W_xc_x_6"
  top: "gate_input_6"
  eltwise_param {
    operation: SUM
  }
}
layer {
  name: "lstm3_unit_6"
  type: "LSTMUnit"
  bottom: "c_5"
  bottom: "gate_input_6"
  bottom: "cont_6"
  top: "c_6"
  top: "h_6"
}
layer {
  name: "lstm3_h_conted_6"
  type: "Scale"
  bottom: "h_6"
  bottom: "cont_7"
  top: "h_conted_6"
  scale_param {
    axis: 0
  }
}
layer {
  name: "lstm3_transform_7"
  type: "InnerProduct"
  bottom: "h_conted_6"
  top: "W_hc_h_6"
  param {
    name: "W_hc"
  }
  inner_product_param {
    num_output: 400
    bias_term: false
    weight_filler {
      type: "xavier"
    }
    axis: 2
  }
}
layer {
  name: "lstm3_gate_input_7"
  type: "Eltwise"
  bottom: "W_hc_h_6"
  bottom: "W_xc_x_7"
  top: "gate_input_7"
  eltwise_param {
    operation: SUM
  }
}
layer {
  name: "lstm3_unit_7"
  type: "LSTMUnit"
  bottom: "c_6"
  bottom: "gate_input_7"
  bottom: "cont_7"
  top: "c_7"
  top: "h_7"
}
layer {
  name: "lstm3_h_conted_7"
  type: "Scale"
  bottom: "h_7"
  bottom: "cont_8"
  top: "h_conted_7"
  scale_param {
    axis: 0
  }
}
layer {
  name: "lstm3_transform_8"
  type: "InnerProduct"
  bottom: "h_conted_7"
  top: "W_hc_h_7"
  param {
    name: "W_hc"
  }
  inner_product_param {
    num_output: 400
    bias_term: false
    weight_filler {
      type: "xavier"
    }
    axis: 2
  }
}
layer {
  name: "lstm3_gate_input_8"
  type: "Eltwise"
  bottom: "W_hc_h_7"
  bottom: "W_xc_x_8"
  top: "gate_input_8"
  eltwise_param {
    operation: SUM
  }
}
layer {
  name: "lstm3_unit_8"
  type: "LSTMUnit"
  bottom: "c_7"
  bottom: "gate_input_8"
  bottom: "cont_8"
  top: "c_8"
  top: "h_8"
}
layer {
  name: "lstm3_h_conted_8"
  type: "Scale"
  bottom: "h_8"
  bottom: "cont_9"
  top: "h_conted_8"
  scale_param {
    axis: 0
  }
}
layer {
  name: "lstm3_transform_9"
  type: "InnerProduct"
  bottom: "h_conted_8"
  top: "W_hc_h_8"
  param {
    name: "W_hc"
  }
  inner_product_param {
    num_output: 400
    bias_term: false
    weight_filler {
      type: "xavier"
    }
    axis: 2
  }
}
layer {
  name: "lstm3_gate_input_9"
  type: "Eltwise"
  bottom: "W_hc_h_8"
  bottom: "W_xc_x_9"
  top: "gate_input_9"
  eltwise_param {
    operation: SUM
  }
}
layer {
  name: "lstm3_unit_9"
  type: "LSTMUnit"
  bottom: "c_8"
  bottom: "gate_input_9"
  bottom: "cont_9"
  top: "c_9"
  top: "h_9"
}
layer {
  name: "lstm3_h_conted_9"
  type: "Scale"
  bottom: "h_9"
  bottom: "cont_10"
  top: "h_conted_9"
  scale_param {
    axis: 0
  }
}
layer {
  name: "lstm3_transform_10"
  type: "InnerProduct"
  bottom: "h_conted_9"
  top: "W_hc_h_9"
  param {
    name: "W_hc"
  }
  inner_product_param {
    num_output: 400
    bias_term: false
    weight_filler {
      type: "xavier"
    }
    axis: 2
  }
}
layer {
  name: "lstm3_gate_input_10"
  type: "Eltwise"
  bottom: "W_hc_h_9"
  bottom: "W_xc_x_10"
  top: "gate_input_10"
  eltwise_param {
    operation: SUM
  }
}
layer {
  name: "lstm3_unit_10"
  type: "LSTMUnit"
  bottom: "c_9"
  bottom: "gate_input_10"
  bottom: "cont_10"
  top: "c_10"
  top: "h_10"
}
layer {
  name: "lstm3_h_conted_10"
  type: "Scale"
  bottom: "h_10"
  bottom: "cont_11"
  top: "h_conted_10"
  scale_param {
    axis: 0
  }
}
layer {
  name: "lstm3_transform_11"
  type: "InnerProduct"
  bottom: "h_conted_10"
  top: "W_hc_h_10"
  param {
    name: "W_hc"
  }
  inner_product_param {
    num_output: 400
    bias_term: false
    weight_filler {
      type: "xavier"
    }
    axis: 2
  }
}
layer {
  name: "lstm3_gate_input_11"
  type: "Eltwise"
  bottom: "W_hc_h_10"
  bottom: "W_xc_x_11"
  top: "gate_input_11"
  eltwise_param {
    operation: SUM
  }
}
layer {
  name: "lstm3_unit_11"
  type: "LSTMUnit"
  bottom: "c_10"
  bottom: "gate_input_11"
  bottom: "cont_11"
  top: "c_11"
  top: "h_11"
}
layer {
  name: "lstm3_h_conted_11"
  type: "Scale"
  bottom: "h_11"
  bottom: "cont_12"
  top: "h_conted_11"
  scale_param {
    axis: 0
  }
}
layer {
  name: "lstm3_transform_12"
  type: "InnerProduct"
  bottom: "h_conted_11"
  top: "W_hc_h_11"
  param {
    name: "W_hc"
  }
  inner_product_param {
    num_output: 400
    bias_term: false
    weight_filler {
      type: "xavier"
    }
    axis: 2
  }
}
layer {
  name: "lstm3_gate_input_12"
  type: "Eltwise"
  bottom: "W_hc_h_11"
  bottom: "W_xc_x_12"
  top: "gate_input_12"
  eltwise_param {
    operation: SUM
  }
}
layer {
  name: "lstm3_unit_12"
  type: "LSTMUnit"
  bottom: "c_11"
  bottom: "gate_input_12"
  bottom: "cont_12"
  top: "c_12"
  top: "h_12"
}
layer {
  name: "lstm3_h_conted_12"
  type: "Scale"
  bottom: "h_12"
  bottom: "cont_13"
  top: "h_conted_12"
  scale_param {
    axis: 0
  }
}
layer {
  name: "lstm3_transform_13"
  type: "InnerProduct"
  bottom: "h_conted_12"
  top: "W_hc_h_12"
  param {
    name: "W_hc"
  }
  inner_product_param {
    num_output: 400
    bias_term: false
    weight_filler {
      type: "xavier"
    }
    axis: 2
  }
}
layer {
  name: "lstm3_gate_input_13"
  type: "Eltwise"
  bottom: "W_hc_h_12"
  bottom: "W_xc_x_13"
  top: "gate_input_13"
  eltwise_param {
    operation: SUM
  }
}
layer {
  name: "lstm3_unit_13"
  type: "LSTMUnit"
  bottom: "c_12"
  bottom: "gate_input_13"
  bottom: "cont_13"
  top: "c_13"
  top: "h_13"
}
layer {
  name: "lstm3_h_conted_13"
  type: "Scale"
  bottom: "h_13"
  bottom: "cont_14"
  top: "h_conted_13"
  scale_param {
    axis: 0
  }
}
layer {
  name: "lstm3_transform_14"
  type: "InnerProduct"
  bottom: "h_conted_13"
  top: "W_hc_h_13"
  param {
    name: "W_hc"
  }
  inner_product_param {
    num_output: 400
    bias_term: false
    weight_filler {
      type: "xavier"
    }
    axis: 2
  }
}
layer {
  name: "lstm3_gate_input_14"
  type: "Eltwise"
  bottom: "W_hc_h_13"
  bottom: "W_xc_x_14"
  top: "gate_input_14"
  eltwise_param {
    operation: SUM
  }
}
layer {
  name: "lstm3_unit_14"
  type: "LSTMUnit"
  bottom: "c_13"
  bottom: "gate_input_14"
  bottom: "cont_14"
  top: "c_14"
  top: "h_14"
}
layer {
  name: "lstm3_h_conted_14"
  type: "Scale"
  bottom: "h_14"
  bottom: "cont_15"
  top: "h_conted_14"
  scale_param {
    axis: 0
  }
}
layer {
  name: "lstm3_transform_15"
  type: "InnerProduct"
  bottom: "h_conted_14"
  top: "W_hc_h_14"
  param {
    name: "W_hc"
  }
  inner_product_param {
    num_output: 400
    bias_term: false
    weight_filler {
      type: "xavier"
    }
    axis: 2
  }
}
layer {
  name: "lstm3_gate_input_15"
  type: "Eltwise"
  bottom: "W_hc_h_14"
  bottom: "W_xc_x_15"
  top: "gate_input_15"
  eltwise_param {
    operation: SUM
  }
}
layer {
  name: "lstm3_unit_15"
  type: "LSTMUnit"
  bottom: "c_14"
  bottom: "gate_input_15"
  bottom: "cont_15"
  top: "c_15"
  top: "h_15"
}
layer {
  name: "lstm3_"
  type: "Split"
  bottom: "c_15"
  top: "c_T"
}
layer {
  name: "lstm3_h_concat"
  type: "Concat"
  bottom: "h_1"
  bottom: "h_2"
  bottom: "h_3"
  bottom: "h_4"
  bottom: "h_5"
  bottom: "h_6"
  bottom: "h_7"
  bottom: "h_8"
  bottom: "h_9"
  bottom: "h_10"
  bottom: "h_11"
  bottom: "h_12"
  bottom: "h_13"
  bottom: "h_14"
  bottom: "h_15"
  top: "h"
  concat_param {
    axis: 0
  }
}
layer {
  name: "h_pseudoloss"
  type: "Reduction"
  bottom: "h"
  top: "h_pseudoloss"
  loss_weight: 1
}
I0602 14:12:14.754685 30558 layer_factory.hpp:77] Creating layer lstm3_
I0602 14:12:14.754698 30558 net.cpp:86] Creating Layer lstm3_
I0602 14:12:14.754706 30558 net.cpp:382] lstm3_ -> x
I0602 14:12:14.754715 30558 net.cpp:382] lstm3_ -> cont
I0602 14:12:14.754726 30558 net.cpp:124] Setting up lstm3_
I0602 14:12:14.754735 30558 net.cpp:131] Top shape: 15 1 512 6 (46080)
I0602 14:12:14.754743 30558 net.cpp:131] Top shape: 15 1 (15)
I0602 14:12:14.754750 30558 net.cpp:139] Memory required for data: 184380
I0602 14:12:14.754757 30558 layer_factory.hpp:77] Creating layer lstm3_
I0602 14:12:14.754765 30558 net.cpp:86] Creating Layer lstm3_
I0602 14:12:14.754772 30558 net.cpp:382] lstm3_ -> c_0
I0602 14:12:14.754781 30558 net.cpp:382] lstm3_ -> h_0
I0602 14:12:14.754791 30558 net.cpp:124] Setting up lstm3_
I0602 14:12:14.754797 30558 net.cpp:131] Top shape: 1 1 100 (100)
I0602 14:12:14.754806 30558 net.cpp:131] Top shape: 1 1 100 (100)
I0602 14:12:14.754811 30558 net.cpp:139] Memory required for data: 185180
I0602 14:12:14.754815 30558 layer_factory.hpp:77] Creating layer lstm3_cont_slice
I0602 14:12:14.754825 30558 net.cpp:86] Creating Layer lstm3_cont_slice
I0602 14:12:14.754832 30558 net.cpp:408] lstm3_cont_slice <- cont
I0602 14:12:14.754838 30558 net.cpp:382] lstm3_cont_slice -> cont_1
I0602 14:12:14.754848 30558 net.cpp:382] lstm3_cont_slice -> cont_2
I0602 14:12:14.754856 30558 net.cpp:382] lstm3_cont_slice -> cont_3
I0602 14:12:14.754865 30558 net.cpp:382] lstm3_cont_slice -> cont_4
I0602 14:12:14.754873 30558 net.cpp:382] lstm3_cont_slice -> cont_5
I0602 14:12:14.754883 30558 net.cpp:382] lstm3_cont_slice -> cont_6
I0602 14:12:14.754890 30558 net.cpp:382] lstm3_cont_slice -> cont_7
I0602 14:12:14.754899 30558 net.cpp:382] lstm3_cont_slice -> cont_8
I0602 14:12:14.754909 30558 net.cpp:382] lstm3_cont_slice -> cont_9
I0602 14:12:14.754918 30558 net.cpp:382] lstm3_cont_slice -> cont_10
I0602 14:12:14.754926 30558 net.cpp:382] lstm3_cont_slice -> cont_11
I0602 14:12:14.754935 30558 net.cpp:382] lstm3_cont_slice -> cont_12
I0602 14:12:14.754943 30558 net.cpp:382] lstm3_cont_slice -> cont_13
I0602 14:12:14.754952 30558 net.cpp:382] lstm3_cont_slice -> cont_14
I0602 14:12:14.754961 30558 net.cpp:382] lstm3_cont_slice -> cont_15
I0602 14:12:14.754976 30558 net.cpp:124] Setting up lstm3_cont_slice
I0602 14:12:14.754983 30558 net.cpp:131] Top shape: 1 1 (1)
I0602 14:12:14.754989 30558 net.cpp:131] Top shape: 1 1 (1)
I0602 14:12:14.754997 30558 net.cpp:131] Top shape: 1 1 (1)
I0602 14:12:14.755003 30558 net.cpp:131] Top shape: 1 1 (1)
I0602 14:12:14.755010 30558 net.cpp:131] Top shape: 1 1 (1)
I0602 14:12:14.755017 30558 net.cpp:131] Top shape: 1 1 (1)
I0602 14:12:14.755022 30558 net.cpp:131] Top shape: 1 1 (1)
I0602 14:12:14.755028 30558 net.cpp:131] Top shape: 1 1 (1)
I0602 14:12:14.755034 30558 net.cpp:131] Top shape: 1 1 (1)
I0602 14:12:14.755039 30558 net.cpp:131] Top shape: 1 1 (1)
I0602 14:12:14.755046 30558 net.cpp:131] Top shape: 1 1 (1)
I0602 14:12:14.755053 30558 net.cpp:131] Top shape: 1 1 (1)
I0602 14:12:14.755059 30558 net.cpp:131] Top shape: 1 1 (1)
I0602 14:12:14.755065 30558 net.cpp:131] Top shape: 1 1 (1)
I0602 14:12:14.755072 30558 net.cpp:131] Top shape: 1 1 (1)
I0602 14:12:14.755079 30558 net.cpp:139] Memory required for data: 185240
I0602 14:12:14.755085 30558 layer_factory.hpp:77] Creating layer cont_1_lstm3_cont_slice_0_split
I0602 14:12:14.755092 30558 net.cpp:86] Creating Layer cont_1_lstm3_cont_slice_0_split
I0602 14:12:14.755102 30558 net.cpp:408] cont_1_lstm3_cont_slice_0_split <- cont_1
I0602 14:12:14.755115 30558 net.cpp:382] cont_1_lstm3_cont_slice_0_split -> cont_1_lstm3_cont_slice_0_split_0
I0602 14:12:14.755123 30558 net.cpp:382] cont_1_lstm3_cont_slice_0_split -> cont_1_lstm3_cont_slice_0_split_1
I0602 14:12:14.755131 30558 net.cpp:124] Setting up cont_1_lstm3_cont_slice_0_split
I0602 14:12:14.755138 30558 net.cpp:131] Top shape: 1 1 (1)
I0602 14:12:14.755144 30558 net.cpp:131] Top shape: 1 1 (1)
I0602 14:12:14.755151 30558 net.cpp:139] Memory required for data: 185248
I0602 14:12:14.755156 30558 layer_factory.hpp:77] Creating layer cont_2_lstm3_cont_slice_1_split
I0602 14:12:14.755162 30558 net.cpp:86] Creating Layer cont_2_lstm3_cont_slice_1_split
I0602 14:12:14.755168 30558 net.cpp:408] cont_2_lstm3_cont_slice_1_split <- cont_2
I0602 14:12:14.755175 30558 net.cpp:382] cont_2_lstm3_cont_slice_1_split -> cont_2_lstm3_cont_slice_1_split_0
I0602 14:12:14.755184 30558 net.cpp:382] cont_2_lstm3_cont_slice_1_split -> cont_2_lstm3_cont_slice_1_split_1
I0602 14:12:14.755192 30558 net.cpp:124] Setting up cont_2_lstm3_cont_slice_1_split
I0602 14:12:14.755199 30558 net.cpp:131] Top shape: 1 1 (1)
I0602 14:12:14.755208 30558 net.cpp:131] Top shape: 1 1 (1)
I0602 14:12:14.755213 30558 net.cpp:139] Memory required for data: 185256
I0602 14:12:14.755220 30558 layer_factory.hpp:77] Creating layer cont_3_lstm3_cont_slice_2_split
I0602 14:12:14.755228 30558 net.cpp:86] Creating Layer cont_3_lstm3_cont_slice_2_split
I0602 14:12:14.755234 30558 net.cpp:408] cont_3_lstm3_cont_slice_2_split <- cont_3
I0602 14:12:14.755240 30558 net.cpp:382] cont_3_lstm3_cont_slice_2_split -> cont_3_lstm3_cont_slice_2_split_0
I0602 14:12:14.755249 30558 net.cpp:382] cont_3_lstm3_cont_slice_2_split -> cont_3_lstm3_cont_slice_2_split_1
I0602 14:12:14.755256 30558 net.cpp:124] Setting up cont_3_lstm3_cont_slice_2_split
I0602 14:12:14.755262 30558 net.cpp:131] Top shape: 1 1 (1)
I0602 14:12:14.755270 30558 net.cpp:131] Top shape: 1 1 (1)
I0602 14:12:14.755276 30558 net.cpp:139] Memory required for data: 185264
I0602 14:12:14.755281 30558 layer_factory.hpp:77] Creating layer cont_4_lstm3_cont_slice_3_split
I0602 14:12:14.755288 30558 net.cpp:86] Creating Layer cont_4_lstm3_cont_slice_3_split
I0602 14:12:14.755295 30558 net.cpp:408] cont_4_lstm3_cont_slice_3_split <- cont_4
I0602 14:12:14.755302 30558 net.cpp:382] cont_4_lstm3_cont_slice_3_split -> cont_4_lstm3_cont_slice_3_split_0
I0602 14:12:14.755311 30558 net.cpp:382] cont_4_lstm3_cont_slice_3_split -> cont_4_lstm3_cont_slice_3_split_1
I0602 14:12:14.755317 30558 net.cpp:124] Setting up cont_4_lstm3_cont_slice_3_split
I0602 14:12:14.755324 30558 net.cpp:131] Top shape: 1 1 (1)
I0602 14:12:14.755331 30558 net.cpp:131] Top shape: 1 1 (1)
I0602 14:12:14.755337 30558 net.cpp:139] Memory required for data: 185272
I0602 14:12:14.755342 30558 layer_factory.hpp:77] Creating layer cont_5_lstm3_cont_slice_4_split
I0602 14:12:14.755348 30558 net.cpp:86] Creating Layer cont_5_lstm3_cont_slice_4_split
I0602 14:12:14.755354 30558 net.cpp:408] cont_5_lstm3_cont_slice_4_split <- cont_5
I0602 14:12:14.755363 30558 net.cpp:382] cont_5_lstm3_cont_slice_4_split -> cont_5_lstm3_cont_slice_4_split_0
I0602 14:12:14.755370 30558 net.cpp:382] cont_5_lstm3_cont_slice_4_split -> cont_5_lstm3_cont_slice_4_split_1
I0602 14:12:14.755378 30558 net.cpp:124] Setting up cont_5_lstm3_cont_slice_4_split
I0602 14:12:14.755384 30558 net.cpp:131] Top shape: 1 1 (1)
I0602 14:12:14.755390 30558 net.cpp:131] Top shape: 1 1 (1)
I0602 14:12:14.755396 30558 net.cpp:139] Memory required for data: 185280
I0602 14:12:14.755403 30558 layer_factory.hpp:77] Creating layer cont_6_lstm3_cont_slice_5_split
I0602 14:12:14.755412 30558 net.cpp:86] Creating Layer cont_6_lstm3_cont_slice_5_split
I0602 14:12:14.755419 30558 net.cpp:408] cont_6_lstm3_cont_slice_5_split <- cont_6
I0602 14:12:14.755425 30558 net.cpp:382] cont_6_lstm3_cont_slice_5_split -> cont_6_lstm3_cont_slice_5_split_0
I0602 14:12:14.755434 30558 net.cpp:382] cont_6_lstm3_cont_slice_5_split -> cont_6_lstm3_cont_slice_5_split_1
I0602 14:12:14.755445 30558 net.cpp:124] Setting up cont_6_lstm3_cont_slice_5_split
I0602 14:12:14.755455 30558 net.cpp:131] Top shape: 1 1 (1)
I0602 14:12:14.755461 30558 net.cpp:131] Top shape: 1 1 (1)
I0602 14:12:14.755467 30558 net.cpp:139] Memory required for data: 185288
I0602 14:12:14.755475 30558 layer_factory.hpp:77] Creating layer cont_7_lstm3_cont_slice_6_split
I0602 14:12:14.755481 30558 net.cpp:86] Creating Layer cont_7_lstm3_cont_slice_6_split
I0602 14:12:14.755486 30558 net.cpp:408] cont_7_lstm3_cont_slice_6_split <- cont_7
I0602 14:12:14.755494 30558 net.cpp:382] cont_7_lstm3_cont_slice_6_split -> cont_7_lstm3_cont_slice_6_split_0
I0602 14:12:14.755501 30558 net.cpp:382] cont_7_lstm3_cont_slice_6_split -> cont_7_lstm3_cont_slice_6_split_1
I0602 14:12:14.755511 30558 net.cpp:124] Setting up cont_7_lstm3_cont_slice_6_split
I0602 14:12:14.755518 30558 net.cpp:131] Top shape: 1 1 (1)
I0602 14:12:14.755527 30558 net.cpp:131] Top shape: 1 1 (1)
I0602 14:12:14.755533 30558 net.cpp:139] Memory required for data: 185296
I0602 14:12:14.755538 30558 layer_factory.hpp:77] Creating layer cont_8_lstm3_cont_slice_7_split
I0602 14:12:14.755544 30558 net.cpp:86] Creating Layer cont_8_lstm3_cont_slice_7_split
I0602 14:12:14.755550 30558 net.cpp:408] cont_8_lstm3_cont_slice_7_split <- cont_8
I0602 14:12:14.755556 30558 net.cpp:382] cont_8_lstm3_cont_slice_7_split -> cont_8_lstm3_cont_slice_7_split_0
I0602 14:12:14.755564 30558 net.cpp:382] cont_8_lstm3_cont_slice_7_split -> cont_8_lstm3_cont_slice_7_split_1
I0602 14:12:14.755573 30558 net.cpp:124] Setting up cont_8_lstm3_cont_slice_7_split
I0602 14:12:14.755578 30558 net.cpp:131] Top shape: 1 1 (1)
I0602 14:12:14.755584 30558 net.cpp:131] Top shape: 1 1 (1)
I0602 14:12:14.755590 30558 net.cpp:139] Memory required for data: 185304
I0602 14:12:14.755596 30558 layer_factory.hpp:77] Creating layer cont_9_lstm3_cont_slice_8_split
I0602 14:12:14.755604 30558 net.cpp:86] Creating Layer cont_9_lstm3_cont_slice_8_split
I0602 14:12:14.755610 30558 net.cpp:408] cont_9_lstm3_cont_slice_8_split <- cont_9
I0602 14:12:14.755617 30558 net.cpp:382] cont_9_lstm3_cont_slice_8_split -> cont_9_lstm3_cont_slice_8_split_0
I0602 14:12:14.755625 30558 net.cpp:382] cont_9_lstm3_cont_slice_8_split -> cont_9_lstm3_cont_slice_8_split_1
I0602 14:12:14.755632 30558 net.cpp:124] Setting up cont_9_lstm3_cont_slice_8_split
I0602 14:12:14.755640 30558 net.cpp:131] Top shape: 1 1 (1)
I0602 14:12:14.755646 30558 net.cpp:131] Top shape: 1 1 (1)
I0602 14:12:14.755652 30558 net.cpp:139] Memory required for data: 185312
I0602 14:12:14.755658 30558 layer_factory.hpp:77] Creating layer cont_10_lstm3_cont_slice_9_split
I0602 14:12:14.755663 30558 net.cpp:86] Creating Layer cont_10_lstm3_cont_slice_9_split
I0602 14:12:14.755669 30558 net.cpp:408] cont_10_lstm3_cont_slice_9_split <- cont_10
I0602 14:12:14.755676 30558 net.cpp:382] cont_10_lstm3_cont_slice_9_split -> cont_10_lstm3_cont_slice_9_split_0
I0602 14:12:14.755684 30558 net.cpp:382] cont_10_lstm3_cont_slice_9_split -> cont_10_lstm3_cont_slice_9_split_1
I0602 14:12:14.755692 30558 net.cpp:124] Setting up cont_10_lstm3_cont_slice_9_split
I0602 14:12:14.755700 30558 net.cpp:131] Top shape: 1 1 (1)
I0602 14:12:14.755707 30558 net.cpp:131] Top shape: 1 1 (1)
I0602 14:12:14.755713 30558 net.cpp:139] Memory required for data: 185320
I0602 14:12:14.755719 30558 layer_factory.hpp:77] Creating layer cont_11_lstm3_cont_slice_10_split
I0602 14:12:14.755726 30558 net.cpp:86] Creating Layer cont_11_lstm3_cont_slice_10_split
I0602 14:12:14.755733 30558 net.cpp:408] cont_11_lstm3_cont_slice_10_split <- cont_11
I0602 14:12:14.755740 30558 net.cpp:382] cont_11_lstm3_cont_slice_10_split -> cont_11_lstm3_cont_slice_10_split_0
I0602 14:12:14.755748 30558 net.cpp:382] cont_11_lstm3_cont_slice_10_split -> cont_11_lstm3_cont_slice_10_split_1
I0602 14:12:14.755755 30558 net.cpp:124] Setting up cont_11_lstm3_cont_slice_10_split
I0602 14:12:14.755762 30558 net.cpp:131] Top shape: 1 1 (1)
I0602 14:12:14.755769 30558 net.cpp:131] Top shape: 1 1 (1)
I0602 14:12:14.755774 30558 net.cpp:139] Memory required for data: 185328
I0602 14:12:14.755810 30558 layer_factory.hpp:77] Creating layer cont_12_lstm3_cont_slice_11_split
I0602 14:12:14.755820 30558 net.cpp:86] Creating Layer cont_12_lstm3_cont_slice_11_split
I0602 14:12:14.755825 30558 net.cpp:408] cont_12_lstm3_cont_slice_11_split <- cont_12
I0602 14:12:14.755833 30558 net.cpp:382] cont_12_lstm3_cont_slice_11_split -> cont_12_lstm3_cont_slice_11_split_0
I0602 14:12:14.755842 30558 net.cpp:382] cont_12_lstm3_cont_slice_11_split -> cont_12_lstm3_cont_slice_11_split_1
I0602 14:12:14.755851 30558 net.cpp:124] Setting up cont_12_lstm3_cont_slice_11_split
I0602 14:12:14.755858 30558 net.cpp:131] Top shape: 1 1 (1)
I0602 14:12:14.755864 30558 net.cpp:131] Top shape: 1 1 (1)
I0602 14:12:14.755870 30558 net.cpp:139] Memory required for data: 185336
I0602 14:12:14.755877 30558 layer_factory.hpp:77] Creating layer cont_13_lstm3_cont_slice_12_split
I0602 14:12:14.755883 30558 net.cpp:86] Creating Layer cont_13_lstm3_cont_slice_12_split
I0602 14:12:14.755890 30558 net.cpp:408] cont_13_lstm3_cont_slice_12_split <- cont_13
I0602 14:12:14.755897 30558 net.cpp:382] cont_13_lstm3_cont_slice_12_split -> cont_13_lstm3_cont_slice_12_split_0
I0602 14:12:14.755904 30558 net.cpp:382] cont_13_lstm3_cont_slice_12_split -> cont_13_lstm3_cont_slice_12_split_1
I0602 14:12:14.755913 30558 net.cpp:124] Setting up cont_13_lstm3_cont_slice_12_split
I0602 14:12:14.755921 30558 net.cpp:131] Top shape: 1 1 (1)
I0602 14:12:14.755928 30558 net.cpp:131] Top shape: 1 1 (1)
I0602 14:12:14.755934 30558 net.cpp:139] Memory required for data: 185344
I0602 14:12:14.755939 30558 layer_factory.hpp:77] Creating layer cont_14_lstm3_cont_slice_13_split
I0602 14:12:14.755947 30558 net.cpp:86] Creating Layer cont_14_lstm3_cont_slice_13_split
I0602 14:12:14.755954 30558 net.cpp:408] cont_14_lstm3_cont_slice_13_split <- cont_14
I0602 14:12:14.755960 30558 net.cpp:382] cont_14_lstm3_cont_slice_13_split -> cont_14_lstm3_cont_slice_13_split_0
I0602 14:12:14.755969 30558 net.cpp:382] cont_14_lstm3_cont_slice_13_split -> cont_14_lstm3_cont_slice_13_split_1
I0602 14:12:14.755976 30558 net.cpp:124] Setting up cont_14_lstm3_cont_slice_13_split
I0602 14:12:14.755983 30558 net.cpp:131] Top shape: 1 1 (1)
I0602 14:12:14.755990 30558 net.cpp:131] Top shape: 1 1 (1)
I0602 14:12:14.755996 30558 net.cpp:139] Memory required for data: 185352
I0602 14:12:14.756003 30558 layer_factory.hpp:77] Creating layer cont_15_lstm3_cont_slice_14_split
I0602 14:12:14.756011 30558 net.cpp:86] Creating Layer cont_15_lstm3_cont_slice_14_split
I0602 14:12:14.756016 30558 net.cpp:408] cont_15_lstm3_cont_slice_14_split <- cont_15
I0602 14:12:14.756024 30558 net.cpp:382] cont_15_lstm3_cont_slice_14_split -> cont_15_lstm3_cont_slice_14_split_0
I0602 14:12:14.756032 30558 net.cpp:382] cont_15_lstm3_cont_slice_14_split -> cont_15_lstm3_cont_slice_14_split_1
I0602 14:12:14.756041 30558 net.cpp:124] Setting up cont_15_lstm3_cont_slice_14_split
I0602 14:12:14.756047 30558 net.cpp:131] Top shape: 1 1 (1)
I0602 14:12:14.756053 30558 net.cpp:131] Top shape: 1 1 (1)
I0602 14:12:14.756059 30558 net.cpp:139] Memory required for data: 185360
I0602 14:12:14.756065 30558 layer_factory.hpp:77] Creating layer lstm3_x_transform
I0602 14:12:14.756073 30558 net.cpp:86] Creating Layer lstm3_x_transform
I0602 14:12:14.756080 30558 net.cpp:408] lstm3_x_transform <- x
I0602 14:12:14.756089 30558 net.cpp:382] lstm3_x_transform -> W_xc_x
I0602 14:12:14.774646 30558 net.cpp:124] Setting up lstm3_x_transform
I0602 14:12:14.774678 30558 net.cpp:131] Top shape: 15 1 400 (6000)
I0602 14:12:14.774685 30558 net.cpp:139] Memory required for data: 209360
I0602 14:12:14.774701 30558 layer_factory.hpp:77] Creating layer lstm3_W_xc_x_slice
I0602 14:12:14.774715 30558 net.cpp:86] Creating Layer lstm3_W_xc_x_slice
I0602 14:12:14.774722 30558 net.cpp:408] lstm3_W_xc_x_slice <- W_xc_x
I0602 14:12:14.774731 30558 net.cpp:382] lstm3_W_xc_x_slice -> W_xc_x_1
I0602 14:12:14.774744 30558 net.cpp:382] lstm3_W_xc_x_slice -> W_xc_x_2
…
I0602 14:12:14.797158 30558 net.cpp:202] lstm4_ does not need backward computation.
I0602 14:12:14.797163 30558 net.cpp:244] This network produces output c_T
I0602 14:12:14.797168 30558 net.cpp:244] This network produces output h_pseudoloss
I0602 14:12:14.797243 30558 net.cpp:257] Network initialization done.
I0602 14:12:14.797372 30558 recurrent_layer.cpp:150] Adding parameter 0: W_xc
I0602 14:12:14.797380 30558 recurrent_layer.cpp:150] Adding parameter 1: b_c
I0602 14:12:14.797386 30558 recurrent_layer.cpp:150] Adding parameter 2: W_hc
I0602 14:12:14.797479 30558 net.cpp:124] Setting up lstm4
I0602 14:12:14.797488 30558 net.cpp:131] Top shape: 15 1 100 (1500)
I0602 14:12:14.797493 30558 net.cpp:139] Memory required for data: 40224040
I0602 14:12:14.797503 30558 layer_factory.hpp:77] Creating layer fc3
I0602 14:12:14.797518 30558 net.cpp:86] Creating Layer fc3
I0602 14:12:14.797528 30558 net.cpp:408] fc3 <- lstm4
I0602 14:12:14.797538 30558 net.cpp:382] fc3 -> fc3
I0602 14:12:14.797621 30558 net.cpp:124] Setting up fc3
I0602 14:12:14.797629 30558 net.cpp:131] Top shape: 15 1 100 (1500)
I0602 14:12:14.797636 30558 net.cpp:139] Memory required for data: 40230040
I0602 14:12:14.797642 30558 layer_factory.hpp:77] Creating layer fc4
I0602 14:12:14.797652 30558 net.cpp:86] Creating Layer fc4
I0602 14:12:14.797658 30558 net.cpp:408] fc4 <- fc3
I0602 14:12:14.797664 30558 net.cpp:382] fc4 -> fc4
I0602 14:12:14.797684 30558 net.cpp:124] Setting up fc4
I0602 14:12:14.797691 30558 net.cpp:131] Top shape: 15 1 11 (165)
I0602 14:12:14.797696 30558 net.cpp:139] Memory required for data: 40230700
I0602 14:12:14.797703 30558 layer_factory.hpp:77] Creating layer rev2
I0602 14:12:14.797711 30558 net.cpp:86] Creating Layer rev2
I0602 14:12:14.797716 30558 net.cpp:408] rev2 <- fc4
I0602 14:12:14.797722 30558 net.cpp:382] rev2 -> rev2
I0602 14:12:14.797730 30558 net.cpp:124] Setting up rev2
I0602 14:12:14.797737 30558 net.cpp:131] Top shape: 15 1 11 (165)
I0602 14:12:14.797742 30558 net.cpp:139] Memory required for data: 40231360
I0602 14:12:14.797747 30558 layer_factory.hpp:77] Creating layer eltwise-sum
I0602 14:12:14.797755 30558 net.cpp:86] Creating Layer eltwise-sum
I0602 14:12:14.797760 30558 net.cpp:408] eltwise-sum <- fc2
I0602 14:12:14.797765 30558 net.cpp:408] eltwise-sum <- rev2
I0602 14:12:14.797771 30558 net.cpp:382] eltwise-sum -> sum
I0602 14:12:14.797778 30558 net.cpp:124] Setting up eltwise-sum
I0602 14:12:14.797785 30558 net.cpp:131] Top shape: 15 1 11 (165)
I0602 14:12:14.797790 30558 net.cpp:139] Memory required for data: 40232020
I0602 14:12:14.797794 30558 layer_factory.hpp:77] Creating layer sum_eltwise-sum_0_split
I0602 14:12:14.797801 30558 net.cpp:86] Creating Layer sum_eltwise-sum_0_split
I0602 14:12:14.797806 30558 net.cpp:408] sum_eltwise-sum_0_split <- sum
I0602 14:12:14.797812 30558 net.cpp:382] sum_eltwise-sum_0_split -> sum_eltwise-sum_0_split_0
I0602 14:12:14.797819 30558 net.cpp:382] sum_eltwise-sum_0_split -> sum_eltwise-sum_0_split_1
I0602 14:12:14.797827 30558 net.cpp:124] Setting up sum_eltwise-sum_0_split
I0602 14:12:14.797832 30558 net.cpp:131] Top shape: 15 1 11 (165)
I0602 14:12:14.797838 30558 net.cpp:131] Top shape: 15 1 11 (165)
I0602 14:12:14.797842 30558 net.cpp:139] Memory required for data: 40233340
I0602 14:12:14.797848 30558 layer_factory.hpp:77] Creating layer ctc_loss
I0602 14:12:14.797861 30558 net.cpp:86] Creating Layer ctc_loss
I0602 14:12:14.797868 30558 net.cpp:408] ctc_loss <- sum_eltwise-sum_0_split_0
I0602 14:12:14.797873 30558 net.cpp:408] ctc_loss <- label_data_1_split_0
I0602 14:12:14.797879 30558 net.cpp:382] ctc_loss -> ctc_loss
I0602 14:12:14.797893 30558 net.cpp:124] Setting up ctc_loss
I0602 14:12:14.797899 30558 net.cpp:131] Top shape: (1)
I0602 14:12:14.797904 30558 net.cpp:134]     with loss weight 1
I0602 14:12:14.797910 30558 net.cpp:139] Memory required for data: 40233344
I0602 14:12:14.797914 30558 layer_factory.hpp:77] Creating layer permute_fc
I0602 14:12:14.797924 30558 net.cpp:86] Creating Layer permute_fc
I0602 14:12:14.797929 30558 net.cpp:408] permute_fc <- sum_eltwise-sum_0_split_1
I0602 14:12:14.797935 30558 net.cpp:382] permute_fc -> premuted_fc
I0602 14:12:14.797948 30558 net.cpp:124] Setting up permute_fc
I0602 14:12:14.797955 30558 net.cpp:131] Top shape: 1 15 11 (165)
I0602 14:12:14.797960 30558 net.cpp:139] Memory required for data: 40234004
I0602 14:12:14.797965 30558 layer_factory.hpp:77] Creating layer accuracy
I0602 14:12:14.797971 30558 net.cpp:86] Creating Layer accuracy
I0602 14:12:14.797977 30558 net.cpp:408] accuracy <- premuted_fc
I0602 14:12:14.797983 30558 net.cpp:408] accuracy <- label_data_1_split_1
I0602 14:12:14.797989 30558 net.cpp:382] accuracy -> accuracy
…
